TX2/multicamerarl/torch_models/weights_0.pth (torch_old, 478682 bytes, 91 tensors)

conv1.weight f4 [16, 3, 3, 3]
00000000: 55d7 afbd 210a 22be 5f5e 323e 19dc 0a3e
00000010: df39 35be 2db8 f23d 5031 183c eeb5 083d
00000020: 7dd6 02be a2a4 54bd 08d2 203e d233 603c
00000030: b674 3c3d 4d6a c2bd d8b4 c8bd 37b8 40be
00000040: 3ad4 3ebe eb30 14bd 9402 ee3d c476 76bd
00000050: 788d 3d3e b185 d8bd b9e9 02be eb46 383e
00000060: 7293 2abe bd23 f53d 45f5 f8bc 6826 9d3c
00000070: 35a9 29be 0c8d ad3d c884 a33d 4f56 4f3d
00000080: 52d4 bb3d 19c2 18be 57f7 29bd 2b08 0a3d
00000090: b514 1a3c 817d 333e f45f 4ebc dec8 9b3b
000000a0: fdac e5bd 960c 49be 30cb e03d 111f 1cbe
000000b0: c561 e1bd 80e0 c4bd f742 19be d4fd b13d
000000c0: f7cd a43d ffcf 86bd c5ca bb3d df11 cfbd
000000d0: 145f b7bd 9717 d43d cd6d f73d 6d2d b0bd
000000e0: 577c 8d3d 876d c8bc 7434 97bd fbc8 773d
000000f0: deb6 a8bd d462 cbbc 73c6 213e ffb3 4abd
00000100: 45af 10be aaa8 3abd 5cf3 43bd dcec ed3d
00000110: 8d75 cbbb f34e fcbd c8d2 bfbd ebf1 aabd
00000120: 77a8 ab3d fbf7 083c 49ea 89bd 9ea1 9dbd
00000130: 548b d3bd 0d63 2dbe 2ace 43be 632d 313c
00000140: 42c4 16be 0817 4b3d 2cad 69bd dadb 1b3e
00000150: a134 b5bc 6551 0bbe 797a 39be 820c cd3d
00000160: c4fd 023e a0b2 e63d d31b 163e a6ab 073e
00000170: adbb 043e 4eb8 eabd e51a bcbd 5d5c 813d
00000180: af07 8ebd d829 1cbe 83c0 913d 98e4 453d
00000190: ffbc db3c ffef 24be 21a5 0e3d ea12 85bd
000001a0: 7688 423c b45d 3ebe e109 083e 97b9 793c
000001b0: ea4b 953d 9786 2bbe 648d c6bd 9930 4e3d
000001c0: 5653 113e 1fe2 90bc 0ca1 3eb9 4f6c 7c3d
000001d0: e372 253d 7620 9abc c8fe 40be eeae 49be
000001e0: 71cb 9fbb f49f 233e c2d7 2a3d 577c cebd
000001f0: aa2b 32be ae16 92bc d02c 943d 5cce 01be
00000200: 998a 96bd 60d7 20be ce79 a4bd 7196 adbd
00000210: 9991 87bd b69a 1abd bf8e 2ebe 0e04 fabd
00000220: aea6 81bb d05b aa3c ad47 ee3d 32fd 06be
00000230: 57bf ab3d b592 d13d 5104 10be f02c cd3d
00000240: 795b 27be d556 35be df37 f43d 4818 b83c
00000250: 52ba 253e 84ca 6c3d c9c6 00be 2105 ecbd
00000260: ea63 f43c de1b f43d 2d9f f5bd 0665 e5bd
00000270: 72e6 cf3a 6f68 d63c 56ee c23a 06b8 bfbd
00000280: 40fd cf3d 30a2 773d ae7d 1f3d b99a c33d
00000290: 0943 08bc 1496 983d f130 e4bd aaeb 3f3e
000002a0: b8d0 2bbd 4f5f 80bd 05ed f8bd a62b 1b3e
000002b0: 20bc 2f3e eb30 0fbe d691 113e f2c8 02be
000002c0: 07f5 933d 8f20 75b9 dc2a d3bb 70a6 6d3d
000002d0: 8e54 363d 2704 313e 971f 323e 6057 47be
000002e0: fdd7 05bc 9184 273e 68d7 613d a514 53bd
000002f0: 1036 43be 115d efbd d5a0 3cbe f711 22be
00000300: a684 273e dda3 2bbe cc16 d53d 8148 13be
00000310: 27c0 1cbe 9a26 f4bc fbac 6dbd 5998 cf3d
00000320: b8ba 233e 4662 b03a fc20 e13d c64f 3bbe
00000330: 6937 b23d 14df e9bd 8f13 ce3d 2627 2abe
00000340: 2eca 0bbe 9817 9c3d 59c3 9d3d d525 1f3e
00000350: 88af b53b 6626 0ebe e78e ab3c 45d0 833d
00000360: 957b f63d 18ef e43d c454 2dbe 1040 73bd
00000370: 06d4 f7bd 38a8 e13b 45ff b73c f5fc 273e
00000380: fbd6 cebd 9926 7abd 5d65 57bd 5f22 3ebe
00000390: d462 b6bd 18e8 1fbd 3fb7 de3d efeb bdbd
000003a0: c553 7f3c d5de d63d 530f 2f3e 83bd 633d
000003b0: 188b 10be d12c 15be 4ec9 083e 27d8 12be
000003c0: 35ac 2e3c a814 363e f58b 17be fc0d 233e
000003d0: fd5e e43d 10ad 533b 3d7b 29be 2ec9 abbd
000003e0: 83a6 9bbd 5222 1cbe 7d0b 853d 9f13 e03d
000003f0: afb1 493e 05d0 07be 9f63 153e 61ab d2bc
-0.08585993 -0.15824176 0.17418812 0.13560523 -0.17697857 0.11851535 0.009289101 0.033376627
-0.12777133 -0.05191482 0.1570512 0.01368423 0.04600974 -0.094929315 -0.09800118 -0.18820272
-0.18635646 -0.036179464 0.116215855 -0.060171857 0.18510997 -0.105723746 -0.1278447 0.17995803
-0.16657808 0.11969707 -0.030390391 0.019183353 -0.16568454 0.08474168 0.079843104 0.05061942
0.09171356 -0.14917792 -0.041495647 0.033699196 0.009404351 0.17528345 -0.012596119 0.00475417
-0.112146355 -0.19633707 0.10976255 -0.15246226 -0.11004976 -0.096131325 -0.14966951 0.08690992
0.08047097 -0.06582641 0.091695346 -0.101108305 -0.089536816 0.10356062 0.1208149 -0.08602414
0.069084816 -0.02446629 -0.073830515 0.060494404 -0.08238004 -0.024827398 0.15798359 -0.049488064
-0.1412936 -0.045571007 -0.047839507 0.11617443 -0.0062090815 -0.12319746 -0.09366375 -0.083469234
0.083817415 0.008359904 -0.067341395 -0.07696842 -0.10329309 -0.16932316 -0.19121614 0.010814044
-0.14723304 0.04958251 -0.057049915 0.15220585 -0.022119822 -0.13605268 -0.18113126 0.10012151
0.12792116 0.11264539 0.14659052 0.13249072 0.12962218 -0.114609346 -0.09184817 0.06316445
-0.06935059 -0.15250337 0.07116797 0.048313707 0.026823519 -0.16107176 0.034825448 -0.06497748
0.011873355 -0.18590432 0.13285019 0.015242002 0.0728987 -0.1675056 -0.09694937 0.050339315
0.14191946 -0.017685948 -0.00018179807 0.06162673 0.040392768 -0.018814307 -0.18847191 -0.19695637
-0.004876547 0.15978986 0.04170967 -0.1008231 -0.17399469 -0.01783308 0.0723511 -0.12676376
-0.07350654 -0.15707159 -0.08031045 -0.0847596 -0.066195674 -0.0377452 -0.17046641 -0.122078046
-0.0039566373 0.020795733 0.11634765 -0.13182524 0.083861046 0.1023306 -0.14064147 0.10018337
-0.16343488 -0.17708905 0.11924719 0.022472516 0.16184357 0.05781032 -0.1257583 -0.11524416
0.029832799 0.11919378 -0.11993251 -0.11200909 0.0015861525 0.026172845 0.0014872055 -0.093612716
0.101557255 0.06045741 0.038938217 0.095509954 -0.008316764 0.074505 -0.11142147 0.18742242
-0.041947097 -0.06268179 -0.12154583 0.1515337 0.17161608 -0.13983504 0.14215788 -0.12771967
0.0722447 -0.0002337715 -0.006444318 0.058020055 0.04451423 0.1728674 0.17394863 -0.19466925
-0.008169171 0.16359164 0.055137068 -0.05153336 -0.19063592 -0.11687673 -0.18420728 -0.15827166
0.16359195 -0.16761728 0.10404739 -0.14383127 -0.15307675 -0.029803563 -0.058026295 0.1013648
0.15989196 0.0013457022 0.109926194 -0.1829215 0.08701975 -0.11419502 0.10062324 -0.16616496
-0.13651344 0.07621688 0.07703275 0.15541776 0.0055446066 -0.13881835 0.020942165 0.06436209
0.1203529 0.11178416 -0.16926867 -0.059387267 -0.12100987 0.0068865083 0.02246059 0.16405089
-0.10099598 -0.061071966 -0.052586902 -0.18567799 -0.08905569 -0.0390397 0.10874795 -0.092735164
0.015583937 0.104917206 0.1709569 0.055600654 -0.1411556 -0.14567877 0.13358042 -0.14340268
0.010661175 0.17781317 -0.14799483 0.15923303 0.1115093 0.0032299198 -0.16550918 -0.08387981
-0.07600119 -0.15247467 0.06496332 0.109412424 0.19696687 -0.13262947 0.14588784 -0.025716485

bn1.weight f4 [16]
00000000: 00ab 803f b22d 803f 0250 803f 8d6a 803f
00000010: bd09 7f3f 4847 803f 5cf1 7f3f e441 7e3f
00000020: 8207 803f 3a31 803f 85c7 803f d09d 803f
00000030: b312 7e3f 9cae 803f 22c5 7e3f ed03 813f
1.0052185 1.0013945 1.0024416 1.0032517 0.99624234 1.0021753 0.9997766 0.9931929
1.0002291 1.0015023 1.0060889 1.004816 0.9924728 1.0053287 0.9951955 1.0079323

bn1.bias f4 [16]
00000000: 4eea 923b 6341 463b 4e0e 553b 17f3 bebb
00000010: 7c2d 95bb f918 0dba 69dc 453b 9021 88bb
00000020: cb91 f4bb 1534 923b 5edb 7e3b bdc4 e83b
00000030: c410 b2bb f4d5 ce3b 1ef7 7d3b 9b37 2d3b
0.0044834977 0.0030251376 0.0032509747 -0.0058273184 -0.0045525413 -0.00053824444 0.003019119 -0.0041543916
-0.007463669 0.004461775 0.0038888077 0.007103531 -0.0054341275 0.0063121263 0.003875203 0.0026430849

bn1.running_mean f4 [16]
00000000: 74a4 1ebe 8ae3 02be d652 a5be 4e6e 0f3d
00000010: 5a39 bebe 4f78 88bd 95bd 373e f907 0fbe
00000020: 1a1a dbbd a9ff 453e 60de cb3d ba46 96be
00000030: cd0a 943e 834e e03c eb44 6cbd 4507 283e
-0.15492421 -0.12782112 -0.3228976 0.035017304 -0.3715313 -0.06663572 0.17943414 -0.13967885
-0.10698338 0.19335808 0.09954524 -0.29350835 0.2891449 0.027381187 -0.057682913 0.16409023

bn1.running_var f4 [16]
00000000: 6eab 8b3e 90fc 873e b263 a63e eb51 833e
00000010: 80c5 b23e 6b51 843e 4e4a 8f3e 14ae 8a3e
00000020: 1fbc 863e 8d90 903e 76e9 853e 5545 a23e
00000030: 67b1 9f3e 33c9 833e 4622 843e 68a8 8c3e
0.27279228 0.26559877 0.32497936 0.25648436 0.34916306 0.25843367 0.27986377 0.27085936
0.263154 0.28235283 0.2615468 0.3169352 0.31190035 0.2573944 0.258074 0.27472234

bneck.0.se.se.1.weight f4 [4, 16, 1, 1]
00000000: a920 f73d 2700 30be 51c9 373c 65db 0dbe
00000010: 6ac2 15be 66b2 a8bd f527 453e 3381 58bc
00000020: e0bf 193e e807 ccbd d82c 783e 5e21 3bbe
00000030: 724d 97bc b4a8 e4bd 08df 603e 787c 413e
00000040: 2237 4e3e 7a73 27bd 1def 6f3e 8700 143d
00000050: 803c d43d b3fc 01be dc48 32bd d5bd fabd
00000060: 93a8 053e 4069 cdbd baeb 21be afc7 423e
00000070: 1d92 f83d 04cb 653e 3cc7 cbbc 60a8 91bd
00000080: d572 3bbe 66d4 173c 70e4 85bc 2430 c53c
00000090: d610 11be 06cc 7e3e bb4e 3e3e 7435 13be
000000a0: 81bc d83c 0cf6 f93d 7d2d 4b3e 4483 9dbd
000000b0: 68af 743e d0c1 42bc 4177 62bd 5b8a 7fbd
000000c0: 0c1a 28be dca4 2cbc e290 cf3d edc1 dabd
000000d0: a584 963c 3f05 353e 10e5 683d d1eb 0f3e
000000e0: 4a8c cabd 9915 5e3e 7913 7cbd 46b5 1b3e
000000f0: bf19 13bd 7898 39bc 32c6 5ebe bbc6 093e
0.12066776 -0.17187558 0.011217431 -0.13853224 -0.14624944 -0.08237152 0.19253524 -0.013214397
0.15014601 -0.099624455 0.24235857 -0.18274447 -0.018469546 -0.1116499 0.2196008 0.18895137
0.20138219 -0.04088161 0.23431058 0.036133315 0.10363102 -0.12694053 -0.043526515 -0.12243239
0.13052587 -0.100298405 -0.15812579 0.19021486 0.12137244 0.22440726 -0.024875276 -0.07112193
-0.18305524 0.009266948 -0.016344279 0.024070807 -0.14166579 0.24882516 0.18584721 -0.1437586
0.026457073 0.12205133 0.19841571 -0.076910526 0.23895037 -0.011887029 -0.05528951 -0.062387805
-0.16416186 -0.010537352 0.10135056 -0.1068152 0.018373797 0.17677782 0.056859076 0.140548
-0.09890039 0.21687926 -0.061542008 0.15205869 -0.035913225 -0.011327855 -0.21755293 0.13454716

bneck.0.se.se.2.weight f4 [4]
00000000: f437 7e3f 3d60 813f 0c84 7d3f 6332 813f
0.9930413 1.0107495 0.9902961 1.0093502

bneck.0.se.se.2.bias f4 [4]
00000000: 7a0c 11bc 6c92 263c 1543 2abc 3411 2a3c
-0.008853072 0.010166746 -0.01039197 0.010380078

bneck.0.se.se.2.running_mean f4 [4]
00000000: 94c3 2f3b 3804 9bb8 bc68 9d3a 7157 7b39
0.0026819455 -7.391762e-05 0.0012009363 0.000239698

bneck.0.se.se.2.running_var f4 [4]
00000000: d923 863e cfa3 303f 7072 c03e bd56 b03e
0.26199225 0.6899995 0.3758731 0.34441176

bneck.0.se.se.4.weight f4 [16, 4, 1, 1]
00000000: 2ca9 173e 7222 9f3e a9b9 593e c1c0 903e
00000010: 94dd 66be e115 00bf 1196 d63c 7568 a93e
00000020: a02f cabd 62b1 7e3e 0902 d93e fe99 92be
00000030: aef5 613e a9b8 6abe 59d2 cbbe 7c57 78be
00000040: a61b ab3e 0c69 ea3d 1144 5e3e da6f 8bbc
00000050: 7716 f93e a365 873e 4fed e1be e480 e23c
00000060: adcd b0be f068 8b3e 8c84 8f3e f70a 9f3e
00000070: 6c42 953e e8be 1d3d e895 d0be 43bb acbe
00000080: 9189 e73e faa6 913d a299 8dbe e7d4 0e3e
00000090: c3dc 2bbe 9b9a 3e3e 7900 823e aef0 edbe
000000a0: 156f e2be 469e 91bd af8d 66be ad7a 93bd
000000b0: b520 26be ca36 a33e 6ca6 b33e a84f 793e
000000c0: 0a50 9b3e 0a0f d23e 7966 f63e 8260 8f3e
000000d0: 8025 853e dc33 5c3e f72e 54be cc73 4bbe
000000e0: 8b0a f93e 948e 0a3e 426b 233e 0dcb d0be
000000f0: 3359 61be 4c09 b3bd 5f6e 123e 6a67 873e
0.14810628 0.31080967 0.2126223 0.2827206 -0.22545463 -0.50033385 0.026194604 0.33087507
-0.09872365 0.24872354 0.42384365 -0.28633112 0.22066376 -0.22922005 -0.3980892 -0.24252123
0.33419532 0.11445817 0.21705653 -0.017021108 0.48649952 0.2644473 -0.44126365 0.02764935
-0.34531918 0.27228498 0.28030813 0.31063053 0.29152238 0.03851214 -0.4073937 -0.3373662
0.45222142 0.071119264 -0.27656275 0.13948403 -0.16783433 0.18613665 0.25390986 -0.46472687
-0.44225374 -0.071102664 -0.22514986 -0.07201133 -0.16223414 0.31877738 0.35087907 0.24346793
0.30334502 0.410271 0.48125055 0.28003317 0.26005173 0.21504158 -0.2072104 -0.19868392
0.48640856 0.13530952 0.15958884 -0.40779915 -0.22006683 -0.087420076 0.14299916 0.26446086

bneck.0.se.se.5.weight f4 [16]
00000000: ca9c 7d3f b8b6 7e3f 8430 803f 38f5 803f
00000010: c2c5 803f 46eb 803f d097 7d3f e458 7d3f
00000020: c572 803f 9d38 803f 964b 803f 5c3e 7d3f
00000030: c311 803f e805 803f c6b2 7f3f 1fd6 7d3f
0.99067366 0.99497557 1.0014806 1.0074835 1.0060351 1.00718 0.9905977 0.9896376
1.0035025 1.0017277 1.0023067 0.9892328 1.000542 1.0001802 0.9988216 0.9915485

bneck.0.se.se.5.bias f4 [16]
00000000: d5e7 18bc 03e3 d03b 6c58 1c3b a86a aebb
00000010: 22d3 f23b 7b55 9cbb f1b3 d3bb dc4e d63b
00000020: 0679 443b 35b6 fb3b 0a3b 063c af1c 31bb
00000030: fc37 603b 9f1d c639 2cc7 ff3a c856 483b
-0.009332617 0.006374718 0.0023856414 -0.005322773 0.007410423 -0.0047709323 -0.0064606597 0.0065401625
0.0029979362 0.007681633 0.008192787 -0.0027025153 0.0034213057 0.00037787572 0.0019514314 0.0030569304

bneck.0.se.se.5.running_mean f4 [16]
00000000: 7fdd a13e 1c25 e9bd 9f36 b53d ae60 5fbe
00000010: 878d 533e 2e48 dd3d 31c7 373e 2be4 0fbe
00000020: 0843 003e 7b6c 8bbd 74ff 83be ce8f 7f3e
00000030: 93a4 f63e 7239 953c e90e e33d 5ec9 203d
0.316143 -0.11384031 0.08848309 -0.21814224 0.20659457 0.10804783 0.17947079 -0.14051883
0.1252557 -0.068078004 -0.25780833 0.24957201 0.48172435 0.018215869 0.11086828 0.03925454

bneck.0.se.se.5.running_var f4 [16]
00000000: b9ef 923e bd27 ed3e 6de1 853e 9ab0 ab3e
00000010: 73c5 8c3e 40f4 e63e ccc6 ad3e 2531 e63e
00000020: c704 a13e 64c3 8f3e 4893 903e d12a 9d3e
00000030: 7b9b a63e 7a10 c23e d4d0 c43e 67f6 ad3e
0.2869852 0.4631938 0.2614855 0.33533174 0.27494392 0.45108223 0.33940732 0.4495937
0.31448957 0.2807876 0.28237367 0.3069673 0.32540497 0.37903196 0.38440573 0.33977053

bneck.0.conv1.weight f4 [16, 16, 1, 1]
00000000: 29b3 fcbd d9a4 26be f320 473e 2589 e4bc
00000010: c8c5 a6bd 21b3 32be 442a bbbc d146 453b
00000020: 5004 6abd 92f2 f03c a8d1 60bc 993e 3f3d
00000030: 1408 143e 411f 7bbd fd5c aa3b 3238 4dbe
00000040: cecc 25be 431f cfbd f51d 183e add4 c03d
00000050: f2b8 b03d 2b24 6f3e 5d24 6f3d 4b07 053e
00000060: 3885 423e b39c 2abe fc52 85bd accf 3e3e
00000070: 13a7 6a3d 62c6 4ebe c55f 5fbe 3d45 03bd
00000080: d16b 223e c405 49be 067c 1f3e 7240 a73d
00000090: de45 12be 4a12 473e 9365 f63c ab89 dc3c
000000a0: 154c d5bd 3c4c 61bd cb9d 3c3e 6577 4c3e
000000b0: 4f7d 1fbe 296c 263e c174 ea3d b6e3 863d
000000c0: 8439 523e bc10 2ebe d881 e1bd c956 7a3e
000000d0: 37ba 5d3e 81b9 c7bc 08ba a73d ccfa 953d
000000e0: c300 503e d444 283e 0728 073c 340c 87bc
000000f0: 944f 6a3d d9c8 ea3d 9c21 2cbe 03c0 84bc
00000100: 4e11 91bd d14c 6ebe ddff 59be b529 0fbd
00000110: 1cb8 32be 683d 6b3c f9df 1dbd 9878 f43b
00000120: a2b6 6e3e e4ef 09be d858 6d3e ea54 10be
00000130: c420 a73d 1562 20be 182c 64bc e020 373b
00000140: 82a8 e73c 666c 00be 7a65 15be 0b30 db3d
00000150: 9bcb 66bc 317f 42be b646 3c3e d79c 3ebe
00000160: 91dc 28be d817 383e d6c4 43be 7bd2 d13d
00000170: 8789 553e 92f8 7fbe e39e 48bd 778b a9bc
00000180: 47cc 80bd f34e b4bd acd3 8ebd 6971 0c39
00000190: 23cd 62be 2bb7 1abe 4f9b ef3c cfb6 c83d
000001a0: 00ee 1cbe 1e02 c93d 4878 ffbd 7eff 373e
000001b0: 931e 81bc 0130 a6bc b68a 18bd 9e52 f7bc
000001c0: 866e f7bd 0dca 513e f142 2c3e d5c2 b63d
000001d0: 5dc9 78bd 7f2a 41be 9e7b 663e f79b 5d3e
000001e0: a00d 37be 43a0 80bd 63f2 5fbe 1e91 c1bd
000001f0: 0d82 a3bd c6aa 053d b3ed 643e 5d81 1d3e
00000200: 6d3b 8abd 3291 823e 0844 a23c 2aa9 babd
00000210: a8be 13bd d091 b9bd 7d94 5cbe 175b 4d3c
00000220: c279 843c 8971 2fbe a8ac 9d3d b16e ab3d
00000230: 3560 08be 1937 a73d b4da b93d ceae 063e
00000240: 4c3f 13bb 8a9e 68be 0567 4a3e 4b19 813d
00000250: d7eb 463e 04de d2bd 488c 023e 239b 85bc
00000260: 15e1 46bd 770b cf3d acd2 afbc 7f53 2bbd
00000270: 8741 a93c f1c9 d8bc 964f cd3d 38cc 6e3e
00000280: 858c d73d 5b4f 403e c89b eabd 6f19 5bbe
00000290: 2c41 49be 0904 2ebd c50f a6bd 612f 073e
000002a0: bbb1 403e 0a7c 773e 56a3 653e 8a8b ddbd
000002b0: 7cca 513e 521c 45be c1ea d13c 6f2f 363c
000002c0: 0b9e 1e3e e71b df3d af7c 453e c8be 5bbe
000002d0: b1c8 81be b9b6 83bc 94cb 39be b92d 74bd
000002e0: 5d4a 673e bd6f a73c 454c 12be e211 4d3e
000002f0: 3603 9ebd d7c2 b13d ada8 bbbd dfbf d03d
00000300: ae36 753e eef2 333e b64e 6ebe fd9c c2bd
00000310: 5d48 2c3e e019 d9bd 6cb8 413d 0acd 673c
00000320: 755f 153c 0ce5 ccbd a827 07be 2d08 1dbe
00000330: 65c9 00bd 27f3 0d3e b33e a6bd ba9b 19be
00000340: e6f1 86bd ed35 99bd 7ff4 623d cffb 7fbb
00000350: 3253 d63d 4b0e 523d da0c 5d3d fa9e 05bd
00000360: c9e0 4bbe 3e43 80bd c268 973d 9c85 20be
00000370: a7c9 913d ffe6 633e c58b 243d 4303 0fbe
00000380: 2735 603e dd22 7e3e 5105 7c3d 9fb1 d5bd
00000390: 36e3 cf3d 065d d73d 6093 7ebe 234b 51bd
000003a0: 373d ab3d abae a6bd ebc0 1bbd 5371 c63d
000003b0: dd8a 933d f77e 043e 8b8f 68be 2ec6 2e3e
000003c0: 6bae 4e3e e5d5 563e 2b86 92bc 5259 30be
000003d0: 8492 55be 5c7c 01bb 6dd5 f93d d778 943d
000003e0: 715e 22be 0482 b639 5402 c83d 3f33 57bd
000003f0: d9bb 433e c1ed 48be 04a6 48be 3045 07be
-0.123388596 -0.16273822 0.19446163 -0.027897427 -0.081431925 -0.17451145 -0.022847302 0.0030102024
-0.05713302 0.029412542 -0.013721861 0.046690557 0.14456207 -0.061309103 0.0051990733 -0.20040968
-0.16191408 -0.101133846 0.14855178 0.09415565 0.086290255 0.2335364 0.058384288 0.12991063
0.18996131 -0.16661339 -0.06509969 0.18633908 0.05728824 -0.20192865 -0.21813877 -0.032048453
0.15861441 -0.19631106 0.15574655 0.08166589 -0.14284465 0.1944057 0.030077731 0.026921114
-0.10414902 -0.055004343 0.18419568 0.1996742 -0.15575145 0.16252197 0.1144805 0.06586401
0.20529753 -0.16998571 -0.11011094 0.24447168 0.21653067 -0.024380447 0.081897795 0.07323226
0.2031279 0.16432506 0.008249289 -0.016485311 0.057204798 0.1146409 -0.16809696 -0.01620484
-0.07083379 -0.2327149 -0.2128901 -0.034951884 -0.17453045 0.014357902 -0.038543675 0.007460665
0.23311856 -0.13470417 0.23178422 -0.14094892 0.081605464 -0.15662415 -0.013926528 0.002794318
0.028278593 -0.1254135 -0.14589491 0.10702523 -0.014086629 -0.18993832 0.18386349 -0.18614517
-0.1649039 0.17977846 -0.19118056 0.10245224 0.20853244 -0.24997166 -0.04897965 -0.020696385
-0.06288963 -0.08804121 -0.06973967 0.00013393689 -0.22148566 -0.15108936 0.029248862 0.09800493
-0.15325165 0.09814857 -0.12474114 0.17968556 -0.01576165 -0.020286562 -0.03724166 -0.030190762
-0.120816275 0.20487233 0.16822411 0.0892388 -0.06073891 -0.18863867 0.22508094 0.21641527
-0.17876291 -0.062805675 -0.21869807 -0.09451507 -0.079837896 0.032633565 0.223563 0.1538138
-0.06749616 0.255014 0.01980783 -0.09114297 -0.036070496 -0.09061015 -0.21541019 0.012533925
0.01617134 -0.17133154 0.07698947 0.08370722 -0.1331795 0.08164806 0.090749174 0.1315262
-0.0022468148 -0.22716728 0.19765861 0.063036524 0.19425903 -0.10296252 0.12748826 -0.016309327
-0.0485545 0.101096086 -0.02146276 -0.041827675 0.020661129 -0.02646348 0.100249454 0.23320091
0.10524849 0.18780272 -0.11455494 -0.21396421 -0.19653767 -0.042484317 -0.081084765 0.13201667
0.18817799 0.24168411 0.22425589 -0.108176306 0.20487398 -0.19249085 0.025624635 0.0111197075
0.15489976 0.10893994 0.19285844 -0.21459496 -0.25348428 -0.01607834 -0.18144065 -0.059613917
0.22586961 0.020439023 -0.14286907 0.20026353 -0.07715456 0.08679741 -0.09163032 0.101928465
0.2394664 0.17573139 -0.23272213 -0.095025994 0.1682448 -0.106006384 0.04729502 0.014148006
0.009116997 -0.10004625 -0.13198721 -0.1533515 -0.031442065 0.13862287 -0.08117428 -0.15000811
-0.06589107 -0.07480989 0.05540895 -0.0039060002 0.10465087 0.051283162 0.053967334 -0.032622315
-0.19909967 -0.062628254 0.07393028 -0.15675968 0.0711854 0.22256087 0.040172357 -0.13966088
0.21895276 0.24817987 0.061528508 -0.10434269 0.10150759 0.1051579 -0.24860907 -0.051097047
0.08361285 -0.08138784 -0.038025778 0.09689584 0.072042204 0.12939058 -0.22711007 0.17067787
0.20183723 0.20980032 -0.017886242 -0.17221573 -0.20856673 -0.0019757962 0.12198911 0.07249611
-0.15856339 0.00034810614 0.09766069 -0.052539106 0.19114627 -0.19621946 -0.1959458 -0.13209987

bneck.0.bn1.weight f4 [16]
00000000: 0d09 7d3f b9f3 7c3f 49f9 7d3f c3fc 7c3f
00000010: e7e8 7c3f 8d0c 7d3f 7b85 7d3f 4343 7d3f
00000020: dae1 7c3f 71c3 7c3f 64e2 7c3f 350e 7d3f
00000030: e354 7d3f fdca 7c3f 74bd 7c3f 7c25 7d3f
0.98841935 0.9880939 0.99208504 0.98823184 0.9879288 0.98847276 0.990318 0.9893076
0.9878212 0.9873572 0.98782945 0.98849803 0.9895765 0.98747236 0.9872658 0.9888532

bneck.0.bn1.bias f4 [16]
00000000: d792 353c e329 e53b adf2 d2ba ea97 61bb
00000010: 38e8 96bb aa63 7ebb 4222 84bb 23a1 0c3c
00000020: c902 caba e8ec 9aba 6601 97ba 60d8 153b
00000030: 2266 06bb 5400 443c 2430 b83b 3503 0b3c
0.011082373 0.0069935187 -0.0016094052 -0.0034422823 -0.0046053194 -0.0038816729 -0.004032404 0.00858334
-0.0015412207 -0.0011819871 -0.0011520803 0.0022864565 -0.0020507653 0.011962969 0.005620973 0.008484651

bneck.0.bn1.running_mean f4 [16]
00000000: fcd7 70bd f74a 0b3d 4991 ae3d ec46 d03d
00000010: 4f2a 9cbd a5c4 7ebd 8d6e 8abd 7780 0d3d
00000020: 5a36 fbbb 2d7c 8c3d 2e7c 603d 043a 2e3c
00000030: 5594 21bd a119 0bbc 20b6 8e3d f7e3 9ebc
-0.05879973 0.03400704 0.08523805 0.10169777 -0.07625257 -0.062199254 -0.06759367 0.03454634
-0.0076663913 0.06859622 0.054805927 0.010633949 -0.0394481 -0.008489997 0.06968331 -0.019395811

bneck.0.bn1.running_var f4 [16]
00000000: 787d 8b3e 98d3 ae3e 02be 903e 7685 9b3e
00000010: f1f8 a53e 8178 f33e c57a 913e eb8d 873e
00000020: 13ce a93e dc8a 9b3e e528 963e 9e54 ca3e
00000030: 6393 9a3e 1359 953e 9533 ba3e de4a a13e
0.27244163 0.34145808 0.28269964 0.3037526 0.3241649 0.47552875 0.28413978 0.26475462
0.33165035 0.3037938 0.29328075 0.39517683 0.30190572 0.2916952 0.3636748 0.31502432

bneck.0.conv2.weight f4 [16, 1, 3, 3]
00000000: 6f29 c33d a130 dd3c 489b 94be fb43 05be
00000010: 339b acbd 8f87 f93c 0784 ae3c 553b 983e
00000020: de05 9cbe 869d 2f3e 3924 aabe b69b 8e3d
00000030: eded 9ebe e27b 8bbe ef49 7e3e 7ca9 233e
00000040: 52d9 a8bd 8309 e83d 0e21 853e 812c 89be
00000050: 884b 69be eedf 9dbe d4b2 91be 5935 673e
00000060: 0e55 9fbe 82e0 5bbe 99e3 dbbd 017c a73d
00000070: 0fd0 e6bc d442 a6be 8d37 87be 7771 98be
00000080: 19a9 6abe 8f33 09be bd69 f83c e56c 973d
00000090: 2581 9e3e bff8 8d3e dbf7 e03d 406e 323e
000000a0: ff05 59be fbc6 813e b5f7 743e e2cf a03e
000000b0: f96f 0cbd e451 623e 6d7d 3bbe 3221 bbbc
000000c0: e142 f0bd e6f5 193e a118 78bd 0c59 16be
000000d0: 16f8 82be 9453 663d cd86 a13e 0ed2 5f3e
000000e0: de9e 28be 1256 fe3b 29c6 a4bd eaec 373e
000000f0: 1146 62be e8ec a3bd 09b8 8d3e 7ce0 263e
00000100: 96fb f53c 8bcb 50bd daf7 693e 238c 2f3e
00000110: d197 973d 6596 dd3d ca96 793e c391 0cbe
00000120: 3914 043e 2bbe 80be 529e adbe a433 043d
00000130: 9b6e 573e dec7 87be 22d3 a43e 22d1 7abe
00000140: 3f9a c23d 07b8 823e 6354 623e 5b26 a8be
00000150: 8f86 853e 5678 e53d 5dc1 ae3d 9fd2 85be
00000160: 879a 1b3d 04b8 8cbe d7cd 20be 216e 4f3e
00000170: 0146 1e3e 58dd 8c3e 1138 553c 49f7 debd
00000180: 8c46 963e ebdf 67be 3a3a 463e 3ce2 a63c
00000190: 5b6f 99be 5de9 36be 1c91 a5be 7f08 69be
000001a0: 7e50 2ebe 155b 23be 448e a63c 8a1e 923e
000001b0: df7a 573e be92 aebe 84f6 8f3e e353 533e
000001c0: 3d2a 7d3e 0f70 09be 8334 933d b219 a23e
000001d0: ba3b e4bd 4d7f 4c3e 83a8 51be 42bd 85be
000001e0: 8644 c03d 6dde 5abd bafd a7be 3e0c 8b3e
000001f0: 7902 5a3c 636f 41bc 6725 533e 0613 0ebe
00000200: 3f29 223e 13f7 efba 0972 893e 8144 263d
00000210: 6739 93bc 4be6 1f3d a6de 1e3d 6a5b 183e
00000220: 92f4 7a3e 73b5 9ebd b5af 4a3e 6675 8cbd
00000230: 7bb8 d5bc a0cd aebe bf54 cebd 7110 323d
0.09529387 0.027000727 -0.2902472 -0.13014214 -0.084280394 0.030460147 0.02130319 0.29732767
-0.30473226 0.17149934 -0.3323076 0.06963293 -0.31040898 -0.27242953 0.24832891 0.15982622
-0.082445756 0.11329939 0.2600178 -0.26791766 -0.22782719 -0.30834907 -0.28456748 0.22578944
-0.3111958 -0.21472362 -0.1073677 0.08177949 -0.028175382 -0.3247286 -0.2640957 -0.29774067
-0.22916068 -0.13398574 0.030323857 0.07393817 0.30957904 0.2772884 0.10984775 0.1742487
-0.21193694 0.25347123 0.23922618 0.31408602 -0.034286473 0.22101551 -0.18309565 -0.022842977
-0.11731506 0.15035209 -0.060570363 -0.14682406 -0.255799 0.05623205 0.31548157 0.21857473
-0.16466853 0.007761725 -0.080456086 0.1796147 -0.2209704 -0.08004171 0.2767947 0.16296571
0.030027192 -0.050975364 0.22848454 0.17143302 0.074020036 0.10819701 0.24373928 -0.13727479
0.1289834 -0.25145087 -0.3390985 0.03227581 0.21038286 -0.26519674 0.32192332 -0.2449384
0.09502076 0.25531027 0.22102503 -0.32841763 0.26079223 0.11204593 0.08532975 -0.26137254
0.037989166 -0.27484143 -0.15703522 0.20256855 0.15456392 0.27512622 0.013013856 -0.1088701
0.29350698 -0.22644012 0.19358149 0.020371549 -0.2996777 -0.17862459 -0.32337272 -0.22757147
-0.17022893 -0.15952714 0.02033151 0.28538924 0.21042965 -0.3409633 0.28117764 0.20637469
0.24723144 -0.13421653 0.0718775 0.3166023 -0.111442044 0.19970436 -0.20474438 -0.26120955
0.0938807 -0.053434778 -0.32810766 0.27157778 0.013306254 -0.011806342 0.20619737 -0.13874444
0.15836047 -0.0018307887 0.26844814 0.040592674 -0.017971708 0.039037984 0.038786553 0.14878622
0.24507359 -0.077494524 0.1979359 -0.068583295 -0.026088944 -0.34141254 -0.10074758 0.04347271

bneck.0.bn2.weight f4 [16]
00000000: c0c9 803f e045 7d3f c0ce 7f3f e9af 7d3f
00000010: 788e 803f 26d1 803f 30c0 803f b752 7f3f
00000020: 262d 7e3f 5c80 7e3f bd6e 803f 2956 803f
00000030: d305 813f c62c 7e3f bb63 7e3f afdd 803f
1.0061569 0.98934746 0.9992485 0.9909654 1.0043478 1.0063827 1.0058651 0.9973559
0.9928764 0.9941461 1.0033795 1.0026294 1.0079902 0.9928707 0.99370927 1.0067652

bneck.0.bn2.bias f4 [16]
00000000: 2b8f 1d3c 68d8 3ebc a511 d93a 5821 12bc
00000010: e6ed c13a cf5d ab3b 6b4a 5d3b 1b0a 363c
00000020: 1b3d cd3b 560f 8bbb 652d c23a bee8 2e3b
00000030: 451d b33b 69ac 543a 9cfa 33bb 95f1 ed3b
0.009616653 -0.011648275 0.0016561045 -0.008919083 0.0014795631 0.0052296887 0.003376628 0.011110808
0.006263388 -0.0042437715 0.0014814554 0.0026689018 0.0054661357 0.00081128493 -0.0027462607 0.007261465

bneck.0.bn2.running_mean f4 [16]
00000000: 7c10 babd 5518 9cbd 6259 7cbe 451b a0be
00000010: a097 e73e 138b ebbd 5ecd 0f3e e82e 4a3e
00000020: ea2a b8bd 6aa5 ce3c 5d5c 1f3e 82ea a5be
00000030: b388 6e3e 8efb a9bd fe48 3d3e 064a 083c
-0.090851754 -0.076218285 -0.24643472 -0.31270805 0.45232868 -0.11501136 0.14043185 0.19744456
-0.0899256 0.02522536 0.15562578 -0.32405478 0.23294334 -0.082999334 0.18484876 0.00831843

bneck.0.bn2.running_var f4 [16]
00000000: 43f6 8b3e 0bd7 8d3e b997 073f d86f 253f
00000010: fc20 273f a060 933e 253e 953e bc56 d13e
00000020: 5db2 913e c36c 8e3e aa87 b23e 08b9 da3e
00000030: 021e a53e 279f a83e 51b2 a33e 7718 8b3e
0.2733632 0.27703127 0.52965885 0.64623785 0.65284705 0.28784657 0.29148975 0.40886486
0.28456393 0.27817354 0.34869128 0.42719293 0.32249457 0.32933924 0.31971982 0.27167103

bneck.0.conv3.weight f4 [16, 16, 1, 1]
00000000: cecf 51be 4a56 453e f19c 6e3d 6ed1 3bbe
00000010: 9388 f5bd 9309 c23c 3186 37be 95f7 fe3d
00000020: b72e 22be 0986 70be 211c d5bd 1260 56bd
00000030: 6b84 073e 9667 693e 4c69 83bd d7f5 c43c
00000040: b6d8 1abd 0a08 25be 11a3 0c3d 2db8 11be
00000050: df50 10be 2372 763e b1eb 73bd 5f5e 32be
00000060: 3310 593d 44a6 b03c 9d0f 203e f055 2c3e
00000070: 8ca0 fdbc 1264 d4bc 5235 6b3e 98df 693e
00000080: 9fe7 113e a923 743d 5f2f c83c c67f 41be
00000090: c2b0 16be 626b a7ba 5469 df3d 0af5 70bd
000000a0: b985 fbbd e4cf 4bbe fcf7 163e 8bc0 fbbd
000000b0: 577a 0d3d 2c00 613d d3a9 dabc a8c0 52be
000000c0: 6390 21bb 3e05 9d3d 3dd9 903c 1065 4d3e
000000d0: b3b9 753e 56ca 6f3e 6f8d c63d 1447 9f3c
000000e0: b3d6 bebc 76e0 523e aa5b 4bbe 3926 7b3e
000000f0: 1c40 9ebd 9095 37be f5b6 5d3d e492 d2bd
00000100: 3c76 47be 9895 b1bd bdcc 59be 304b 46be
00000110: 13d4 1ebe 7350 7a3d 2716 9d3d dcfc 74be
00000120: f0bf 60be 3c05 063c 1eae c53b 5c99 70bd
00000130: 3e0b f63d 3f5e 353e 0538 823c 3797 103e
00000140: a8eb 763e 8dc2 c63d b4a0 3b3e 7b1f 35bd
00000150: c2cd 6b3e e8c0 3fbe 66ef 04be 966c 7a3e
00000160: a044 61bc 6da5 85bd ab68 8bbd 45e2 5a3d
00000170: 64c6 6bbe d753 bbbd 77f5 0ebe af1d fb3d
00000180: 31cb d33c 036f be3d ec60 11be 86a3 363e
00000190: df3e 3e3e cba9 b93d 4459 f23d 96c6 7dbc
000001a0: 4c01 ef3b 86f6 05be 6bb8 393d 41f4 03be
000001b0: 00b8 8abd 75d7 06be 7ed2 f43d e0b3 2bbd
000001c0: 4470 69be a25a a6bd d640 1f3c 3ec0 6f3e
000001d0: 948b 553d 6b8a 733e 9a80 1d3e fdca 283e
000001e0: c5b9 7b3e 5f56 3d3e 0966 023e 15a9 2ebe
000001f0: c106 3e3e 93a8 a6bd 9ca9 6b3d c144 273e
00000200: 5c3d 7dbe 947f afba bdcc 04be b2c3 373e
00000210: 86c9 803e 322a 25bd fa79 46be edcc ae3d
00000220: 1a1c 10be 72df a83d bf56 22be 0a95 c9bd
00000230: f0f7 213e c15e 473d e0e2 e13c 17db c73c
00000240: 55f6 e1bd 5f9c 583e 8df2 e53d 1739 9fbd
00000250: 810a 693e a71c a5bd 0028 8fbd 61fd ac3c
00000260: 99b0 6cbe f6ab 1f3e 0162 343d 6903 043e
00000270: 328d 013e 17f4 58be c736 80bd c205 30be
00000280: d22b 583e 8ba9 34be 353e 65bd 1088 72be
00000290: 0116 013e be3d b2bd 80b3 96bd f8d5 873c
000002a0: 8eda 54be 27dd de3d 9c88 8d3d b5de 0d3e
000002b0: dee9 81be 6dd1 77be 6e17 2ebe 3ce5 00be
000002c0: f4b2 493e 0e34 94bd 79c1 e63d 912c 73be
000002d0: 26d4 eabd 0d71 eabd 70df bc3d 9900 a1bd
000002e0: 3e19 713e 9d3f 04be bf3b 5dbe 745e 21be
000002f0: 2348 fabd 60be 443e 5eeb 793e 9471 043e
00000300: df75 663e cd67 ab3d af02 473e 00b0 4cbd
00000310: dcb1 4c3c 6ef0 7a3e 70d6 6fbe ed87 923d
00000320: 25f3 2e3e 07f5 e63d 7b63 59be 877f 2ebe
00000330: dbd5 613e fa5b debd 2e12 4cbe bdab 523d
00000340: 38db cfbc ba65 cdbd a0ef 0f3e fbdf c9bc
00000350: 58b9 6bbc cd33 b7bd 2d15 41be 2fb6 c9bd
00000360: bcd5 3fbe 9931 fbbd 9850 0dbe bbfd aebc
00000370: b392 133d 036d 563e 1f25 b23d bcb3 3f3e
00000380: 30e6 803d 527c 0cbe 54e5 f43d 00b5 4f3d
00000390: 07e3 90bd 7830 a43d a7cf 0ebd 8bb4 5dbe
000003a0: 6d79 043e 3125 60be eedf 6cbe 72a7 4a3e
000003b0: 14da ae3a 27fa 6c3e 9f0c 663e d2a6 bfbd
000003c0: ff1d 4bbe 120e 623e 2ec0 89bd b223 5fbe
000003d0: 4cf2 6f3e f9ea 273e 3589 31be df24 7cbe
000003e0: b59b 5dbd 11a7 c1bd 0dee 38bc 93c1 0cba
000003f0: 13ba 773e 468e f63d b5da 1ebd 83ac 58bc
-0.20489427 0.19271198 0.05825514 -0.1834161 -0.1198894 0.023686206 -0.17922284 0.12449566
-0.15838133 -0.2348863 -0.10405756 -0.052337714 0.13234107 0.22793421 -0.06416568 0.024043007
-0.037804328 -0.16116348 0.0343352 -0.14230414 -0.1409335 0.24066977 -0.059550945 -0.17418812
0.052993964 0.021563657 0.15630956 0.16829658 -0.030960344 -0.025926623 0.22969559 0.228392
0.14248513 0.05960432 0.02443665 -0.18896398 -0.14715865 -0.0012773091 0.109087616 -0.058827437
-0.12281365 -0.19903523 0.14743036 -0.12292584 0.0345405 0.054931805 -0.026692307 -0.20581305
-0.0024652712 0.076670155 0.017681712 0.20058084 0.2399662 0.23417029 0.09694945 0.019443072
-0.023295736 0.20593438 -0.19859186 0.245263 -0.07727072 -0.17928147 0.05412956 -0.102819234
-0.19478697 -0.08671111 -0.21269508 -0.1936462 -0.15510587 0.06111188 0.07670241 -0.23924583
-0.21948218 0.008179959 0.0060327193 -0.058740005 0.12013863 0.17711733 0.015895853 0.14120184
0.24113333 0.09705076 0.18323022 -0.044219475 0.23027709 -0.18725932 -0.12981948 0.24455485
-0.013749272 -0.06525693 -0.06807073 0.053438444 -0.23024899 -0.091468506 -0.13960825 0.12261521
0.025853725 0.092985176 -0.14197129 0.17835817 0.18578671 0.090655886 0.11833432 -0.015489241
0.007293856 -0.13082322 0.04534189 -0.12886144 -0.067733765 -0.13168128 0.11954211 -0.04191959
-0.22796732 -0.081227556 0.009720048 0.23413178 0.052135065 0.23783271 0.15381089 0.16483684
0.24582584 0.18489979 0.12734236 -0.17056687 0.18557264 -0.08137622 0.0575348 0.16334821
-0.24730438 -0.0013389462 -0.12968726 0.17945746 0.2515375 -0.040323444 -0.19382468 0.0853518
-0.1407322 0.08245744 -0.15853404 -0.0984288 0.15817237 0.04867435 0.027574003 0.024396462
-0.11033312 0.21153401 0.112279035 -0.07774561 0.22757913 -0.080621056 -0.06990051 0.021116914
-0.23114242 0.15592942 0.044038776 0.12891926 0.12651518 -0.21186863 -0.06260448 -0.17189696
0.21110466 -0.176428 -0.05596753 -0.23684716 0.1260605 -0.08703183 -0.07358456 0.01658152
-0.20786497 0.10882025 0.06910822 0.13854487 -0.2537374 -0.24200983 -0.17001125 -0.12587446
0.19697171 -0.07236491 0.11267371 -0.2374747 -0.11466245 -0.11447344 0.09222305 -0.07861442
0.23544785 -0.12914892 -0.21604823 -0.15758687 -0.1222079 0.19213247 0.24406192 0.12933952
0.22505902 0.08369408 0.19434617 -0.049972534 0.012493577 0.24505779 -0.23421645 0.07154832
0.1708494 0.11277204 -0.21229355 -0.17040835 0.22054236 -0.10857387 -0.1992881 0.051433314
-0.025373086 -0.100291684 0.14056253 -0.024642935 -0.014387451 -0.08945427 -0.18855734 -0.09849202
-0.18733877 -0.122653194 -0.13800275 -0.021361222 0.036028575 0.20940022 0.086984865 0.18720907
0.06293905 -0.137193 0.11957803 0.050709724 -0.07074552 0.08017057 -0.034866 -0.21650903
0.12936945 -0.21889187 -0.23132297 0.19790438 0.0013340139 0.231423 0.22465752 -0.0935799
-0.19835661 0.2207568 -0.067261085 -0.2179096 0.23432273 0.16398229 -0.17337497 -0.2462344
-0.054103572 -0.094556935 -0.0112872245 -0.0005369421 0.24192075 0.12038855 -0.038782794 -0.013224724

bneck.0.bn3.weight f4 [16]
00000000: 8b76 7d3f 1c33 803f bc59 803f c0c0 7f3f
00000010: 1aa8 803f 3782 803f 5d58 7e3f 7b8a 803f
00000020: 52fd 803f 8bf5 803f 21a1 803f ca58 7e3f
00000030: 5c3a 803f 6a73 7f3f 1073 7f3f 28c5 7f3f
0.9900901 1.0015597 1.0027385 0.9990349 1.00513 1.0039738 0.9935358 1.0042261
1.0077307 1.0074934 1.0049173 0.9935423 1.001781 0.9978548 0.99784946 0.9991021

bneck.0.bn3.bias f4 [16]
00000000: 4004 433b 5994 2ebc fdac 073c 4b85 39bc
00000010: ff0e e43b 1a73 51bb 9b9f d43b ce56 6e3b
00000020: 91d8 aebb 5dfc 59ba 1345 c33b f9c5 2cbc
00000030: cf13 dd3b bbfb 20bb ccf1 33bb 0016 79bb
0.0029757172 -0.010655486 0.00828099 -0.011323283 0.0069597955 -0.0031959475 0.006488753 0.0036367658
-0.0053358753 -0.0008315498 0.005959162 -0.010545247 0.006746746 -0.0024564106 -0.0027457355 -0.0038007498

bneck.0.bn3.running_mean f4 [16]
00000000: 59ea 37be d9a2 db3d a4ca eebd abc8 873e
00000010: 9cd8 60be 9b6e b73c a47a cb3d f332 b03e
00000020: fd63 7dbd 158d c93c c8da 86be fe33 f5bc
00000030: 9ef0 c93d b275 09be 0e26 673d 6e88 26bc
-0.1796049 0.1072442 -0.116597444 0.26520285 -0.2195763 0.022391608 0.09935501 0.3441387
-0.061862934 0.024603406 -0.26338792 -0.029932018 0.09860347 -0.13423803 0.056432776 -0.010164363

bneck.0.bn3.running_var f4 [16]
00000000: f1d2 b83e 34c5 9f3e e69a 953e be87 993e
00000010: abdf a43e a711 bb3e 5513 8d3e dede a93e
00000020: 31d7 933e 9580 bb3e 1671 bb3e 829b ae3e
00000030: 9084 b73e 30b2 b33e f4e1 d73e 7802 a43e
0.36098436 0.31205142 0.2921974 0.29986376 0.32201895 0.36536905 0.27553812 0.33177847
0.28875116 0.36621538 0.36609715 0.34103018 0.35843325 0.35096884 0.42164576 0.32033134

bneck.1.conv1.weight f4 [72, 16, 1, 1]
00000000: 6af4 70be 24a5 653e 42f1 713a c07f 0abe
00000010: 9567 ba3d 9e8d 4cbe ee19 0c3e 237c 183e
00000020: e1ea af3d d0ae e4bc f4ff 64bb 668e 1e3e
00000030: 766e 923c d2f5 27be 89c3 eabd e39f 50bc
00000040: 1a1a 313e a91b f9bd 5765 553e 499e 53be
00000050: 6d0c 3bbe 8104 843e 87ff c4bd 0d17 2bbe
00000060: 7204 f13d 417b 1ebe 6cd0 643d f065 213d
00000070: bb59 f03c 1df3 153e b8f6 82be 88cb ed3d
00000080: cbbd 98bd 3bc4 6cbe 071f 36bd 3afd be3d
00000090: b5ec 7bbd bfd6 48be b7d9 523d 3761 6dbe
000000a0: 3223 093e c418 793d 9340 4c3e 6ef9 b03d
000000b0: 0d8b 1b3d e4ea 39be 72f2 2ebe a3bc 483d
000000c0: 7c19 5ebe 484d 73be 6a03 13be 5fb1 80be
000000d0: 3ea3 ee3d c4ff 1e3e 71d3 593e af02 4cbe
000000e0: c5f5 793e 2a35 4a3e 558a c33d 5646 1a3d
000000f0: 076e 1b3e 4e51 5b3e a439 f33c 9032 b63c
00000100: 47c9 443e a049 35be 9203 0bbd 239b 173e
00000110: 5c8a e2bc ce53 223e e809 02be ab14 fd3c
00000120: e74b 82bd 7984 313e 5d58 3cbd 732b 17bd
00000130: 5e29 603e 0047 42be 3379 bd3d e1cf 653e
00000140: 329f 58be 6811 7abd bb1e 103e 7d63 6dbe
00000150: 364c 31be 92fe 113e ce51 05bd 4598 27be
00000160: 96ac 1c3d d10c d93d 03da 573e f100 503e
00000170: e45a 21be 741c 3b3e 9fd9 703e 3faa 3a3d
00000180: c882 113e 7efa 0c3e be91 243d fb13 5bbe
00000190: c5d1 ee3d 03d3 2f3e a54a d0bb aa5a 4ebe
000001a0: 1f2d 79be 1944 8fbd 2a81 8dbd cdfb d33d
000001b0: cf17 59bd c243 5d3e b75b 89bd 4b53 913d
000001c0: 40e0 613e 4ba0 61be f847 0fbe 971b b9bd
000001d0: 01b5 563e f403 ba3d bc22 b9bd 351a acbd
000001e0: 6ad0 40be 5b58 d3bd d2d7 683e e79e 63be
000001f0: 7f93 ccbc af45 1dbe 2596 103d 2935 eb3d
00000200: fe75 16be 1d05 f73c 24d2 1abe 70b0 c9bd
00000210: 00eb 323e 6837 723e dfbf 833d 9a9a 193e
00000220: a8f9 e43d 3fd3 2ebe bea9 d5bc 55cc 26bd
00000230: 0517 e3bd 163d 863d 72bf cf3d 819e 753d
00000240: 2f87 1c3e 5c21 4cbe dda0 98bc 2c09 1a3e
00000250: d0ec 583d abf3 62be 798d bc3b c200 f9bd
00000260: 13cf 04be 9441 74be f3b9 0f3e 59c8 263d
00000270: 19d0 e0bd 1449 a6bc 4eed a53c a82c f2bd
00000280: a8d0 09be 0676 14be b7a6 4d3e e9ab 293e
00000290: 136d 143e 9d57 ed3d 355b b93c b2e7 383e
000002a0: 4c08 3bbe 60cc 6abe aba9 99bd 0a45 003e
000002b0: 7037 23be f016 043e 3b88 183c 6f15 743d
000002c0: 33e8 ba3d 926d 73bd 13ff b2bd c728 a2bd
000002d0: 8f93 ef3d 2e58 03be d61a 82be a5ea 32be
000002e0: 7408 943d 0755 4cbe ffe4 493e b84c 073e
000002f0: ed35 ac3d 6dbc 5f3d 7beb 69bd 013b 14be
00000300: f6dd 46bc 4ff5 79bd 6831 85bd 9778 44be
00000310: df3c 503d d35d 1dbd 999a 6abe f777 a6bd
00000320: c921 05be d3e4 233e 6d5a f2bc dd2e 26be
00000330: b1b4 3ebd f453 9bbc d725 c6bd e6d9 6e3e
00000340: 0d68 813d 3058 173e e34a 57be 3528 66be
00000350: 9846 163e 3670 49be c3ac 2f3d 7e7d 423e
00000360: a84b 75be 704b 1cbd 8f27 54be 8406 9abd
00000370: 9f2d 1fbe c331 36be bf71 123e 594d 3abd
00000380: 592a dc3c 3537 2f3e f943 d13c 1651 77be
00000390: 18c9 2dba 33f6 20bd 5e4d d4bd 4002 803e
000003a0: 19c2 aabd 8118 7e3c 7173 7f3d e258 653e
000003b0: 4c64 7fbd 3874 82bc d37b fcbd 35aa 3a3e
000003c0: cca6 52bd b131 6bbe 4c8d 9b3c 535a 763d
000003d0: 2344 a83d ce61 3a3e 248e d2bc d8c1 223e
000003e0: 1ed7 e33c 8b2f 02be 41b7 22be 6169 65be
000003f0: 434f 16bd 6750 153e 526a 7fbe 1187 243d
-0.23530737 0.22426277 0.00092293706 -0.13525295 0.09101788 -0.19975898 0.13681766 0.14891104
0.085897215 -0.027915388 -0.00349426 0.15484008 0.017874938 -0.16402367 -0.114630766 -0.012733432
0.17295113 -0.12163479 0.2083944 -0.2066585 -0.18266459 0.25784686 -0.096190505 -0.16708012
0.11768426 -0.15476705 0.05586283 0.039403856 0.029339662 0.14643522 -0.25578856 0.11611086
-0.07458075 -0.23121731 -0.044463184 0.09325643 -0.06150504 -0.19613169 0.05147716 -0.23181616
0.13392332 0.060814634 0.19946508 0.08641325 0.037974406 -0.1815601 -0.17084673 0.049008023
-0.21689409 -0.23759949 -0.14356771 -0.25135323 0.1165223 0.15527254 0.21272065 -0.19922899
0.2441016 0.19746843 0.09547869 0.037664734 0.15178691 0.21417734 0.029690571 0.022240907
0.19217406 -0.17703867 -0.03393895 0.14805274 -0.027653866 0.15852281 -0.12699091 0.030893644
-0.063621335 0.1733569 -0.045982707 -0.03690667 0.2189078 -0.18972397 0.092516325 0.22442581
-0.21154478 -0.061051756 0.14074223 -0.23182483 -0.17314228 0.14257267 -0.03254872 -0.1636668
0.03825053 0.10598148 0.21079259 0.20312859 -0.15757328 0.18272573 0.23520516 0.045572516
0.14210045 0.1376743 0.040178053 -0.2139434 0.11661104 0.17170338 -0.0063565546 -0.20151773
-0.24333619 -0.069954105 -0.06909402 0.103507616 -0.05300122 0.21607879 -0.06706946 0.07095965
0.22058201 -0.22033803 -0.13992298 -0.090384655 0.20967485 0.09082785 -0.09039828 -0.08403436
-0.18829504 -0.10319587 0.22738579 -0.22228585 -0.024972675 -0.15358613 0.03529944 0.11484749
-0.14693448 0.030153805 -0.15119225 -0.09848106 0.17472458 0.23653948 0.06433081 0.15000382
0.11180431 -0.17072771 -0.026081916 -0.04072221 -0.11088375 0.0655462 0.10143937 0.059965614
0.15285943 -0.199346 -0.018631393 0.15042561 0.052960217 -0.22163264 0.0057541695 -0.12158348
-0.12969618 -0.23853141 0.14035778 0.04071841 -0.109771915 -0.020298518 0.020254757 -0.11824924
-0.13458502 -0.14498147 0.20083128 0.16569485 0.14494734 0.115889765 0.022626499 0.18057135
-0.18264884 -0.22929525 -0.07503065 0.12526336 -0.15939116 0.12899375 0.009309824 0.059590753
0.0912632 -0.059430666 -0.08740058 -0.07917934 0.116980664 -0.12826607 -0.254111 -0.17472322
0.07228175 -0.1995431 0.19716261 0.1321286 0.08408723 0.054623056 -0.057109337 -0.14475633
-0.012137881 -0.06102496 -0.06503564 -0.19186626 0.0508393 -0.038419556 -0.22910537 -0.0812835
-0.1300117 0.16005258 -0.029584134 -0.16228814 -0.04655904 -0.01896093 -0.09675186 0.23325309
0.06318674 0.14779735 -0.21024661 -0.22476275 0.14675367 -0.19671711 0.042889368 0.18993184
-0.23954642 -0.03815788 -0.20718215 -0.07520774 -0.15544747 -0.1779242 0.14301203 -0.04548392
0.026875662 0.17110904 0.025545107 -0.24152026 -0.00066293916 -0.039297294 -0.10366319 0.25001717
-0.083378024 0.015508772 0.062365953 0.22397187 -0.06235151 -0.015924558 -0.12328305 0.18228991
-0.0514286 -0.22968175 0.018988274 0.060144734 0.08216121 0.18201372 -0.025702544 0.15894258
0.027812537 -0.12713449 -0.15890218 -0.2240348 -0.036696684 0.14581452 -0.24942902 0.040167872

bneck.1.bn1.weight f4 [72]
00000000: ccb6 7c3f 92c3 7c3f 23ac 7c3f 4df6 7c3f
00000010: 5ebb 7c3f 2db2 7c3f 9eb2 7c3f 8bce 7c3f
00000020: 53ce 7c3f dcb8 7c3f 96c3 7c3f 25c0 7c3f
00000030: 29d8 7c3f f2ba 7c3f e9ec 7c3f b6d6 7c3f
00000040: beb2 7c3f 76c8 7c3f eba4 7c3f 1dc0 7c3f
00000050: 14bd 7c3f 53ab 7c3f 80b7 7c3f b5b8 7c3f
00000060: b2bc 7c3f 2ab4 7c3f 70c5 7c3f dcb2 7c3f
00000070: 402a 7d3f 55b7 7c3f 44be 7c3f f9b1 7c3f
00000080: cfc0 7c3f aaba 7c3f 9abd 7c3f cdd5 7c3f
00000090: 0de1 7c3f 54c8 7c3f baad 7c3f b9f4 7c3f
000000a0: 7cb8 7c3f c9b4 7c3f a8ba 7c3f 94a6 7c3f
000000b0: 8bb9 7c3f b6b8 7c3f 49b6 7c3f b8b2 7c3f
000000c0: 1dbd 7c3f 6cf3 7c3f cfbc 7c3f c1c8 7c3f
000000d0: 38b6 7c3f d9bf 7c3f 7aeb 7c3f 4dba 7c3f
000000e0: c6c5 7c3f 4eb4 7c3f 26b2 7c3f 9fbb 7c3f
000000f0: 43d3 7c3f 05c3 7c3f 17a3 7c3f 31b9 7c3f
00000100: 3acd 7c3f cae3 7c3f dfeb 7c3f b1c9 7c3f
00000110: 74e3 7c3f 97bc 7c3f 70ba 7c3f d1be 7c3f
0.98716426 0.98735917 0.9870016 0.98813325 0.987234 0.98709375 0.9871005 0.9875266
0.98752326 0.98719573 0.9873594 0.9873069 0.98767334 0.98722756 0.98798996 0.9876512
0.9871024 0.9874338 0.98689145 0.9873064 0.9872601 0.9869892 0.987175 0.9871934
0.98725426 0.9871241 0.98738766 0.9871042 0.98892593 0.9871724 0.9872782 0.98709065
0.987317 0.98722327 0.9872681 0.98763734 0.987809 0.98743176 0.98702586 0.9881092
0.98719 0.98713356 0.98722315 0.9869168 0.98720616 0.98719347 0.98715645 0.98710203
0.98726064 0.9880893 0.987256 0.98743826 0.98715544 0.98730236 0.9879681 0.9872177
0.9873928 0.98712623 0.9870933 0.9872379 0.9875986 0.98735076 0.98686355 0.9872008
0.9875065 0.9878508 0.9879741 0.98745257 0.98784566 0.98725265 0.9872198 0.9872866

bneck.1.bn1.bias f4 [72]
00000000: 0974 3abb a0c4 04bb 13ce 353c f18f aa3b
00000010: dbd4 303a 1c7d 36bc 0a35 c03b c29c a53b
00000020: 6a16 59ba e8fc e83b f002 ea3b 24e1 e03b
00000030: 40f8 c13b 27c4 213c 1c80 5fbb 591f d43b
00000040: 39ab 35bc 498c a03b f2fb 3d3c de5a bb3b
00000050: 9339 da3a 551a 1a3c 40fe 0bbb ac42 a1bb
00000060: 062d c7b8 b5d0 3b3b 3cc1 033c a722 a1bb
00000070: b2a6 913b cda9 27bc 7b83 123c b844 203c
00000080: b5d8 87b8 7f5c beba e0b7 063c fe70 873a
00000090: eed9 673b a0f0 e13b 2ae6 3d3c 6b9e b53b
000000a0: 9643 35bc 60e5 1dbb be29 6dba 614b 39bc
000000b0: a5ed f9ba e498 0d3c f793 3ebb 25c7 8fbb
000000c0: e454 5ebb 543e 06bc 9f04 56b9 be8a c33b
000000d0: 277e 053c ae28 2a3b 4da6 f13b 8cef 79bb
000000e0: 3117 963a 0d1c a43b 6ee5 433c 5b46 ff3a
000000f0: 2d3a ff3b cce6 c1ba 6324 4c3c d861 8c3a
00000100: 12d9 f83b 947f 16bb f472 1c3a e940 31bb
00000110: bae5 173c ebef e83b a480 24bb d628 023b
-0.002845051 -0.00202588 0.011096495 0.0052051474 0.0006745585 -0.011138227 0.0058656977 0.0050540874
-0.0008281233 0.007110227 0.0071414635 0.0068627764 0.0059194863 0.0098734265 -0.0034103459 0.0064734635
-0.011088186 0.004899536 0.011595713 0.0057176193 0.0016649239 0.009405692 -0.0021361262 -0.004921278
-9.497446e-05 0.0028658335 0.008041676 -0.004917461 0.0044449205 -0.010233355 0.00894248 0.009782009
-6.4776665e-05 -0.0014523416 0.00822255 0.0010333357 0.00353777 0.00689514 0.01159052 0.0055425665
-0.011063477 -0.0024093017 -0.00090470526 -0.011309476 -0.0019068016 0.008642409 -0.0029079893 -0.0043877535
-0.003392511 -0.008193571 -0.00020410352 0.005967467 0.008147753 0.0025964188 0.007374561 -0.0038137166
0.0011451003 0.0050082267 0.011956556 0.0019475924 0.0077889175 -0.0014793514 0.012459847 0.0010710312
0.007594236 -0.0022964226 0.0005968057 -0.0027046746 0.00927108 0.0071086786 -0.002510109 0.0019860766

bneck.1.bn1.running_mean f4 [72]
00000000: 3b21 23bb 6317 e3ba f49f 073b 4d3d 1c3d
00000010: 2e01 47bd 753f 063d df7c 1cbb 38a8 1e3a
00000020: 1457 513c 8a01 f23c 74f7 8b3b 5722 053d
00000030: be4e 1cbc 0148 d6ba b868 fbbc d733 5bbb
00000040: eda8 633d 928a a03b 29c7 d8bb cc9e 553c
00000050: 7d39 063c bf73 29bc f08c 903c cbca ad3b
00000060: 8554 123d 3a29 a73c 5298 ca39 22a9 b93c
00000070: 0677 213d 6ba8 bdbc ce98 163c c1d6 38bd
00000080: 18ed 5dbc 8c8d 10bd 4a36 33bc 49e9 ce3b
00000090: eb0a 713d 9d57 8ebc ca8c 3bbd 819e 2f3c
000000a0: 1985 c73b 31f6 48bc e8dd 15bc 6080 483b
000000b0: 9f6f 9dbc 0065 9f3c d6a7 3d3d f750 583b
000000c0: a4ce 2dba 0a8d 243d a1b6 1abc fe70 85b9
000000d0: 74d9 83bc 1313 433a 8b4b 8d3c e97c cfbc
000000e0: 3447 4bbb 2f59 9fbc d86a cf3c c7ac b9ba
000000f0: 075b dd3c e1af 123c 036e 74bb 4f25 ccbc
00000100: 169e c1bc bdb7 bebb cc2d f53b 1694 30ba
00000110: d4e4 f53b ce14 a2bb 148e 00bd ff1b bb3c
-0.0024891633 -0.0017325695 0.0020694705 0.0381444 -0.04858511 0.03277536 -0.002387814 0.0006052288
0.012777109 0.02954175 0.004271442 0.032503452 -0.009540258 -0.0016348363 -0.030689582 -0.0033447647
0.055581022 0.0048993314 -0.0066155386 0.013038348 0.008192417 -0.010342537 0.01764533 0.005303716
0.035725135 0.0204054 0.0003864193 0.022663657 0.03942015 -0.023151597 0.009191705 -0.04512668
-0.013545297 -0.03529124 -0.0109382365 0.006314431 0.058848303 -0.017375762 -0.045788564 0.010718943
0.0060888645 -0.012265728 -0.009147145 0.0030594096 -0.019218264 0.01945734 0.04630264 0.0033007243
-0.0006630218 0.040173568 -0.009442956 -0.00025451923 -0.0160949 0.0007441502 0.017247936 -0.025328116
-0.0031017782 -0.019451706 0.025319502 -0.0014165872 0.027020944 0.008953066 -0.0037297017 -0.024920134
-0.023634952 -0.005820243 0.007482266 -0.0006735934 0.007504085 -0.004946328 -0.031385496 0.022840498

bneck.1.bn1.running_var f4 [72]
00000000: bda7 a93e b9f2 a63e f619 a13e a735 923e
00000010: f6e0 a13e 0ccc 963e 00d5 ad3e 99be 993e
00000020: c7ea 933e 5bc4 903e e8bf 8e3e 4ae1 b73e
00000030: 0222 953e 5493 a83e 8466 9e3e d39f 953e
00000040: 1849 953e 3c23 9e3e 35bd 903e 9069 983e
00000050: cc72 8e3e 3da3 a13e aab0 8d3e 86e7 ac3e
00000060: b1c7 973e 018d 933e eb0a 8f3e c6ee 8e3e
00000070: 7bab db3e e602 9c3e b894 953e 0c3b 993e
00000080: 38ef a93e b46b 913e 24ee 933e 312b a23e
00000090: 6c44 d13e 5f72 ba3e 556b 933e 89f5 963e
000000a0: 8b47 903e 4fa0 943e eccc a03e 90e3 063f
000000b0: fb21 c93e d0bc 953e 79f6 953e fa09 a13e
000000c0: 1d75 8a3e 85e9 9f3e 4301 953e aa09 8a3e
000000d0: 7f17 ae3e f4b3 ba3e faa0 953e 281d 943e
000000e0: 5612 933e ba05 c43e 37e2 a83e a136 9b3e
000000f0: 9583 bd3e 30b9 893e 644d 883e e3e9 913e
00000100: ddb0 8f3e cc55 ab3e 0a73 933e 0dd6 9f3e
00000110: 04a3 9b3e 41e0 b23e f162 ab3e 1faa a03e
0.33135787 0.32607058 0.3146512 0.28556558 0.31616944 0.2945255 0.3395157 0.30028227
0.28890058 0.28274807 0.27880788 0.3591407 0.29127508 0.32924902 0.30937588 0.292235
0.2915733 0.30886257 0.28269354 0.29768038 0.27821958 0.31569853 0.27673846 0.33770388
0.2964454 0.28818515 0.27938017 0.27916545 0.42904267 0.3047096 0.29215026 0.29927862
0.33190322 0.28402483 0.28892624 0.31673577 0.40872514 0.36415383 0.28792825 0.29484203
0.28179583 0.29028556 0.31406343 0.5269098 0.39283738 0.29245615 0.29289606 0.31452924
0.27042475 0.3123285 0.29102525 0.26960498 0.340023 0.36465418 0.29224378 0.28928494
0.28724927 0.3828562 0.32985088 0.30315116 0.37014452 0.268991 0.26621544 0.28498754
0.28064623 0.33463895 0.28798705 0.31217995 0.3039781 0.34936717 0.33473924 0.31379792
