TX2/multicamerarl/torch_models/weights_105.pth (torch_old, 478682 bytes, 91 tensors)

conv1.weight f4 [16, 3, 3, 3]
0	0x3c3d9947	0.011572189
1	0xbdb79fb0	-0.08966005
2	0x3e685af7	0.2269095
3	0x3defa1ee	0.117008075
4	0xbe22e93a	-0.15909281
5	0x3dd442a0	0.1036427
6	0xbcb218e0	-0.021740377
7	0xbc10ecc0	-0.008845508
8	0xbe27bbab	-0.16380183
9	0xbd9d6165	-0.07684592
10	0x3e042636	0.12905201
11	0xbc37adc1	-0.01121086
12	0xbd338c72	-0.04383511
13	0xbdf5de82	-0.120053306
14	0xbe0f9acd	-0.14023896
15	0xbe3bf17a	-0.18353835
16	0xbe342b0d	-0.17594548
17	0xbcae5f85	-0.021285782
18	0x3db51364	0.08841589
19	0xbdaf2272	-0.08551492
20	0x3e27d509	0.1638986
21	0xbe507333	-0.20356445
22	0xbe2911a7	-0.1651064
23	0x3e07d110	0.13263345
24	0xbe37e506	-0.1795846
25	0x3e01bf3b	0.12670605
26	0xbc2aa8b7	-0.010416201
27	0x3ddb68f1	0.10713375
28	0xbd912f6e	-0.070891246
29	0x3e096d11	0.13420512
30	0x3da2801a	0.0793459
31	0x3dbcf3c4	0.09226182
32	0x3d815904	0.063158065
33	0xbe5a85a2	-0.2134004
34	0xbe3d1f0b	-0.18468873
35	0xbdc900ab	-0.098145805
36	0x3d074bbb	0.033031207
37	0x3e58db1b	0.21177332
38	0xbc30e6b0	-0.010797188
39	0xbbf7ebe6	-0.007565963
40	0xbd3ce811	-0.046119753
41	0xbe3bf657	-0.1835569
42	0x3dd1bd91	0.10241235
43	0xbe3384a7	-0.17531072
44	0xbde98386	-0.11402039
45	0xbd613b31	-0.05498809
46	0xbdc11482	-0.0942774
47	0x3dd6bbac	0.10485014
48	0x3d2e9caa	0.042629875
49	0xbcdfc7e2	-0.027316991
50	0x3db1fa95	0.08690373
51	0xbdf21c76	-0.11821835
52	0xbde60cf6	-0.11232941
53	0x3de4c10b	0.111696325
54	0x3c9a90e2	0.018867914
55	0xbe813352	-0.25234467
56	0xbd6b07e1	-0.05738056
57	0xbd97fd95	-0.07421414
58	0xbe07aadc	-0.13248771
59	0x3db3bb85	0.08776001
60	0xbda2935b	-0.07938262
61	0x3c616e11	0.013759152
62	0x3e4d4647	0.2004634
63	0xbc2acec7	-0.010425276
64	0xbe4e0aa5	-0.20121248
65	0xbd5d1e1a	-0.053983785
66	0xbd227caa	-0.03966967
67	0x3d562468	0.052280813
68	0x3d44aaf1	0.048014585
69	0xbd73620b	-0.059419673
70	0xbcc6e1c6	-0.024277579
71	0x3bf45b87	0.0074572
72	0x3d688d91	0.056775633
73	0xbdd3e3ad	-0.1034616
74	0xbdd119f0	-0.10210025
75	0x3d761dc2	0.060086973
76	0xbd25a20d	-0.040437747
77	0x3b438fef	0.002984043
78	0xbd00bfcc	-0.03143291
79	0x3e4553c7	0.1927024
80	0x3d012c21	0.031536225
81	0x3ce0eea3	0.02745754
82	0xbdc0adf6	-0.094081804
83	0x3df4adb1	0.119471915
84	0xbd16bb11	-0.036799494
85	0xbe30ceb6	-0.17266354
86	0xbe3b6f67	-0.18304215
87	0x3dcb8d49	0.099390574
88	0x3e089d55	0.13341267
89	0x3e05db9f	0.1307206
90	0x3e28402a	0.16430727
91	0x3e0faa89	0.14029898
92	0x3e14e8ee	0.1454198
93	0xbdc1d805	-0.094650306
94	0xbde3b64d	-0.111187555
95	0x3d93af9f	0.072112314
96	0xbd78207b	-0.06057785
97	0xbe1fa1bb	-0.15589039
98	0x3d86795b	0.065661155
99	0x3d3b5d7f	0.04574346
100	0x3c9d93a5	0.019235441
101	0xbe23c7c2	-0.1599417
102	0x3d7515af	0.059835132
103	0xbd9d9c48	-0.07695824
104	0x3cd40fb0	0.025886387
105	0xbe2ede60	-0.17077017
106	0x3e0000f8	0.1250037
107	0x395c9552	0.00021036461
108	0x3e04ad54	0.12956744
109	0xbdbfa3a2	-0.09357382
110	0xbc230171	-0.009949074
111	0x3d9fdb46	0.07805495
112	0x3df23fe9	0.11828596
113	0xbd85a857	-0.06526249
114	0xbc39e920	-0.011347085
115	0xbb5d32dc	-0.0033752238
116	0xbc6d5620	-0.014485866
117	0x3db6f8e6	0.08934192
118	0xbd874c77	-0.066063814
119	0xbd91c8cf	-0.07118379
120	0x3d2f2631	0.04276103
121	0x3e2ed3c6	0.17072973
122	0x3ba73ab2	0.0051034326
123	0xbdada542	-0.08478786
124	0xbe48592e	-0.1956527
125	0xbd083788	-0.033256084
126	0x3e7662f2	0.24061182
127	0x3db4fb6b	0.08837017
128	0x3e1066ac	0.14101666
129	0xbdcf1462	-0.101113096
130	0xbdd1a983	-0.1023741
131	0xbe33a0c0	-0.1754179
132	0xbd8fa260	-0.070133924
133	0xbe2e6bb5	-0.17033274
134	0xbe86300b	-0.2620853
135	0xbe11c92d	-0.14236899
136	0xbd5095a4	-0.05092396
137	0x3c47c577	0.012193075
138	0x3dc5c8cc	0.096574396
139	0xbe1296fd	-0.1431541
140	0x3dbc5183	0.091952346
141	0x3da0c0f9	0.078493066
142	0xbe1c782d	-0.15280218
143	0x3dc61355	0.09671656
144	0xbe20c6ab	-0.15700786
145	0xbe44f19a	-0.19232789
146	0x3e13e881	0.14444162
147	0x3cfbb25d	0.030724699
148	0x3e2bb5bd	0.16768546
149	0x3d9c5995	0.07634274
150	0xbdd81b2b	-0.10552057
151	0xbdc81217	-0.09769075
152	0x3d33939c	0.043841943
153	0x3ddc4366	0.10755043
154	0xbe13db0b	-0.14439027
155	0xbdc3be8e	-0.0955783
156	0x3c35a749	0.011087247
157	0x3d2947b3	0.041328143
158	0x3cfab928	0.030605868
159	0xbd8d77db	-0.06907626
160	0x3dfe7277	0.12424176
161	0x3da45fa2	0.08026053
162	0x3dbcbc86	0.092156455
163	0x3e2bd47a	0.16780272
164	0x3d0d008a	0.034424342
165	0x3dd42f11	0.1036054
166	0xbab35399	-0.001368153
167	0x3e72ccb1	0.23710896
168	0xbd0e7653	-0.03478081
169	0xbd8924a7	-0.06696444
170	0xbdf44f14	-0.119291455
171	0x3d5c2be5	0.0537528
172	0x3db8c015	0.09021012
173	0xbe7019fb	-0.23447411
174	0x3dc5303d	0.09628341
175	0xbd94a7a5	-0.07258538
176	0x3d8d08f1	0.06886471
177	0xbc22f88e	-0.009946955
178	0xbc9fcff8	-0.019508347
179	0x3d699956	0.057031
180	0xbd2accdf	-0.041699287
181	0x3db51e46	0.08843665
182	0x3dad82f8	0.08472246
183	0xbe9785e0	-0.29594326
184	0xbcc785eb	-0.02435585
185	0x3db70259	0.08935995
186	0xbb21c679	-0.002468495
187	0xbde27e4c	-0.110592455
188	0xbe719356	-0.2359136
189	0xbde24c21	-0.11049677
190	0xbe4410f6	-0.19147095
191	0xbe3f6026	-0.18689021
192	0x3df3fea4	0.11913803
193	0xbe60779a	-0.21920624
194	0x3d6126aa	0.054968514
195	0xbdd3bc49	-0.10338647
196	0xbe0dfc9c	-0.13865894
197	0xbd09e3ed	-0.033664633
198	0x3d174403	0.036930095
199	0x3e3d3402	0.1847687
200	0x3e5f3f85	0.21801575
201	0x3d31ea2f	0.043436226
202	0x3e140dcc	0.14458388
203	0xbe153aa6	-0.14573154
204	0x3e147e84	0.14501387
205	0xbd9c6e38	-0.0763821
206	0x3dfcc8f6	0.12343018
207	0xbdfe504f	-0.124176614
208	0xbdd8bef2	-0.10583295
209	0x3dae757d	0.08518503
210	0x3d9a6143	0.075380825
211	0x3e1511a2	0.14557508
212	0xba71dff9	-0.0009226795
213	0xbdf7e7e6	-0.12104778
214	0x3c8f3f4e	0.01748624
215	0x3d3a35b9	0.04546139
216	0x3e1181ec	0.14209718
217	0x3de994d7	0.11405342
218	0xbe34fd65	-0.17674787
219	0xbda55a38	-0.080738485
220	0xbe219f6c	-0.15783471
221	0xbc2259f7	-0.009909145
222	0x3b43ba1c	0.0029865569
223	0x3e1ed43e	0.15510651
224	0xbde0d4c6	-0.10978083
225	0xbb01c70a	-0.0019802474
226	0xbc16a461	-0.009194464
227	0xbe2264b8	-0.15858734
228	0xbd96d88b	-0.07365521
229	0xbd4376c0	-0.04772067
230	0x3de25562	0.11051442
231	0xbd7065df	-0.0586909
232	0x3d434f44	0.047683015
233	0x3e0594ce	0.13045046
234	0x3e4bba4f	0.1989529
235	0x3d8f02ea	0.06982978
236	0xbe113bf3	-0.14183025
237	0xbe089592	-0.13338307
238	0x3df99970	0.12187469
239	0xbe1a3452	-0.15059021
240	0x3d2882f9	0.04114053
241	0x3e4bf55f	0.1991782
242	0xbe086f2e	-0.13323662
243	0x3e25b4e5	0.16182287
244	0x3da84d9d	0.082179286
245	0x3dda1458	0.106484115
246	0xbdf2be1c	-0.11852667
247	0x3d08627e	0.033297054
248	0x3e2246e8	0.15847361
249	0xbd4a0859	-0.049324367
250	0x3dc9a21b	0.09845372
251	0x3e926b69	0.28597572
252	0x3d614f69	0.055007372
253	0xbeb162d4	-0.34645712
254	0x3db30d3e	0.0874276
255	0xbdc62ad4	-0.096761376

bn1.weight f4 [16]
0	0x3f800545	1.0001608
1	0x3f87ea7a	1.0618432
2	0x3f7ac883	0.97962207
3	0x3f700f66	0.93773496
4	0x3f8013d6	1.0006053
5	0x3f831bb2	1.0242827
6	0x3f85ca77	1.0452412
7	0x3f9ec0c6	1.240258
8	0x3f8651bf	1.0493697
9	0x3f767703	0.9627535
10	0x3f7fada5	0.99874336
11	0x3f7dbd79	0.9911724
12	0x3f7ec1a2	0.9951421
13	0x3f804852	1.002207
14	0x3f761358	0.96123266
15	0x3f8d4882	1.1037753

bn1.bias f4 [16]
0	0xbaf2669b	-0.0018493714
1	0x3d0e6532	0.034764476
2	0x3c269580	0.0101674795
3	0x3d4f8cbf	0.050671335
4	0xbca5abc2	-0.020223502
5	0xbd22bc63	-0.03973044
6	0x3cf2c7e3	0.029636329
7	0x3d30ac04	0.043132797
8	0xbd108081	-0.0352788
9	0x3c04b03d	0.008098659
10	0xbc8cbae2	-0.017178956
11	0x3d37b711	0.04485232
12	0xbd271287	-0.040789153
13	0x3c0ee2d4	0.008721072
14	0xbd4aad8b	-0.04948191
15	0x3e208c64	0.15678555

bn1.running_mean f4 [16]
0	0xbeb2acbf	-0.3489742
1	0xbe1e37c6	-0.15450963
2	0xbe57953f	-0.21053027
3	0x3c833f23	0.016021317
4	0xbe4b2d5e	-0.19841525
5	0xbd394c53	-0.045238804
6	0xbc4d420e	-0.012527956
7	0xbd0741c0	-0.03302169
8	0xbd41fe79	-0.047361825
9	0x3e0190dd	0.12652917
10	0x3dfefc8e	0.12450515
11	0xbe13b701	-0.14425279
12	0x3e7cd5ab	0.24690883
13	0x3d971ac4	0.07378152
14	0xbe1debb8	-0.15421951
15	0x381a21e9	3.6748042e-05

bn1.running_var f4 [16]
0	0x3d7abff1	0.061218206
1	0x3c6f9889	0.01462377
2	0x3cdb438f	0.026765613
3	0x3adda570	0.0016910266
4	0x3cbb3117	0.022850556
5	0x3b6329fc	0.0034662476
6	0x3b66771b	0.0035166207
7	0x3b425ea9	0.0029658473
8	0x3b34a6e7	0.0027565302
9	0x3c4b5481	0.012410284
10	0x3c0bbce2	0.00852892
11	0x3c76f002	0.015071871
12	0x3d01d96c	0.03170149
13	0x3bd5bd03	0.006522776
14	0x3c8c3f2f	0.017119972
15	0x3b859937	0.0040771025

bneck.0.se.se.1.weight f4 [4, 16, 1, 1]
0	0x3de95420	0.11392999
1	0xbde6a28b	-0.11261471
2	0x3d37a43a	0.044834353
3	0xbd3e6ba4	-0.046489373
4	0xbe2e4baa	-0.17021051
5	0xbe0121c2	-0.12610534
6	0x3e5fd1a4	0.21857315
7	0xbd19ddec	-0.037565157
8	0x3df773dc	0.12082645
9	0xbd829a85	-0.063771285
10	0x3e7fdaf3	0.24985866
11	0xbe32e2ac	-0.17469281
12	0xbdcfa4e1	-0.1013887
13	0xbdd160b6	-0.10223524
14	0x3e7a162d	0.24422522
15	0x3e3827c0	0.17983913
16	0x3d7bcd20	0.06147492
17	0x3d107744	0.03526999
18	0x3ee05970	0.43818235
19	0x3e433a2f	0.19065164
20	0xbdddc560	-0.10828662
21	0xbbdb8acd	-0.006699896
22	0xbc210023	-0.009826693
23	0xbdc5f276	-0.096653864
24	0x3d262e5c	0.040571555
25	0x3d2a5a1b	0.041589838
26	0xbd2ee08b	-0.04269461
27	0x3e87242d	0.26394787
28	0x3c8fef63	0.017570203
29	0x3e389cd2	0.18028572
30	0xbd7dda2b	-0.06197564
31	0xbdc01538	-0.09379047
32	0xbdffb157	-0.12484997
33	0xbcbf0ff2	-0.023323033
34	0xbd186258	-0.037203163
35	0xbd635748	-0.05550316
36	0x3da538d6	0.08067481
37	0x3eabd007	0.3355715
38	0x3e0e3174	0.13886052
39	0xbe548fee	-0.2075803
40	0xbdee83ae	-0.1164621
41	0x3cfdb800	0.030971527
42	0x3e19e141	0.15027334
43	0x3ca0891b	0.019596627
44	0x3e796cb4	0.24357873
45	0x3d895c5a	0.06707068
46	0xbd766cf0	-0.060162485
47	0xbd329c19	-0.043605898
48	0xbdcf9796	-0.101363346
49	0xbd5423d2	-0.051791973
50	0x3dd42c16	0.10359971
51	0xbe2f2a30	-0.17105937
52	0x3d7d0120	0.06176865
53	0x3e2fd4a0	0.17170954
54	0xbd884a67	-0.06654816
55	0x3d9e2f1d	0.0772383
56	0xbe6c1843	-0.2305613
57	0x3e24b7cd	0.1608574
58	0xbd9175d7	-0.07102554
59	0x3e12f785	0.14352234
60	0x3cbd2f6b	0.0230939
61	0x3d02d2ea	0.031939425
62	0xbe340e7c	-0.1758365
63	0x3e0575ba	0.1303319

bneck.0.se.se.2.weight f4 [4]
0	0x3f639fad	0.8891552
1	0x3f98bab8	1.1931982
2	0x3f786bf3	0.9703972
3	0x3f4d25a7	0.8013558

bneck.0.se.se.2.bias f4 [4]
0	0x3ea2fba4	0.31832612
1	0x3e5b8deb	0.21440856
2	0x3e0c7164	0.1371513
3	0xbe5b6a98	-0.21427381

bneck.0.se.se.2.running_mean f4 [4]
0	0xbda810fd	-0.08206365
1	0xbdef4cde	-0.11684583
2	0x3e096276	0.13416466
3	0x3d9b9090	0.075959325

bneck.0.se.se.2.running_var f4 [4]
0	0x3c73f560	0.014890045
1	0x3cdfe171	0.027329179
2	0x3c6e9f87	0.0145644015
3	0x3cf0fc62	0.02941722

bneck.0.se.se.4.weight f4 [16, 4, 1, 1]
0	0x3e47eb95	0.19523461
1	0x3ec917b3	0.39275894
2	0x3e639420	0.22224474
3	0x3df165e3	0.117870115
4	0xbe5ba3fc	-0.21449274
5	0xbed570db	-0.41687664
6	0xbd524a80	-0.05134058
7	0x3ec7ed88	0.3904841
8	0xbcdf5890	-0.02726391
9	0x3ef19519	0.47184065
10	0x3ea57b6a	0.3232072
11	0xbd70e681	-0.058813576
12	0x3eafe2f4	0.3435284
13	0xbdc4a7b2	-0.09602298
14	0xbec4605b	-0.38354763
15	0xbe25e2b8	-0.16199768
16	0x3eef0b8d	0.466885
17	0x3e1463f9	0.14491262
18	0x3d5f7e60	0.05456388
19	0x3d9fa8c8	0.07795864
20	0x3f1b9be5	0.6078475
21	0x3efe01c9	0.49610737
22	0xbe378d89	-0.17925085
23	0xbba3a390	-0.0049938634
24	0xbe691c69	-0.22764744
25	0x3e8a676e	0.27032036
26	0x3f03bf33	0.5146362
27	0x3e642100	0.22278214
28	0x3eef0a8f	0.46687743
29	0x3eac18cb	0.33612666
30	0xbe268a9b	-0.16263811
31	0xbe0220af	-0.1270778
32	0x3f0fe954	0.56215405
33	0x3e91c28a	0.28468734
34	0xbdd2d86b	-0.10295185
35	0x3cc43b10	0.023953944
36	0x3df1ad50	0.11800635
37	0x3e9bea1a	0.30452043
38	0x3eb124b4	0.34598315
39	0xbea479c4	-0.3212415
40	0xbe465142	-0.19366935
41	0x3e0fa8bd	0.14029212
42	0xbec377e0	-0.38177395
43	0xbe297499	-0.16548385
44	0x3d1de733	0.038550567
45	0x3ea3b8a3	0.31976804
46	0x3ed3509c	0.41272438
47	0x3e6ce80f	0.23135398
48	0x3e83ceb9	0.25743654
49	0x3f0c9896	0.5492033
50	0x3edf4e31	0.43614343
51	0x3e32c880	0.17459297
52	0x3e557c6b	0.20848243
53	0x3ebc161e	0.36735624
54	0xbdd12dbe	-0.10213803
55	0xbe2dce63	-0.16973262
56	0x3ed096cb	0.40740046
57	0x3e96d953	0.2946268
58	0x3e2d9ea3	0.16955046
59	0xbebe7a87	-0.37202856
60	0x3cc4a49f	0.024004279
61	0xbbfa65d4	-0.0076415334
62	0x3e81d236	0.2535569
63	0x3e8996ca	0.26872855

bneck.0.se.se.5.weight f4 [16]
0	0x3f8c8830	1.0979061
1	0x3f4d78ca	0.80262434
2	0x3fa02aa3	1.2513012
3	0x3f4638bb	0.77430314
4	0x3f9e71f8	1.237853
5	0x3f7df315	0.9919904
6	0x3f502fd0	0.81322956
7	0x3f662078	0.89893293
8	0x3f61b1b3	0.8816177
9	0x3f69f1f4	0.91384816
10	0x3f45ad92	0.7721797
11	0x3f4c754c	0.7986648
12	0x3f8c5be1	1.0965539
13	0x3f83f966	1.0310485
14	0x3f6f0a8c	0.9337547
15	0x3f2afec7	0.6679501

bneck.0.se.se.5.bias f4 [16]
0	0xbdd7a260	-0.105290174
1	0x3c2198ca	0.009863088
2	0xbdd0cc0b	-0.10195168
3	0x3ddafcbb	0.10692736
4	0xbde0f6f7	-0.10984605
5	0x3cb09310	0.0215545
6	0x3de5633d	0.11200569
7	0x3d524385	0.051333923
8	0x3e0ff378	0.1405772
9	0x3e226e43	0.15862374
10	0x3dc3e6dc	0.09565517
11	0x3c872966	0.016499233
12	0x3d015dfb	0.031583767
13	0xbd8af6d4	-0.0678536
14	0xbdcbb6d2	-0.099469796
15	0x3d760011	0.060058657

bneck.0.se.se.5.running_mean f4 [16]
0	0x3eed8d97	0.46397087
1	0xbe956d32	-0.29184872
2	0x3ec5ae02	0.3860932
3	0xbd8f9051	-0.07009948
4	0x3ec65bae	0.3874182
5	0x3f0c27e8	0.5474839
6	0x3e9f45a8	0.3110783
7	0x3eb493b0	0.35268927
8	0x3ee08835	0.43853918
9	0x3ea27bae	0.31734985
10	0xbe736b8c	-0.23771495
11	0x3ee39b53	0.4445444
12	0x3f32b809	0.69812065
13	0x3e797151	0.24359633
14	0x3ec492b0	0.38393164
15	0x3e3d71ad	0.18500395

bneck.0.se.se.5.running_var f4 [16]
0	0x3e29311b	0.16522638
1	0x3e8e7a36	0.27827615
2	0x3e36599a	0.17807618
3	0x3da85356	0.0821902
4	0x3df73a1f	0.120716326
5	0x3f06d470	0.52667904
6	0x3dd6d401	0.10489655
7	0x3e993736	0.29924935
8	0x3e8aec1a	0.27133256
9	0x3e24b3fc	0.16084284
10	0x3d85f848	0.065414965
11	0x3de03a27	0.10948592
12	0x3eaadf97	0.3337371
13	0x3e4d0695	0.20022042
14	0x3e8816eb	0.26579985
15	0x3d076f75	0.033065278

bneck.0.conv1.weight f4 [16, 16, 1, 1]
0	0xbdbe3a37	-0.09288447
1	0xbe1a9af3	-0.15098171
2	0x3e557778	0.20846355
3	0xbda08f23	-0.07839801
4	0xbd5af1de	-0.05345332
5	0xbde18c6d	-0.11013112
6	0xbda0fe97	-0.07861059
7	0xbb2d596d	-0.0026451007
8	0xbd1153b3	-0.035480212
9	0x3c1acd53	0.009448367
10	0xbab8ea2b	-0.0014107873
11	0x3be3f28b	0.0069564036
12	0x3e06bd13	0.13158064
13	0xbdcf9daa	-0.10137494
14	0xbcd673fc	-0.026178353
15	0xbe895001	-0.2681885
16	0xbe69655d	-0.22792573
17	0xbdc1cc43	-0.09462788
18	0x3da80280	0.08203602
19	0x3e2bdd53	0.16783647
20	0x3c8c6337	0.017137153
21	0x3da9e791	0.08296121
22	0xbd0d4c7b	-0.034496766
23	0x3eaaa8e7	0.33331987
24	0x3d965db1	0.07342089
25	0xbe3b2d87	-0.18279086
26	0xbc281bdb	-0.0102605475
27	0x3df23f30	0.11828458
28	0x3d9d6788	0.07685763
29	0xbe85215e	-0.2600202
30	0xbe58c2e1	-0.2116809
31	0x3dd165e8	0.10224515
32	0x3e129031	0.14312817
33	0xbe5b7eb6	-0.21435055
34	0x3e1947f6	0.14968857
35	0x3dd236ce	0.102643594
36	0xbe21fba7	-0.15818654
37	0x3e4248a8	0.18973029
38	0xbcb03f41	-0.021514537
39	0xbd168aff	-0.03675365
40	0xbd90fdc9	-0.07079656
41	0xbd1d75ed	-0.03844254
42	0x3e5a0c09	0.21293654
43	0x3e578d22	0.21049932
44	0xbe1c82a4	-0.1528421
45	0x3e02dd5b	0.12779753
46	0x3dff2a5b	0.124592505
47	0x3d0d144d	0.03444319
48	0x3e289c4a	0.1646587
49	0xbe599c0c	-0.21250933
50	0xbdd3b654	-0.10337511
51	0x3e4c9dea	0.19982114
52	0x3e4cdf4f	0.2000706
53	0xbe38721b	-0.18012278
54	0x3c1e1828	0.009649314
55	0xbd9729b0	-0.07380998
56	0x3eb0de7b	0.3454474
57	0x3d8b2ce8	0.067956746
58	0xbd674710	-0.056464255
59	0x3d28cd9e	0.041211717
60	0x3a04baa5	0.00050632126
61	0x3d3fbacb	0.046809
62	0xbdd86b89	-0.10567386
63	0x3cf7f022	0.030265871
64	0xbd1938cf	-0.037407693
65	0xbd8402ee	-0.06445871
66	0xbe53b2c4	-0.20673662
67	0xbda4e3af	-0.0805124
68	0xbe2f9820	-0.17147875
69	0xbd955ad7	-0.07292717
70	0xbdd60ed8	-0.1045205
71	0x3d2fc7a5	0.042915005
72	0x3e1f0456	0.15528998
73	0xbe19d3c9	-0.15022196
74	0x3e5a36f4	0.21310025
75	0xbe0ffd31	-0.14061429
76	0x3dc28bf9	0.09499354
77	0xbe5021be	-0.20325372
78	0xbe17f596	-0.14839777
79	0x3bef7ed1	0.007308819
80	0xbc72c220	-0.014816791
81	0xbe31ff5f	-0.17382573
82	0xbdbb7ebe	-0.091550335
83	0x3cb8f128	0.02257593
84	0x3db13cde	0.086541876
85	0xbdf59957	-0.11992138
86	0x3e982fbf	0.29723927
87	0x3c9f3ca0	0.019438088
88	0xbe7275ae	-0.23677704
89	0x3e6ebe63	0.23314814
90	0xbe80d3d6	-0.25161618
91	0x3e08ad9a	0.13347474
92	0x3e475827	0.19467221
93	0xbda54caf	-0.08071267
94	0x3e025abb	0.12729923
95	0xbc2d2db2	-0.010569977
96	0x3c875194	0.016518392
97	0xbd83e43f	-0.06440019
98	0xbcdaa0cd	-0.026688004
99	0x3c63e6ba	0.01390999
100	0xbe0e3c54	-0.13890201
101	0xbe99e82e	-0.30059952
102	0xbaecba05	-0.0018060809
103	0x3dd7098e	0.10499869
104	0xbe670d37	-0.22563635
105	0x3da98877	0.08277982
106	0xbdf6e501	-0.12055398
107	0x3de5e261	0.11224819
108	0xbd1ed10c	-0.03877358
109	0xbcae8469	-0.021303372
110	0xbd148f67	-0.03626957
111	0xbcb6f3ce	-0.022333052
112	0xbe34585d	-0.17611833
113	0x3e0a5ec6	0.13512716
114	0x3e2eb6fe	0.17061993
115	0x3d9528a4	0.07283142
116	0xbde2ecf8	-0.110803545
117	0xbdd96ea4	-0.10616806
118	0x3e025f3d	0.12731643
119	0x3e915cd0	0.28391123
120	0xbe28a34a	-0.1646854
121	0xbda5c0a8	-0.08093387
122	0xbe4de0e2	-0.20105317
123	0xbd64ff1d	-0.055907357
124	0xbd693735	-0.056937415
125	0x3dac1690	0.08402741
126	0x3e632ac5	0.22184284
127	0x3e7569a4	0.2396608
128	0x3c5a045c	0.013306703
129	0x3e9c25c0	0.3049755
130	0x3d054011	0.0325318
131	0x3d1e3541	0.038625006
132	0xbc7870f7	-0.015163652
133	0xbc99647a	-0.018724669
134	0xbe92239c	-0.28542793
135	0xbaa03b6b	-0.0012224739
136	0x3d2ad505	0.041707058
137	0xbe40e7bf	-0.18838404
138	0x3d9b99c7	0.0759769
139	0x3d40a239	0.047029708
140	0xbe347b9a	-0.17625275
141	0xbcb5efc4	-0.022209056
142	0x3d6fe2c0	0.058565855
143	0x3e00e8ed	0.12588854
144	0x3c595ea9	0.013267198
145	0xbe83b8b7	-0.25726864
146	0x3de1bece	0.11022721
147	0xbcfbabdf	-0.030721603
148	0x3e2ff476	0.17183098
149	0xbd3b6844	-0.045753732
150	0x3d924ccb	0.07143553
151	0x3bb0bd38	0.0053936504
152	0xbd28fb6e	-0.041255407
153	0x3e4431ea	0.19159666
154	0x3e6ff6cd	0.23433991
155	0xbdf892b7	-0.12137359
156	0x3e8ec6c5	0.27886024
157	0x3e3736b9	0.17891969
158	0x3c43ac80	0.011942983
159	0x3ceab8b8	0.028652534
160	0x3e010614	0.12599975
161	0x3e36c9e1	0.17850448
162	0xbc576781	-0.013147236
163	0xbe730344	-0.23731714
164	0xbe50b774	-0.20382482
165	0xbb0161fa	-0.0019742236
166	0xbdc2cb97	-0.09511488
167	0x3e2690b0	0.16266131
168	0x3e1bede2	0.15227464
169	0x3e69d029	0.22833313
170	0x3e871539	0.2638338
171	0x3adda8b0	0.0016911235
172	0x3e56cd67	0.20976792
173	0xbe28ca07	-0.16483317
174	0x3da02957	0.07820385
175	0xbdd627f0	-0.10456836
176	0x3d606ceb	0.054791372
177	0xbc9bc6f0	-0.01901576
178	0x3e0384fb	0.12843697
179	0xbde3120e	-0.11087428
180	0xbeae4d87	-0.34043524
181	0x3c53fa49	0.012938091
182	0xbe50f182	-0.20404628
183	0xbe029a4f	-0.12754177
184	0x3e8332a1	0.25624564
185	0x3da2d6cf	0.07951128
186	0xbd82817a	-0.06372352
187	0x3e5a4395	0.21314843
188	0x3be5f1fb	0.0070173717
189	0x3dd83973	0.105578326
190	0xbd8576d3	-0.065168045
191	0x3e3627b0	0.17788577
192	0x3e7c13ff	0.24617003
193	0x3e4219fe	0.18955228
194	0xbe741f20	-0.23839998
195	0xbd98fb16	-0.07469766
196	0x3e260645	0.16213329
197	0xbdd201cb	-0.10254248
198	0x3dad9560	0.08475757
199	0xbc4f3c34	-0.012648631
200	0x3cae1929	0.021252232
201	0xbd4e941f	-0.050434228
202	0xbd45c951	-0.048287693
203	0xbe38a0a4	-0.1803003
204	0x3cceffde	0.025268491
205	0x3e217ab5	0.15769465
206	0xbda54146	-0.080690905
207	0xbe2c75c3	-0.16841798
208	0xbe166687	-0.14687549
209	0xbe5e5cd9	-0.21715106
210	0x3df246f6	0.11829941
211	0xbd90c752	-0.07069267
212	0x3e175264	0.14777523
213	0xbd854d86	-0.06508927
214	0x3d7978d4	0.060906246
215	0xbd0e67cd	-0.03476696
216	0xbc3d72da	-0.011563027
217	0xbe34b0a9	-0.17645516
218	0xbd442126	-0.047883175
219	0x3ac7bf04	0.0015239422
220	0x3d5497d3	0.051902603
221	0x3e4bbd16	0.1989635
222	0x3d4d40c4	0.050110593
223	0xbdea8b4e	-0.114523515
224	0x3eb602ec	0.35549104
225	0x3e9b23dc	0.30300796
226	0x3de576d1	0.11204303
227	0x3c82be06	0.01595975
228	0x3deaea44	0.11470464
229	0x3d5a170b	0.05324463
230	0xbe34ac7a	-0.1764392
231	0xbe3dbd8d	-0.18529339
232	0x3dc76c49	0.09737451
233	0xbd498913	-0.04920299
234	0x3dad737e	0.08469294
235	0x3db684c2	0.0891204
236	0x3d2a6f0f	0.04160982
237	0x3d0a6020	0.03378308
238	0xbe2e9b80	-0.17051506
239	0x3e044bfc	0.1291961
240	0x3e494efe	0.1965904
241	0x3e7270fb	0.23675911
242	0x3c4e3b9c	0.012587454
243	0xbe315578	-0.1731776
244	0xbe22e7ba	-0.15908709
245	0x3b1d6faf	0.0024022867
246	0x3e168715	0.14699967
247	0xbc01baa3	-0.007918033
248	0xbdedaa94	-0.11604801
249	0xbcec1add	-0.028821403
250	0x3d457f84	0.04821731
251	0xbdb15015	-0.086578526
252	0x3e28e564	0.16493756
253	0xbe63a255	-0.22229894
254	0xbe312c92	-0.17302158
255	0xbe977ffb	-0.2958983

bneck.0.bn1.weight f4 [16]
0	0x3f2c354f	0.6726884
1	0x3f21c1aa	0.6318613
2	0x3f66bc3f	0.9013099
3	0x3f588db5	0.8459123
4	0x3ee3b344	0.44472706
5	0x3eb53701	0.35393527
6	0x3f0261a8	0.5093026
7	0x3f6c6ce3	0.9235365
8	0x3f5bf606	0.85922277
9	0x3ebaa794	0.36455977
10	0x3f501b65	0.812918
11	0x3f74b936	0.9559511
12	0x3f58102c	0.84399676
13	0x3ef6ce41	0.48204234
14	0x3f5c19fa	0.8597714
15	0x3f6b706a	0.91968405

bneck.0.bn1.bias f4 [16]
0	0x3e82d0ac	0.2554983
1	0x3e8000cc	0.25000608
2	0xbdaaaed4	-0.08334127
3	0x3cd528d4	0.026020445
4	0x3e8f9f06	0.28051013
5	0x3e6b1908	0.22958767
6	0x3e4b0678	0.19826686
7	0x3c258c46	0.010104245
8	0x3d31eb0c	0.04343705
9	0x3ec10d07	0.37705252
10	0x3d1e51fd	0.03865241
11	0x3c8acd80	0.016943693
12	0xbde3c2bf	-0.11121129
13	0x3eb3ca7c	0.3511542
14	0x3d0ff7e1	0.035148505
15	0xbd7ceee3	-0.061751258

bneck.0.bn1.running_mean f4 [16]
0	0xbe007b0c	-0.12546939
1	0x3d2c4fed	0.04206841
2	0x3dae1836	0.085007116
3	0x3d4461ec	0.047944948
4	0xbe0aba0f	-0.13547538
5	0x3c8d086b	0.017215928
6	0xbdac079f	-0.08399891
7	0x3de178be	0.11009358
8	0x3cd46de9	0.025931315
9	0x3de4b4eb	0.1116732
10	0x3dd99811	0.106247075
11	0x3cc026b1	0.02345595
12	0xbc7db884	-0.0154858865
13	0xbd7e8294	-0.062136248
14	0x3e148149	0.14502443
15	0xbd9c5dac	-0.07635054

bneck.0.bn1.running_var f4 [16]
0	0x3db2b939	0.08726735
1	0x3e073a3a	0.13205805
2	0x3dce0544	0.10059598
3	0x3da9652a	0.08271249
4	0x3e078433	0.13234024
5	0x3da61b2f	0.081106536
6	0x3d52075c	0.05127655
7	0x3e2d3397	0.16914211
8	0x3e25c199	0.16187133
9	0x3e8d0bce	0.2754807
10	0x3d720b7a	0.059092976
11	0x3e1a3849	0.15060534
12	0x3de699a5	0.11259774
13	0x3cd0058c	0.02539327
14	0x3df916da	0.12162562
15	0x3e568a2b	0.20951144

bneck.0.conv2.weight f4 [16, 1, 3, 3]
0	0xbdd87d61	-0.10570789
1	0xbe917b74	-0.284145
2	0xbee0605e	-0.43823522
3	0xbd8b5972	-0.0680417
4	0xbd51d2e9	-0.05122653
5	0x3d503ba3	0.050838124
6	0x3d7d9873	0.061912965
7	0x3e9f1751	0.31072477
8	0xbdcd2cfa	-0.10018344
9	0xbd6af011	-0.05735785
10	0xbe7b16e8	-0.24520457
11	0x3c29ef6b	0.010372023
12	0xbed96774	-0.4246174
13	0xbee8b08e	-0.454472
14	0x3d758f23	0.05995096
15	0x3dc39d21	0.09551454
16	0xbdf8a454	-0.12140718
17	0x3db8a0f4	0.09015074
18	0x3daed4a3	0.08536651
19	0xbdb3d35c	-0.08780548
20	0xbd6f98ad	-0.058495212
21	0xbec1d6a3	-0.37859067
22	0xbf1dec27	-0.61688465
23	0xbe42f38c	-0.19038218
24	0xbe8eca78	-0.27888846
25	0xbf1a821b	-0.60354775
26	0xbea0d392	-0.31411415
27	0xbb3dd092	-0.002896343
28	0xbe8ab861	-0.27093795
29	0xbe182cdc	-0.14860862
30	0xbeb37dd1	-0.35056928
31	0xbe8ed648	-0.2789786
32	0xbe485cb0	-0.19566607
33	0xbe0859c6	-0.13315496
34	0xbc725cc5	-0.014792626
35	0x3c8b6185	0.017014274
36	0x3ed2d951	0.41181424
37	0x3e9d12a5	0.30678287
38	0x3e5da8ae	0.21646377
39	0x3d4692da	0.048479892
40	0xbe3c7a69	-0.18406071
41	0x3e8cd95e	0.27509588
42	0x3e304b3d	0.17216201
43	0x3e5bdea1	0.21471645
44	0xbd724882	-0.05915118
45	0x3e1b31b1	0.15155675
46	0xbc22dc2a	-0.0099401865
47	0x3d889421	0.06668878
48	0xbd3ec2ea	-0.046572603
49	0x3e5f722d	0.21820898
50	0x3d2aa381	0.041659836
51	0xbe129fd8	-0.14318788
52	0xbec52199	-0.38502195
53	0x3d892d40	0.06698084
54	0x3e136c3a	0.14396754
55	0x3e43a5db	0.19106238
56	0x3ca8a866	0.020588111
57	0x3d2e859e	0.042607896
58	0x3e8db6d9	0.27678564
59	0x3ea7e33b	0.3279055
60	0xbe0892b3	-0.13337211
61	0x3d61a9f5	0.055093724
62	0x3e98ebd9	0.29867437
63	0x3e2b087c	0.16702455
64	0x3dbccb20	0.092184305
65	0x3c85b9eb	0.016324004
66	0x3e412fca	0.18865886
67	0x3e7f2ba3	0.2491899
68	0x3e33835e	0.17530581
69	0x3e172a72	0.14762285
70	0x3e35ec23	0.1776586
71	0xbd9181df	-0.07104849
72	0x3d683c86	0.056698345
73	0xbea25a6a	-0.31709605
74	0xbeb95753	-0.36199436
75	0x3e1c24d3	0.15248422
76	0x3e4c932a	0.19978014
77	0xbe80947f	-0.25113294
78	0x3ea48a6e	0.32136863
79	0xbd0a706c	-0.03379862
80	0x3e606c6c	0.2191636
81	0x3e81fa24	0.25386155
82	0x3e84bdb4	0.25925982
83	0xbe83cf8b	-0.2574428
84	0x3e8079f6	0.2509305
85	0x3dd46ec2	0.10372688
86	0x3d73f7cb	0.059562486
87	0xbea177bb	-0.3153666
88	0xbcc336e1	-0.02382988
89	0xbe98923c	-0.29799068
90	0x3e1c2470	0.15248275
91	0x3e85d6d5	0.26140466
92	0x3e30a070	0.17248702
93	0x3eb61be2	0.35568148
94	0x3e76ec1a	0.24113503
95	0x3de6f2a0	0.11276746
96	0x3e2b0620	0.16701555
97	0xbe701372	-0.23444918
98	0x3ca70d8a	0.020392198
99	0xbe288f54	-0.16460925
100	0xbef127ac	-0.4710058
101	0xbe177e09	-0.14794172
102	0xbe7f4d3c	-0.24931806
103	0xbedb4583	-0.4282647
104	0xbd6acfa8	-0.057326943
105	0xbd5d4d7a	-0.054028966
106	0xbde59510	-0.11210072
107	0x3d47f89f	0.048821088
108	0x3dc4a0a6	0.09600954
109	0x3bc329ef	0.0059559266
110	0x3e02db8e	0.12779066
111	0x3e15d19f	0.14630745
112	0x3ec7080c	0.38873327
113	0x3dbea5e3	0.09308984
114	0x3eaad593	0.3336607
115	0x3f0faa87	0.5611958
116	0xbd710ed8	-0.058852047
117	0x3e75d5d6	0.24007353
118	0xbd8bc90a	-0.068254545
119	0xbe444d79	-0.19170178
120	0x3e10f521	0.1415601
121	0xbda85686	-0.08219628
122	0xbeccbabb	-0.39986214
123	0x3e703634	0.23458177
124	0x3d642097	0.055695143
125	0xbbf5f7c4	-0.0075063426
126	0x3e06dea7	0.13170873
127	0xbd7f1c8b	-0.06228308
128	0x3e4c7956	0.19968161
129	0x3df401c4	0.11914399
130	0x3e799a88	0.24375355
131	0x3e4b7e0b	0.198723
132	0xbd5f62d9	-0.054537628
133	0x3cd13c3e	0.025541421
134	0x3d806aa8	0.06270343
135	0x3db8a814	0.09016433
136	0x3dc404d1	0.09571231
137	0xbc6db929	-0.014509478
138	0x3e11e58c	0.14247721
139	0x3d578632	0.052618213
140	0x3d4e3ea0	0.050352693
141	0xbedbb008	-0.4290774
142	0xbd29c573	-0.041448068
143	0x3e4888c3	0.1958342

bneck.0.bn2.weight f4 [16]
0	0x3f689e20	0.9086628
1	0x3f828abe	1.0198591
2	0x3f8a7bbf	1.0819014
3	0x3f8d857b	1.105636
4	0x3f6ada44	0.91739297
5	0x3f5d58b2	0.86463463
6	0x3f6df7a4	0.92955995
7	0x3f85339a	1.0406373
8	0x3f57d6ab	0.8431193
9	0x3f6712ed	0.90263253
10	0x3f77287e	0.9654616
11	0x3f98b35b	1.1929735
12	0x3f88a2eb	1.0674719
13	0x3f740e45	0.95334274
14	0x3f7f0c31	0.9962798
15	0x3f81580b	1.0104994

bneck.0.bn2.bias f4 [16]
0	0x3dfacb17	0.122457676
1	0x3dc9c402	0.09851839
2	0x3ea2e957	0.3181865
3	0x3d90c681	0.070691116
4	0xbc0aebcf	-0.008479073
5	0x3d81e4ca	0.06342466
6	0xbba6a2da	-0.0050853314
7	0x3e124191	0.14282824
8	0x3e6530a6	0.22381839
9	0x3ea1969f	0.31560227
10	0x3d61a36c	0.055087492
11	0x3b4d8405	0.0031359207
12	0x3e55be43	0.2087336
13	0x3cb2511d	0.021767193
14	0xbba6cae3	-0.005090104
15	0x3d18379d	0.037162412

bneck.0.bn2.running_mean f4 [16]
0	0xbe64fa88	-0.22361195
1	0xbebc1350	-0.36733484
2	0xbef56eac	-0.47935998
3	0xbe9ea7b4	-0.30987322
4	0x3ef51bfc	0.47872913
5	0xbc63cdf9	-0.013904088
6	0x3eb99ed6	0.36253995
7	0x3eb5a10d	0.35474434
8	0xbaf09c39	-0.0018357105
9	0x3bd537cf	0.006506897
10	0x3ebc3fe6	0.367675
11	0xbecb1fcc	-0.39672697
12	0x3e8a3c54	0.26999152
13	0xbd2a02f5	-0.041506726
14	0x3ea5f9f2	0.32417256
15	0x3cda5365	0.026651094

bneck.0.bn2.running_var f4 [16]
0	0x3d50aec2	0.050947912
1	0x3e85930f	0.2608876
2	0x3fc5ae40	1.5443802
3	0x3e9d9487	0.3077738
4	0x3e3c04b8	0.18361175
5	0x3c4d8d13	0.012545842
6	0x3db5892e	0.088640556
7	0x3ec3f31f	0.38271424
8	0x3d333a45	0.043756742
9	0x3be6cfd5	0.0070438185
10	0x3ea4d744	0.32195485
11	0x3f181fa7	0.594233
12	0x3e359667	0.17733155
13	0x3d1d4235	0.038393218
14	0x3e32d78b	0.17465036
15	0x3c864b18	0.01639323

bneck.0.conv3.weight f4 [16, 16, 1, 1]
0	0xbe407a31	-0.18796612
1	0x3e249a92	0.16074589
2	0x3e578a00	0.21048737
3	0xbe2c8540	-0.16847706
4	0xbdd35068	-0.10318071
5	0xbdc1b7d7	-0.09458893
6	0xbe60d670	-0.21956801
7	0x3e14f03b	0.14544766
8	0xbded1fbf	-0.11578321
9	0xbe30cfc8	-0.17266762
10	0xbded6d5b	-0.115931235
11	0x3d4f8d58	0.050671905
12	0x3e230534	0.15919954
13	0x3e8fe10b	0.28101382
14	0x3c5257e0	0.012838334
15	0x3cefdb09	0.029279249
16	0xbc285924	-0.010275159
17	0xbdd37e19	-0.103267856
18	0xbd5164c8	-0.051121503
19	0xbe0acfbe	-0.1355581
20	0xbdf1f4ac	-0.118142456
21	0x3e44dd98	0.19225156
22	0xbd625821	-0.055259828
23	0xbe58d5e6	-0.21175346
24	0x3e0bc641	0.13649847
25	0x3d46df14	0.048552588
26	0x3e1ac2a9	0.1511332
27	0x3e8799f7	0.26484653
28	0xbd9e4261	-0.077275045
29	0xbd0ffe2b	-0.035154503
30	0x3e818a3f	0.25300786
31	0x3e13a8e4	0.14419895
32	0x3e372c73	0.1788805
33	0x3d9c3d46	0.076288745
34	0x3d252c21	0.040325288
35	0x3cad9939	0.021191226
36	0xbe28e669	-0.16494144
37	0xbdeb1bdb	-0.114799224
38	0x3da7b37a	0.08188529
39	0x3c1225d2	0.00892015
40	0xbde0f197	-0.109835796
41	0xbd83d40f	-0.06436931
42	0x3e194cad	0.14970656
43	0xbe473f00	-0.19457626
44	0x3c5f9eb9	0.013648682
45	0x3e035a83	0.12827496
46	0xbc969311	-0.018380674
47	0xbe956d5e	-0.29185003
48	0xbe005cca	-0.12535396
49	0x3e07be2d	0.1325614
50	0x3e3a2070	0.18176436
51	0x3e8e54b3	0.27798995
52	0x3e4b8a6b	0.19877021
53	0x3de77590	0.1130172
54	0x3e107866	0.14108428
55	0xbc87bd52	-0.016569767
56	0x3d1cd260	0.038286567
57	0x3e000a2f	0.12503885
58	0xbe1ecf15	-0.15508683
59	0x3ebb8967	0.36628267
60	0xbcfe9f6a	-0.031081874
61	0x3896805e	7.1764676e-05
62	0x3b0029d4	0.0019556182
63	0xbd9d4745	-0.07679609
64	0xbdd6797e	-0.104723915
65	0xbdfaf8f6	-0.12254517
66	0xbeb4d176	-0.35316056
67	0xbea4cf84	-0.32189572
68	0xbd996797	-0.07490461
69	0x3d89c02e	0.067261085
70	0x3ca57ec9	0.020202057
71	0xbe3afb38	-0.18259895
72	0xbe2951c3	-0.16535096
73	0xbd63d6c7	-0.05562475
74	0x3d0f9853	0.035057377
75	0xbcc0d289	-0.023537891
76	0x3d813c07	0.063102774
77	0x3e5618f7	0.20907961
78	0x3d21e064	0.039520636
79	0x3e4af662	0.1982055
80	0x3e63ae09	0.22234358
81	0xbc63a6ee	-0.01389478
82	0xbc36df2f	-0.01116161
83	0xbd99c4d7	-0.07508247
84	0x3e7207e5	0.23635824
85	0xbd6455f6	-0.05574604
86	0xbe07e9f4	-0.1327284
87	0x3e864c80	0.2623024
88	0xbc9878c1	-0.018612267
89	0xbda15fe8	-0.07879621
90	0xbd447edd	-0.04797255
91	0xbdeecbb5	-0.11659948
92	0xbe9283df	-0.28616235
93	0x3d464d4e	0.048413567
94	0xbe2c7ed4	-0.16845256
95	0x3e16750d	0.14693089
96	0xbdca9b1a	-0.098928645
97	0x3d3f4393	0.046695303
98	0xbe5d7480	-0.21626472
99	0x3e706b66	0.23478469
100	0x3df8fe10	0.121578336
101	0xbc654af8	-0.013994925
102	0x3b1903fe	0.0023348327
103	0xbd12bb37	-0.035823073
104	0xbc0ff638	-0.0087867305
105	0xbe49b366	-0.19697341
106	0x3d39ca25	0.045358796
107	0xbe7bcb82	-0.24589351
108	0xbd99845c	-0.07495949
109	0xbe0f9b8a	-0.14024177
110	0x3ddfa0d0	0.109193444
111	0xbdcfcda5	-0.101466455
112	0xbe1bb6c9	-0.15206446
113	0xbe23a8b8	-0.1598233
114	0xbd35ef78	-0.04441783
115	0x3e7d1b29	0.24717392
116	0x3d01d582	0.031697758
117	0x3e14a16d	0.14514704
118	0x3de8d6ff	0.11369132
119	0x3e8478f2	0.25873524
120	0x3e7ed832	0.2488716
121	0x3e78757b	0.24263565
122	0x3df3be26	0.11901502
123	0xbd9ecfc3	-0.07754471
124	0x3e7b3e99	0.24535598
125	0x3d086667	0.033300783
126	0x3dbdf5fb	0.09275433
127	0x3e01079f	0.12600563
128	0xbe519b5c	-0.20469421
129	0x3d5054e8	0.050862223
130	0xbe859534	-0.26090395
131	0x3d2dc4a8	0.042423874
132	0x3e81d551	0.2535806
133	0xbdba6ad6	-0.091024086
134	0xbe4f71d9	-0.20258273
135	0x3dfe638d	0.124213316
136	0xbdd1e4b7	-0.10248702
137	0x3dfb3c4c	0.1226736
138	0xbe048a13	-0.12943296
139	0xbd4c546a	-0.04988519
140	0x3e4c66d3	0.199611
141	0xbbb425d5	-0.005497674
142	0x3dbf305a	0.09335394
143	0xbd602bba	-0.0547292
144	0xbd9dcd2d	-0.0770515
145	0x3ea284aa	0.3174184
146	0x3e93163e	0.28727907
147	0x3d47c7db	0.04877458
148	0x3de9f6e8	0.11424047
149	0xbe090c83	-0.13383679
150	0xbcba2afb	-0.022725573
151	0xbd242421	-0.040073518
152	0xbe3b2a72	-0.1827791
153	0x3d557edf	0.052122947
154	0x3d9d4b9d	0.07680438
155	0x3e77f0f8	0.24213016
156	0x3e750f22	0.23931554
157	0xbdd7501d	-0.10513327
158	0xbd851f16	-0.0650007
159	0x3cbe1cb7	0.023207052
160	0x3e223862	0.15841821
161	0xbe4dff62	-0.20116952
162	0x3db3debd	0.08782718
163	0xbe25d4bd	-0.16194434
164	0x3db404c6	0.08789973
165	0xbdaf2d1f	-0.08553528
166	0xbd161052	-0.036636658
167	0x3dac44c5	0.08411554
168	0xbe5c4d80	-0.21513939
169	0x3ddad87b	0.106858216
170	0x3d535965	0.051598925
171	0xbc4ff9b4	-0.012693811
172	0xbeafe2eb	-0.34352812
173	0xbe8b21a0	-0.2717409
174	0xbe39d964	-0.18149334
175	0xbdb6e7f8	-0.08930963
176	0x3e2489a0	0.16068125
177	0xbdb510d0	-0.08841097
178	0xbb9d1963	-0.004794286
179	0xbe78e048	-0.24304307
180	0xbd9d7edd	-0.07690213
181	0x3d4d3731	0.050101463
182	0xbb774918	-0.0037732776
183	0xbdb03412	-0.086036816
184	0x3e70959a	0.23494568
185	0xbe52f75d	-0.20602174
186	0xbe83b022	-0.25720316
187	0xbe61494a	-0.22000614
188	0xbe2124f3	-0.15736751
189	0x3e7bf24a	0.24604145
190	0x3e49eaaf	0.19718431
191	0x3e0f9d60	0.14024878
192	0x3ec88ecd	0.39171448
193	0x3ddde49b	0.10834619
194	0xbd8e8fe2	-0.06961037
195	0xbdf9f1f0	-0.12204349
196	0xbc38d33a	-0.011280829
197	0x3e73771f	0.2377591
198	0xbdea5887	-0.114426665
199	0x3d915cad	0.070977546
200	0x3d9d0523	0.076669954
201	0x3e3a8c48	0.18217576
202	0xbe956966	-0.29181975
203	0xbe3f411f	-0.18677185
204	0x3e496e7c	0.19671053
205	0xbdc5f5f1	-0.0966605
206	0xbde7d83b	-0.113205396
207	0x3d1469dc	0.036233768
208	0x3c0050bd	0.0078317495
209	0xbd4e8067	-0.050415423
210	0x3e419bed	0.18907137
211	0xbe039c62	-0.12852624
212	0x3d052487	0.03250554
213	0xbdc18a99	-0.094502635
214	0xbe3512db	-0.17682974
215	0xbdd8b3cc	-0.105811685
216	0xbe334f23	-0.17510657
217	0xbd155a24	-0.036462918
218	0xbdabf4d7	-0.08396309
219	0xbe2979fe	-0.16550443
220	0xbab40ae7	-0.0013736159
221	0x3e04bee1	0.1296344
222	0x3dc2d87d	0.09513948
223	0x3e65d502	0.22444537
224	0x3d4e42ba	0.050356604
225	0xbde16a29	-0.110065766
226	0x3d853c46	0.06505637
227	0x3c9ab565	0.018885324
228	0xbd5b696b	-0.05356733
229	0x3e1d461a	0.15358773
230	0xbdb80a23	-0.089863084
231	0xbe0f64b2	-0.14003256
232	0x3dfd2af2	0.12361707
233	0xbe246a7d	-0.16056247
234	0xbe77d95c	-0.2420401
235	0x3e8b28a3	0.2717944
236	0xbd72f58f	-0.059316214
237	0x3e00efa6	0.12591419
238	0x3e801913	0.2501913
239	0xbe6c3ef6	-0.23070893
240	0xbe11ac01	-0.1422577
241	0x3e88f60f	0.26750228
242	0x3d67aac4	0.05655934
243	0xbe8ee180	-0.27906418
244	0x3e70402a	0.23461977
245	0x3dbd59cc	0.09245643
246	0xbe5144ac	-0.20436352
247	0xbe8e4a22	-0.27790934
248	0xbbd95c65	-0.0066333287
249	0xbcec9747	-0.028880728
250	0x3d224601	0.039617542
251	0x3c1ba144	0.009498898
252	0x3e4a62bd	0.19764228
253	0x3cb24ee2	0.02176613
254	0xbb115634	-0.0022176625
255	0x3c4468bf	0.011987864

bneck.0.bn3.weight f4 [16]
0	0x3f732dd8	0.94991827
1	0x3f611146	0.8791698
2	0x3f807180	1.0034637
3	0x3f819025	1.0122114
4	0x3f84b394	1.0367303
5	0x3f85d598	1.0455809
6	0x3f8106c5	1.0080191
7	0x3f847862	1.0349238
8	0x3f8c0010	1.0937519
9	0x3f8c73fe	1.0972898
10	0x3f7dbc6d	0.9911564
11	0x3f6f395e	0.9344691
12	0x3f8d764b	1.1051725
13	0x3f72381d	0.9461687
14	0x3f7422cc	0.95365596
15	0x3f71a7d7	0.9439673

bneck.0.bn3.bias f4 [16]
0	0xbc160ea6	-0.009158766
1	0xbc8410cb	-0.016121289
2	0xbe522bfd	-0.20524593
3	0xbdde112b	-0.10843118
4	0x3e894c63	0.2681609
5	0x3d5c6e60	0.0538162
6	0x3daa38fa	0.08311649
7	0x3d9e3d99	0.077265926
8	0xbd9425c2	-0.07233764
9	0x3da347c1	0.0797267
10	0x3dfcbe27	0.12340956
11	0x3e262551	0.16225173
12	0x3e607c28	0.21922362
13	0xbda5314c	-0.08066043
14	0xbd3a266c	-0.0454468
15	0xbcf41d35	-0.029799083

bneck.0.bn3.running_mean f4 [16]
0	0xbd8d448f	-0.06897842
1	0x3dec2495	0.11530415
2	0xbd76d3d8	-0.060260624
3	0x3ef1c415	0.4721991
4	0xbed21748	-0.41033387
5	0xbd45c500	-0.048283577
6	0xbe7d13ee	-0.24714634
7	0x3f09c82e	0.53821075
8	0xbddaaa12	-0.106769696
9	0x3ec2a435	0.38015905
10	0xbea33419	-0.31875685
11	0xbe2f68f8	-0.17129886
12	0x3dfbc7e8	0.122939885
13	0xbdeb5cf7	-0.11492341
14	0xbcbbaaec	-0.02290865
15	0xbc38122d	-0.011234802

bneck.0.bn3.running_var f4 [16]
0	0x3dd6b201	0.1048317
1	0x3dda176d	0.10648999
2	0x3d9e6534	0.07734147
3	0x3ddd76b0	0.108136535
4	0x3dd6ae2a	0.10482438
5	0x3e2708a6	0.16311893
6	0x3d9375b4	0.072001845
7	0x3e942cee	0.2894053
8	0x3d9cea43	0.076618694
9	0x3e30fe4a	0.17284504
10	0x3e6ab45e	0.22920367
11	0x3e897e07	0.26853964
12	0x3e938bae	0.28817505
13	0x3d9e92e7	0.07742863
14	0x3e4295d5	0.19002469
15	0x3e43f54a	0.19136539

bneck.1.conv1.weight f4 [72, 16, 1, 1]
0	0xbe213a0d	-0.15744801
1	0x3e18ae0d	0.14910145
2	0x3cf7e67d	0.030261273
3	0xbe5e5898	-0.21713483
4	0x3dc7a6e4	0.09748629
5	0xbe46a974	-0.19400579
6	0x3e6563b3	0.22401313
7	0x3e191d49	0.14952578
8	0x3e4dcfdb	0.20098822
9	0xbaa64036	-0.0012683931
10	0xbd1e23a6	-0.038608216
11	0x3e2a2238	0.16614616
12	0x3bd59be4	0.0065188278
13	0xbe3fef77	-0.18743692
14	0xbdbf9553	-0.09354653
15	0xbc99236d	-0.01869365
16	0xbd0f53ec	-0.034992144
17	0xbdcce6a7	-0.10004931
18	0x3dfb48f0	0.12269771
19	0xbe197c10	-0.14988732
20	0xbe0b674b	-0.13613622
21	0x3e411f4f	0.188596
22	0x3d8bd4ad	0.06827674
23	0xbe4b1101	-0.19830705
24	0x3e47cf4b	0.1951267
25	0xbea1e18a	-0.31617385
26	0x3e11e28a	0.14246574
27	0x3d21ff5d	0.039550174
28	0x3dfcf24c	0.12350902
29	0x3df97144	0.12179807
30	0xbe584854	-0.21121341
31	0x3e16e116	0.14734301
32	0xbdbddd5a	-0.09270735
33	0xbe38c310	-0.1804316
34	0x3d2a8532	0.04163093
35	0xbbabed25	-0.0052467757
36	0xbd3aa321	-0.045565728
37	0xbe6bdff8	-0.23034656
38	0x3d34e73c	0.044165835
39	0xbeab620e	-0.33473247
40	0xbdc55c7d	-0.09636781
41	0x3dadc450	0.08484709
42	0x3ea1f9ec	0.31635988
43	0x3dd23e46	0.10265784
44	0xbd2772c6	-0.04088094
45	0xbdf3cade	-0.11903928
46	0xbdb8aade	-0.09016965
47	0x3ce45f7c	0.027877562
48	0xbe5598c3	-0.20859055
49	0xbe5d4e84	-0.21611983
50	0xbd1bc84d	-0.03803282
51	0xbebdcb9e	-0.3706941
52	0x3de697b2	0.11259402
53	0x3e4c5c34	0.19957048
54	0x3e338cba	0.17534152
55	0xbdfc39cb	-0.12315711
56	0x3e812e52	0.25230652
57	0x3e33b0af	0.17547868
58	0x3dade90e	0.08491717
59	0x3d0ab7af	0.03386658
60	0x3e230e66	0.15923461
61	0x3e2e4555	0.17018636
62	0xbca78e3d	-0.020453567
63	0xbd3fe308	-0.046847373
64	0x3e66f326	0.22553691
65	0xbdcd48ea	-0.10023673
66	0xbdfc3a3b	-0.12315794
67	0x3df6d153	0.12051644
68	0x3cb42043	0.02198804
69	0x3e096d74	0.1342066
70	0xbe34e6c9	-0.17666163
71	0xbcd079ee	-0.025448766
72	0xbe12d4a1	-0.14338924
73	0x3e5ce741	0.21572591
74	0xbd2dac70	-0.042400777
75	0x3d7c9729	0.061667595
76	0x3e87ca76	0.26521653
77	0xbd29b01d	-0.04142772
78	0x3e0f2211	0.13977839
79	0x3e29402f	0.1652839
80	0xbe8cf191	-0.2752805
81	0xbe079205	-0.13239296
82	0x3e259875	0.16171439
83	0xbde8aeba	-0.113614514
84	0xbe9f75f6	-0.31144685
85	0xbbcc0788	-0.0062264837
86	0xbd33ee32	-0.043928333
87	0xbe4d2486	-0.20033464
88	0x3d6fc3dc	0.058536395
89	0x3e3a2f94	0.18182212
90	0x3e9898f3	0.2980419
91	0x3db7e591	0.08979333
92	0xbe233f8c	-0.1594221
93	0x3dfe4650	0.12415755
94	0x3e116175	0.14197333
95	0x3da758d7	0.08171242
96	0x3c148f59	0.00906738
97	0x3d80440d	0.0626298
98	0xbd6dd548	-0.05806473
99	0xbe2da233	-0.16956405
100	0x3e876e07	0.26451132
101	0x3e106f6e	0.14105007
102	0x3e844845	0.25836387
103	0xbe25f907	-0.16208278
104	0xbda96716	-0.08271615
105	0xbdc33d53	-0.09533181
106	0x3c39d788	0.011342891
107	0x3dd46613	0.103710316
108	0xbdfdd085	-0.123932876
109	0x3e0e74c5	0.13911732
110	0xbd7f2133	-0.06228752
111	0x3e2dc9a8	0.16971457
112	0x3e05b505	0.13057335
113	0xbe1bbf52	-0.15209702
114	0xbdc9b789	-0.0984946
115	0xbcf825da	-0.030291487
116	0xbca02921	-0.019550862
117	0x3d68cb31	0.056834403
118	0xbcadfa44	-0.0212375
119	0xbcdadbc7	-0.026716126
120	0xbeb8a643	-0.36064348
121	0xbd1da65b	-0.038488727
122	0x3e96e201	0.29469302
123	0xbe8909f4	-0.26765406
124	0xbe14b4af	-0.1452205
125	0xbe56ed23	-0.20988898
126	0xbdc0d305	-0.09415249
127	0x3d66dae4	0.056361094
128	0xbd57d898	-0.052696794
129	0xbba27cd1	-0.004958727
130	0xbdc2d3e1	-0.09513069
131	0xbe491065	-0.1963516
132	0x3e677494	0.22603065
133	0x3e6a95f3	0.22908764
134	0x3e08c3a7	0.13355885
135	0x3d414c87	0.047192123
136	0x3d6b83d8	0.057498783
137	0xbe4aa61c	-0.19789928
138	0xbd12c3be	-0.035831206
139	0xbc75aaae	-0.0149943065
140	0xbda47fd9	-0.080321975
141	0x3cf924f3	0.030413127
142	0x3e2783d1	0.16358878
143	0x3e00f375	0.12592871
144	0x3e0348cc	0.12820739
145	0xbe0e3695	-0.13888009
146	0xbd1f1638	-0.03883955
147	0x3df38cfb	0.11892124
148	0xbe48ec07	-0.19621287
149	0xbdce0fc6	-0.10061602
150	0x3e23e745	0.16006191
151	0xbe62a29c	-0.22132343
152	0xbe05caff	-0.13065718
153	0xbe62b9e2	-0.22141221
154	0x3e1c0ed0	0.15240026
155	0x3c5a01e7	0.013306118
156	0xbe57386c	-0.21017617
157	0xbca2a5cf	-0.019854454
158	0xbcaa194f	-0.020764021
159	0x3b9b7ad4	0.004744867
160	0xbdffb541	-0.12485743
161	0xbe1deddb	-0.15422766
162	0x3df6f10c	0.12057695
163	0x3e1dac40	0.1539774
164	0x3df00611	0.11719907
165	0x3e4b465f	0.19851063
166	0x3cde3848	0.027126446
167	0x3dba24a9	0.090890236
168	0xbe889dff	-0.2668304
169	0xbe822507	-0.25418875
170	0xbbd08a1c	-0.00636412
171	0x3e0769ca	0.13223949
172	0xbe15fa91	-0.14646365
173	0x3dff5c5d	0.12468789
174	0x3c1d8bb0	0.009615824
175	0x3894262c	7.0643e-05
176	0x3d7fce45	0.062452573
177	0x3d34f200	0.0441761
178	0xbdefb5e7	-0.11704617
179	0xbdfbef49	-0.123014994
180	0x3db53dcb	0.08849677
181	0x3a1871e3	0.000581531
182	0xbe326c1a	-0.1742405
183	0xbdc2f5b4	-0.095195204
184	0x3e856733	0.26055297
185	0xbe9c80a5	-0.30566898
186	0x3c9727d7	0.018451614
187	0x3e4ed485	0.20198257
188	0x3e89fe73	0.26951942
189	0xbcf38941	-0.029728534
190	0xbda45906	-0.080247924
191	0xbdbc70de	-0.09201215
192	0xbd80a89d	-0.062821604
193	0xbdbed37c	-0.09317681
194	0x3e08e831	0.13369824
195	0xbe8d8c83	-0.27646264
196	0x3e0ae4ad	0.13563795
197	0x3c93f990	0.018063337
198	0xbe3382a5	-0.17530306
199	0xbd684baa	-0.056712784
200	0xbe018ee4	-0.12652165
201	0xbc0933ba	-0.008374149
202	0x3db70e06	0.08938222
203	0xbe10ed1a	-0.14152947
204	0xbdb5a38b	-0.08869084
205	0x3c623bab	0.013808171
206	0xbdaa611b	-0.08319303
207	0x3e31197b	0.17294876
208	0x3dd682e1	0.10474182
209	0x3e08c22d	0.13355322
210	0xbe64cd58	-0.22343957
211	0xbe5415fc	-0.20711511
212	0x3eb1f47f	0.34756848
213	0xbdfe2986	-0.12410264
214	0x3e456db8	0.19280136
215	0x3e2723d3	0.1632226
216	0xbe05e1a3	-0.13074355
217	0xbd459c79	-0.048244927
218	0xbe4a73de	-0.19770762
219	0xbd80a1e0	-0.06280875
220	0xbd91107e	-0.07083224
221	0xbbce682c	-0.0062990393
222	0x3e1c587c	0.15268129
223	0x3c6766b3	0.0141236065
224	0x3de81d24	0.11333683
225	0x3e11931e	0.14216277
226	0xbd78cb23	-0.0607406
227	0xbe76eadd	-0.2411303
228	0x3d8ae675	0.067822374
229	0xbd327feb	-0.043579023
230	0xbe4378c5	-0.19089039
231	0x3e575df9	0.21031941
232	0xbd194134	-0.0374157
233	0x3d233f9a	0.039855577
234	0x3d311353	0.04323132
235	0x3e6dd606	0.23226175
236	0xbc9bed92	-0.01903418
237	0x3da2d1e8	0.07950193
238	0xbdbd88fa	-0.09254642
239	0x3e44032d	0.19141836
240	0xbcd89ea5	-0.026442835
241	0xbdf10210	-0.117679715
242	0x3e385c02	0.18003848
243	0xbd0ce9e2	-0.034402736
244	0xbd4b8fe4	-0.04969777
245	0x3de4fcc4	0.11181024
246	0xbd9835f0	-0.07432163
247	0x3e4717bf	0.19442652
248	0xbe152eee	-0.14568684
249	0x3b0ca5cb	0.0021461125
250	0xbdabb212	-0.083835736
251	0xbe9b7ea5	-0.3037006
252	0xbe0b7fce	-0.13622972
253	0x3da885a0	0.08228612
254	0xbe3e227b	-0.18567841
255	0xbda6ab1f	-0.081381075

bneck.1.bn1.weight f4 [72]
0	0x3f3dd24a	0.74149
1	0x3ee0b264	0.438861
2	0x3f546d0a	0.8297888
3	0x3f3e14d8	0.74250555
4	0x3f25dd8e	0.6479119
5	0x3f2eab3d	0.6823004
6	0x3f1e508b	0.6184165
7	0x3f3f4ce3	0.74726695
8	0x3f0ca1f3	0.54934615
9	0x3f430695	0.7618192
10	0x3f376239	0.7163425
11	0x3f0c2823	0.54748744
12	0x3f3d9779	0.74059254
13	0x3f438862	0.7637998
14	0x3f4f1792	0.8089534
15	0x3f3f71de	0.7478312
16	0x3efbb9e3	0.49165258
17	0x3f359211	0.70926005
18	0x3f2de91c	0.6793382
19	0x3f3ca65b	0.7369134
20	0x3ee358ec	0.4440378
21	0x3f43b873	0.7645332
22	0x3f57d752	0.8431293
23	0x3f6a0ea9	0.9142862
24	0x3eb9ec16	0.36312932
25	0x3ed4c777	0.4155843
26	0x3f46ffb7	0.7773394
27	0x3f0ea622	0.5572225
28	0x3f488d0f	0.7834024
29	0x3f61fb8e	0.88274467
30	0x3f338f56	0.7014059
31	0x3f3a16b2	0.7269088
32	0x3f4c2dc3	0.79757327
33	0x3f1d23c5	0.61382705
34	0x3f1f7f1b	0.6230332
35	0x3f25953d	0.64680845
36	0x3f4d998a	0.80312407
37	0x3f2d47d5	0.6768773
38	0x3eccea76	0.4002263
39	0x3f3e44d5	0.7432378
40	0x3f4325da	0.7622963
41	0x3f415de0	0.75533867
42	0x3f2a418c	0.66506267
43	0x3f5c9944	0.86171365
44	0x3f2b8b1c	0.6700914
45	0x3f1fb86f	0.623908
46	0x3f28c759	0.6592918
47	0x3ece3c9f	0.40280625
48	0x3f3cf778	0.7381511
49	0x3f0f9a84	0.5609515
50	0x3f390b40	0.7228279
51	0x3f336816	0.700807
52	0x3f3c3e07	0.73532146
53	0x3f2d69b8	0.6773944
54	0x3ed25ba9	0.41085556
55	0x3f3e8266	0.7441772
56	0x3f189ebb	0.59617203
57	0x3f32b4ba	0.69807017
58	0x3f5968fa	0.84925807
59	0x3f3ff6a6	0.7498573
60	0x3f379b66	0.71721494
61	0x3f3107aa	0.6915232
62	0x3f50e767	0.8160309
63	0x3f26742d	0.6502102
64	0x3f44dd61	0.769003
65	0x3f1c6a29	0.6109949
66	0x3f24cc22	0.6437398
67	0x3f44971b	0.7679307
68	0x3f26c868	0.65149546
69	0x3f091847	0.5355267
70	0x3f10d322	0.56572163
71	0x3ee73b84	0.45162594

bneck.1.bn1.bias f4 [72]
0	0xbc143b76	-0.00904738
1	0x3ea7311d	0.32654658
2	0xbc4fc05b	-0.012680138
3	0xba9ab67e	-0.0011803654
4	0x3e0cf693	0.13765936
5	0x3e24feb6	0.1611279
6	0x3e09c8fd	0.13455577
7	0xbced696c	-0.028980933
8	0x3e9aef43	0.30260667
9	0x3e1d6017	0.15368687
10	0x3e056e24	0.13030297
11	0x3e4cd8e8	0.20004618
12	0x3cb0f187	0.021599544
13	0x3e0b0903	0.13577656
14	0x3d8e841c	0.069587916
15	0x3d3c2d6c	0.045941755
16	0x3e844696	0.25835103
17	0xbd4daa1a	-0.05021105
18	0x3e79397d	0.24338336
19	0x3e0ac4f3	0.13551693
20	0xbe8de9c4	-0.27717412
21	0x3e2acc80	0.16679573
22	0x3cc89457	0.024484796
23	0xbce16053	-0.027511751
24	0x3e86390d	0.262154
25	0x3e7c08c0	0.24612713
26	0x3dd46e24	0.1037257
27	0x3e16ea0c	0.1473772
28	0x3d03c599	0.032170866
29	0xbbfa8e4a	-0.0076463567
30	0x3cda7b99	0.026670264
31	0x3dfbda02	0.12297441
32	0x3ce7c087	0.028290046
33	0x3e3f1a63	0.1866241
34	0x3d81b47d	0.063332535
35	0xbcddd8e4	-0.02708096
36	0x3d6aea80	0.057352543
37	0xbc408123	-0.011749539
38	0x3ebe0fe1	0.3712149
39	0x3dfef00a	0.124481276
40	0xbe03b67b	-0.1286258
41	0x3d8e3acc	0.06944808
42	0x3e1218a3	0.1426721
43	0xbc699779	-0.014257305
44	0x3d93fcd3	0.07225957
45	0x3e7860af	0.24255632
46	0x3db2be7d	0.08727739
47	0x3e45a682	0.19301799
48	0xbd1cd7b5	-0.03829165
49	0xbdeccbea	-0.11562331
50	0xbdde6cf0	-0.10860622
51	0xbc8c2d34	-0.017111398
52	0xbca5c645	-0.020236144
53	0x3e509df3	0.20372753
54	0x3e11e126	0.14246044
55	0x3d810589	0.06299884
56	0x3e865577	0.2623708
57	0x3d7c560c	0.0616055
58	0x3d40bea2	0.0470568
59	0xbd10fe46	-0.035398744
60	0x3df7fc03	0.12108614
61	0x3a5e6bd5	0.0008484696
62	0x3cc1c325	0.023652622
63	0x3e675ede	0.22594783
64	0x3c7df5f2	0.015500532
65	0x3e36d34e	0.17854044
66	0x3d6f6a02	0.058450706
67	0xbda2fde6	-0.079585835
68	0xbdf91d4f	-0.12163793
69	0x3e827e9a	0.25487214
70	0x3e71736e	0.23579189
71	0x3e0efa39	0.1396264

bneck.1.bn1.running_mean f4 [72]
0	0x3ca99ad8	0.020703718
1	0xbc632985	-0.0138648795
2	0x3c90c5a5	0.01767237
3	0x3d75f605	0.060049076
4	0x3d57d469	0.052692804
5	0xbd02ef6a	-0.031966604
6	0x3d377c5f	0.044796344
7	0xbc096464	-0.008385751
8	0x3d1a4f54	0.03767331
9	0xbcb583e1	-0.022157611
10	0x3c2b6e67	0.010463334
11	0x3d50f3c2	0.051013716
12	0xbc3beae3	-0.011469576
13	0x3d804c3a	0.06264539
14	0x3cf5d8e6	0.030010652
15	0xbd9039b9	-0.0704226
16	0xbd0bbbca	-0.034114636
17	0x3c0fde62	0.008781048
18	0xbcd25912	-0.025677238
19	0xbc85b3ba	-0.016321052
20	0xbd33c2a7	-0.043886807
21	0xbc841aab	-0.016125998
22	0xbcd157ae	-0.025554504
23	0x3d57bb0f	0.052668627
24	0x3cd29ad2	0.02570859
25	0x3c896175	0.016770104
26	0x3c5108a0	0.012758404
27	0x3cd54f43	0.026038771
28	0x3d36762b	0.044546288
29	0x3bc6757a	0.0060564848
30	0x3d278d4d	0.04090624
31	0x3d53b65c	0.051687583
32	0x3d20c834	0.03925343
33	0x3d1c0757	0.038092937
34	0x3d127041	0.035751585
35	0xbc1e7da1	-0.009673507
36	0x3c1610e9	0.009159305
37	0xbcab08f8	-0.0208783
38	0x3cd9a862	0.026569549
39	0x3d076acd	0.033060838
40	0x3d697e50	0.057005227
41	0x3d79b015	0.06095894
42	0xbd1bfee0	-0.038084865
43	0x3bcb72ee	0.006208769
44	0x3d8493c1	0.06473494
45	0xbab0aca9	-0.0013479191
46	0xbcf90201	-0.030396463
47	0xbb6632e7	-0.0035125555
48	0x3ca6da8b	0.020367881
49	0xbd12178f	-0.035667
50	0xbc8a9cd2	-0.01692048
51	0xbd104dbd	-0.035230387
52	0x3d1a6aed	0.03769963
53	0x3d4dc6e8	0.05023852
54	0x3d8dcef6	0.0692424
55	0x3d41fe95	0.04736193
56	0x3ce49041	0.027900817
57	0xbc3218b7	-0.01087015
58	0x3d62292f	0.055215057
59	0xbc9ad11f	-0.018898545
60	0x3a795ef5	0.0009512746
61	0xbc908e5e	-0.017646011
62	0x39ee9880	0.0004550852
63	0xbd21cf57	-0.039504375
64	0xbc5bda69	-0.013418772
65	0x3c8305df	0.01599401
66	0xbc6493dc	-0.013951268
67	0x3bf8f4b1	0.007597529
68	0x3c13936d	0.009007317
69	0x3cf29194	0.029610433
70	0x3d06e19e	0.03293001
71	0xbb7ba0c8	-0.0038395394

bneck.1.bn1.running_var f4 [72]
0	0x3d648cd2	0.05579836
1	0x3dc46b35	0.095907606
2	0x3e041dcb	0.1290199
3	0x3db7c074	0.089722544
4	0x3d95c54a	0.073130205
5	0x3e110759	0.14162959
6	0x3dfbf8bf	0.12303304
7	0x3e36a140	0.1783495
8	0x3d9cbaa5	0.07652787
9	0x3e0bfdfc	0.13671106
10	0x3dca6dd1	0.09884227
11	0x3e3033b2	0.1720722
12	0x3d2915f0	0.041280687
13	0x3e0f3f8f	0.1398909
14	0x3de19911	0.11015523
15	0x3dae59a0	0.08513188
16	0x3d83b489	0.06430919
17	0x3df6859a	0.12037201
18	0x3db8dd4e	0.090265855
19	0x3dbd6fee	0.092498645
20	0x3cfcc5de	0.03085607
21	0x3e3724a3	0.1788507
22	0x3d307a27	0.043085244
23	0x3d52e255	0.05148538
24	0x3dd0fa13	0.10203948
25	0x3dcfe8a9	0.10151798
26	0x3d5439f5	0.051813085
27	0x3d8a9ae8	0.06767827
28	0x3e70fa06	0.23532876
29	0x3dbd9d56	0.09258525
30	0x3e2416b6	0.16024289
31	0x3d9ab975	0.07554904
32	0x3de57a2c	0.11204943
33	0x3e283ed4	0.16430217
34	0x3d05a9de	0.0326327
35	0x3d500996	0.05079039
36	0x3db0d5c1	0.0863452
37	0x3e01c7ec	0.1267392
38	0x3d93104a	0.07180841
39	0x3d483124	0.04887499
40	0x3d22c40f	0.039737757
41	0x3db75717	0.08952158
42	0x3d99075b	0.07472106
43	0x3e335f4b	0.1751682
44	0x3e168053	0.1469739
45	0x3dc726a3	0.09724166
46	0x3de91821	0.11381555
47	0x3dfe0198	0.12402648
48	0x3d21eab7	0.039530482
49	0x3d8bf266	0.06833343
50	0x3dea354a	0.11435945
51	0x3d34d96a	0.044152655
52	0x3e1aa52f	0.15102075
53	0x3d9b58d8	0.07585305
54	0x3da87d76	0.08227055
55	0x3e6a7e65	0.22899778
56	0x3d5a9269	0.053362284
57	0x3e028fff	0.12750243
58	0x3dfa51a7	0.12222605
59	0x3d875703	0.06608393
60	0x3e4eec35	0.20207293
61	0x3cf3ebad	0.029775465
62	0x3d38b889	0.04509786
63	0x3d8d8d82	0.06911756
64	0x3d6a00da	0.05712972
65	0x3da04e8a	0.0782748
66	0x3d96dc20	0.07366204
67	0x3d998699	0.074963756
68	0x3da32a24	0.07967022
69	0x3ddb2739	0.107008405
70	0x3da86c02	0.08223726
71	0x3e2ee894	0.17080909
