TX2/multicamerarl/torch_models/weights_90.pth (torch_old, 478682 bytes, 91 tensors)

conv1.weight f4 [16, 3, 3, 3]
0.0088958675 -0.09044481 0.22673468 0.12163157 -0.15798867 0.10594037 -0.022136822 -0.005778102
-0.1630836 -0.07420873 0.13117424 -0.01100839 -0.03649372 -0.11933441 -0.13936487 -0.18940517
-0.18003501 -0.027203841 0.09065486 -0.08458228 0.16304785 -0.19624415 -0.16446109 0.13323107
-0.1819155 0.1229866 -0.017517816 0.10723443 -0.072792165 0.13310243 0.08463175 0.09379695
0.06492616 -0.21536723 -0.17683528 -0.09200732 0.034805898 0.21053962 -0.012746078 -0.003436205
-0.047901507 -0.18565251 0.10134655 -0.17105097 -0.11295972 -0.05644307 -0.099477164 0.09958631
0.047502913 -0.029703334 0.08390891 -0.11960985 -0.11136148 0.10874427 0.009046524 -0.24368955
-0.0576734 -0.07411141 -0.13017951 0.09313957 -0.07594931 0.015528599 0.20809852 -0.014904832
-0.19068003 -0.05015345 -0.03641117 0.05892677 0.05508636 -0.05476683 -0.020064121 0.015417061
0.055240408 -0.09095728 -0.09732931 0.05283398 -0.0437646 0.00058872526 -0.036745172 0.18796222
0.03240521 0.025458703 -0.094786845 0.11979514 -0.0357369 -0.17082036 -0.18338318 0.09868179
0.13171817 0.12759115 0.16346206 0.14059103 0.14630178 -0.09414936 -0.109028995 0.07249306
-0.06213837 -0.15720674 0.06383819 0.046209447 0.020426426 -0.15833525 0.06096486 -0.07425516
0.026738364 -0.17238794 0.12436211 -0.00044304645 0.13427651 -0.09191963 -0.008300918 0.077356346
0.1219552 -0.062149677 -0.010608264 0.00033532947 -0.013035278 0.0900224 -0.06880922 -0.07327271
0.03947133 0.17084499 0.0058330954 -0.087703645 -0.19762851 -0.037064943 0.236212 0.07944646
0.13400681 -0.10659635 -0.10278131 -0.17416124 -0.07080167 -0.16734321 -0.26168147 -0.14439657
-0.04939111 0.010205579 0.09662909 -0.14395826 0.09081117 0.08065327 -0.15178767 0.097264186
-0.15860717 -0.19177069 0.1399642 0.029988978 0.16643152 0.07455731 -0.10581634 -0.09818449
0.043427024 0.10868021 -0.14144555 -0.098369636 0.010757761 0.039941035 0.028219102 -0.06860327
0.12430537 0.07972737 0.09048509 0.16609317 0.033202607 0.10376433 -0.0041980585 0.23659657
-0.033260476 -0.06513327 -0.11687402 0.055525627 0.092724375 -0.23160891 0.09776951 -0.07435675
0.069486074 -0.010527145 -0.020567657 0.056609575 -0.041774552 0.08947442 0.08620816 -0.2940849
-0.024740092 0.0916673 -0.0016336477 -0.11017024 -0.23534183 -0.10960323 -0.19035548 -0.18386608
0.12484057 -0.2141777 0.05883471 -0.10452014 -0.1386037 -0.032049198 0.032665644 0.18068218
0.21618223 0.0433667 0.14343534 -0.14811014 0.14426598 -0.07736286 0.123926625 -0.12691078
-0.107903175 0.08520821 0.07644012 0.14566745 -0.0021297908 -0.12169657 0.016901173 0.04631199
0.14341865 0.11564095 -0.17342737 -0.078153476 -0.15494204 -0.008430769 0.0054878523 0.15598208
-0.109680496 -0.0036447928 -0.011248065 -0.15838715 -0.07376616 -0.04729629 0.11025449 -0.05951508
0.045957204 0.1285239 0.19982582 0.069826975 -0.14039186 -0.13131332 0.123971306 -0.14905752
0.042533025 0.19994502 -0.13296998 0.16727234 0.078846335 0.09894277 -0.12107977 0.02207475
0.1387624 -0.048329882 0.10620279 0.27143732 0.061904058 -0.34527698 0.08357143 -0.0933647
00000000: f9bf 113c 213b b9bd 232d 683e f919 f93d
00000010: c8c7 21be 44f7 d83d 4858 b5bc 3c56 bdbb
00000020: 63ff 26be bffa 97bd 8a52 063e 895c 34bc
00000030: 707a 15bd 9965 f4bd aab5 0ebe 6ef3 41be
00000040: 195b 38be 97da debc 41a9 b93d 7939 adbd
00000050: 04f6 263e 3af4 48be 7d68 28be ba6d 083e
00000060: 0f48 3abe 66e0 fb3d 8681 8fbc ba9d db3d
00000070: 0f14 95bd 014c 083e 6953 ad3d 9e18 c03d
00000080: 02f8 843d 3a89 5cbe 4f14 35be 556e bcbd
00000090: a190 0e3d b397 573e edd4 50bc f431 61bb
000000a0: 5f34 44bd b11b 3ebe c88e cf3d fc27 2fbe
000000b0: 6d57 e7bd d930 67bd afba cbbd e8f3 cb3d
000000c0: 6a92 423d 6854 f3bc 6fd8 ab3d 02f6 f4bd
000000d0: 7d11 e4bd 51b5 de3d df37 143c c189 79be
000000e0: f13a 6cbd b9c7 97bd c74d 05be f5bf be3d
000000f0: 508b 9bbd aa6b 7e3c c717 553e 6533 74bc
00000100: a041 43be b46d 4dbd e123 15bd 325d 713d
00000110: 3ca2 613d 2f53 60bd 835d a4bc d797 7c3c
00000120: c443 623d cf47 babd 9754 c7bd 7268 583d
00000130: 8242 33bd af54 1a3a 1b82 16bd 2b79 403e
00000140: 53bb 043d c58e d03c 9b1f c2bd 2857 f53d
00000150: db60 12bd 88eb 2ebe cdc8 3bbe ae19 ca3d
00000160: 21e1 063e 41a7 023e 9962 273e 18f7 0f3e
00000170: 22d0 153e 61d1 c0bd 984a dfbd 3e77 943d
00000180: ce84 7ebd cefa 20be 99bd 823d 1e46 3d3d
00000190: 5255 a73c a322 22be 4ab6 793d 1713 98bd
000001a0: 6a0a db3c 7786 30be 90b1 fe3d b048 e8b9
000001b0: c87f 093e 5c40 bcbd 9300 08bc 016d 9e3d
000001c0: a6c3 f93d a990 7ebd 49ce 2dbc 29cf af39
000001d0: eb91 55bc aa5d b83d d9eb 8cbd 0110 96bd
000001e0: b0ac 213d fdf1 2e3e 8d23 bf3b f89d b3bd
000001f0: 215f 4abe 69d1 17bd 8fe1 713e d3b4 a23d
00000200: 1539 093e 304f dabd 027f d2bd 5357 32be
00000210: 7700 91bd 055c 2bbe 1dfb 85be b2dc 13be
00000220: 554e 4abd 4d35 273c 79e5 c53d cb69 13be
00000230: 35fb b93d 8b2d a53d 3a6e 1bbe 7232 c73d
00000240: eb69 22be 895f 44be c652 0f3e 72ab f53c
00000250: 066d 2a3e 81b1 983d 3db6 d8bd f314 c9bd
00000260: 89e0 313d bb93 de3d 1ad7 10be 0576 c9bd
00000270: 5241 303c 3699 233d bf2b e73c df7f 8cbd
00000280: d093 fe3d 1a48 a33d 3f50 b93d 5414 2a3e
00000290: 75ff 073d 6582 d43d de8f 89bb 5f46 723e
000002a0: 233c 08bd 9864 85bd a55b efbd d76e 633d
000002b0: 47e6 bd3d e32a 6dbe 613b c83d 5a48 98bd
000002c0: b74e 8e3d 0c7a 2cbc 817d a8bc 71df 673d
000002d0: cb1b 2bbd 5d3e b73d e78d b03d 4c92 96be
000002e0: bcab cabc 11bc bb3d 1f20 d6ba efa0 e1bd
000002f0: 73fd 70be a977 e0bd 8cec 42be 6447 3cbe
00000300: 6aac ff3d 6651 5bbe aafc 703d a80e d6bd
00000310: 21ee 0dbe 0546 03bd 69cc 053d c004 393e
00000320: e05e 5d3e 48a1 313d b7e0 123e 2faa 17be
00000330: 76ba 133e 6b70 9ebd 3ecd fd3d e6f4 01be
00000340: 57fc dcbd a481 ae3d a38c 9c3d d929 153e
00000350: f693 0bbb 0d3c f9bd 5474 8a3c a4b1 3d3d
00000360: 57dc 123e 2ad5 ec3d f296 31be ee0e a0bd
00000370: 20a9 1ebe 3521 0abc 71d3 b33b c4b9 1f3e
00000380: 2ba0 e0bd 7add 6ebb ce49 38bc 3e30 22be
00000390: b612 97bd c1b9 41bd 1bcd e13d 16c6 73bd
000003a0: 9f3d 3c3d c59b 033e 249f 4c3e 7201 8f3d
000003b0: e2c2 0fbe 0077 06be abe4 fd3d 89a2 18be
000003c0: 1c37 2e3d 63be 4c3e 4829 08be 7149 2b3e
000003d0: 307a a13d 82a2 ca3d acf8 f7bd 1bd6 b43c
000003e0: bb17 0e3e 8ef5 45bd d980 d93d d5f9 8a3e
000003f0: 1c8f 7d3d 25c8 b0be 7f27 ab3d fe35 bfbd

bn1.weight f4 [16]
0.9989666 1.0639269 0.9803301 0.94964194 0.99931765 1.0227242 1.0380851 1.2232835
1.0419528 0.968296 0.99873877 0.9903878 0.99299616 1.0082127 0.9582815 1.0968052
00000000: 46bc 7f3f c22e 883f eaf6 7a3f bc1b 733f
00000010: 48d3 7f3f a0e8 823f f9df 843f 8e94 9c3f
00000020: b65e 853f 3fe2 773f 58ad 7f3f 0e8a 7d3f
00000030: ff34 7e3f 1d0d 813f f051 753f 1d64 8c3f

bn1.bias f4 [16]
0.00045580495 0.034614805 0.009225693 0.050140016 -0.021816948 -0.034871116 0.017380374 0.048448194
-0.033626635 0.0041950447 -0.016984226 0.042518668 -0.039396502 0.00045119805 -0.05146028 0.12916562
00000000: 1bf9 ee39 41c8 0d3d 5c27 173c 9e5f 4d3d
00000010: 75b9 b2bc 04d5 0ebd 4961 8e3c 9d71 463d
00000020: 15bc 09bd 9676 893b 8122 8bbc 0e28 2e3d
00000030: 3a5e 21bd c78e ec39 04c8 52bd fe43 043e

bn1.running_mean f4 [16]
-0.3486805 -0.15636334 -0.20376895 0.025484357 -0.2049281 -0.050843474 -0.0065865098 -0.0364717
-0.042189747 0.14660972 0.1193556 -0.13072012 0.24256161 0.06420665 -0.14851479 -0.0013537139
00000000: 4086 b2be b61d 20be cfa8 50be 92c4 d03c
00000010: acd8 51be 3f41 50bd a6d3 d7bb 5963 15bd
00000020: 28cf 2cbd dc20 163e b570 f43d 7fdb 05be
00000030: 1262 783e c77e 833d 4314 18be 1a6f b1ba

bn1.running_var f4 [16]
0.061670296 0.014913993 0.025519786 0.0019569807 0.024148086 0.0038281633 0.00356372 0.0031551379
0.0025344023 0.015186837 0.008013846 0.013298992 0.031238189 0.0060141836 0.016163597 0.004105968
00000000: fe99 7c3d d259 743c df0e d13c b040 003b
00000010: 35d2 c53c ece1 7a3b 4d8d 693b 6ec6 4e3b
00000020: 3718 263b 36d2 783c 824c 033c 04e4 593c
00000030: 3be7 ff3c a112 c53b 8569 843c 5b8b 863b

bneck.0.se.se.1.weight f4 [4, 16, 1, 1]
0.11251806 -0.11975098 0.04792681 -0.06004755 -0.16980827 -0.11856854 0.22032978 -0.039108884
0.1290533 -0.071365274 0.25255588 -0.17239538 -0.08647053 -0.10151192 0.24381617 0.17569543
0.062461153 0.020210959 0.44603992 0.19272012 -0.107398175 -0.011728094 0.0019171538 -0.10839424
0.034328174 0.038438316 -0.039002266 0.24859843 0.008944719 0.16158292 -0.076520585 -0.09488925
-0.12940542 -0.015402423 -0.03773367 -0.0524994 0.062827654 0.33071592 0.13438615 -0.21078242
-0.11149022 0.02815786 0.1615955 0.01509414 0.24528791 0.06469507 -0.05356154 -0.051882554
-0.094737954 -0.05171872 0.09871074 -0.1781398 0.06280652 0.17983827 -0.06347593 0.07864836
-0.22171928 0.1521746 -0.07135262 0.14955227 0.028394978 0.031864684 -0.17928371 0.12785971
00000000: de6f e63d 0040 f5bd e74e 443d 6bf4 75bd
00000010: 38e2 2dbe 10d4 f2bd 219e 613e a330 20bd
00000020: 8c26 043e f527 92bd 014f 813e 6a88 30be
00000030: 7617 b1bd 7be5 cfbd f2aa 793e 81e9 333e
00000040: 44d7 7f3d 7491 a53c 585f e43e 6c58 453e
00000050: 93f3 dbbd 3127 40bc 0249 fb3a cdfd ddbd
00000060: b39b 0c3d 7f71 1d3d d7c0 1fbd 9690 7e3e
00000070: df8c 123c fe75 253e d3b6 9cbd 4c55 c2bd
00000080: db82 04be 725a 7cbc 9f8e 1abd 9c09 57bd
00000090: c9ab 803d 9953 a93e 869c 093e 59d7 57be
000000a0: fc54 e4bd 50ab e63c 4a79 253e 694d 773c
000000b0: c12c 7b3e d97e 843d 5863 5bbd cd82 54bd
000000c0: f905 c2bd 02d7 53bd db28 ca3d 486a 36be
000000d0: b4a0 803d 8627 383e abff 81bd 6412 a13d
000000e0: 610a 63be a9d3 1b3e 5321 92bd 3b24 193e
000000f0: 969c e83c 8b84 023d 2696 37be a8ed 023e

bneck.0.se.se.2.weight f4 [4]
0.92153364 1.1753973 0.9726297 0.8147571
00000000: a1e9 6b3f 6b73 963f 43fe 783f ec93 503f

bneck.0.se.se.2.bias f4 [4]
0.29583064 0.17742164 0.11487792 -0.19533412
00000000: 1d77 973e 05ae 353e 1d45 eb3d ab05 48be

bneck.0.se.se.2.running_mean f4 [4]
-0.074913226 -0.10312015 0.109605074 0.07396846
00000000: 1b6c 99bd a830 d3bd a078 e03d c77c 973d

bneck.0.se.se.2.running_var f4 [4]
0.015876805 0.023711585 0.016209265 0.032863416
00000000: 1310 823c cc3e c23c 4bc9 843c ca9b 063d

bneck.0.se.se.4.weight f4 [16, 4, 1, 1]
0.19778435 0.3793973 0.21420187 0.15435475 -0.22382842 -0.4140463 -0.05705775 0.38783255
-0.03887303 0.4779574 0.31065443 -0.07556344 0.35021037 -0.10655895 -0.37076595 -0.15631834
0.47196585 0.1328436 0.06654373 0.07652493 0.60403734 0.48776856 -0.19579706 -0.012126933
-0.24107714 0.26597983 0.50684834 0.22473492 0.45988044 0.32322788 -0.16790557 -0.15191719
0.55664617 0.28117865 -0.11585256 0.033390988 0.10170395 0.2963292 0.34759006 -0.3292756
-0.21329467 0.10707274 -0.3971739 -0.15705226 0.01599662 0.32344925 0.40965402 0.23123978
0.27216136 0.51775604 0.45010176 0.20037782 0.21049316 0.34999225 -0.1278858 -0.17575584
0.44246855 0.26611465 0.15985209 -0.3747611 -0.0115547115 -0.034476664 0.24268036 0.27901042
00000000: fb87 4a3e 5d40 c23e bc57 5b3e 2c0f 1e3e
00000010: 4733 65be e0fd d3be 63b5 69bd fd91 c63e
00000020: 5439 1fbd d5b6 f43e 190e 9f3e 01c1 9abd
00000030: c64e b33e 943b dabd 09d5 bdbe ea11 20be
00000040: 82a5 f13e 2708 083e 1448 883d 1ab9 9c3d
00000050: 31a2 1a3f cdbc f93e 067f 48be 0bb0 46bc
00000060: eddc 76be 822e 883e d0c0 013f e920 663e
00000070: 7375 eb3e 207e a53e 70ef 2bbe 2e90 1bbe
00000080: 5d80 0e3f a6f6 8f3e 1b44 edbd fdc4 083d
00000090: 294a d03d 76b8 973e 53f7 b13e d096 a8be
000000a0: eb69 5abe f448 db3d 615a cbbe 4fd2 20be
000000b0: 580b 833c 249b a53e 2cbe d13e 1fca 6c3e
000000c0: bc58 8b3e a98b 043f bd73 e63e d82f 4d3e
000000d0: 858b 573e 2f32 b33e 7ff4 02be 57f9 33be
000000e0: 3d8b e23e 2e40 883e 44b0 233e b0e0 bfbe
000000f0: f94f 3dbc 6737 0dbd 3381 783e 74da 8e3e

bneck.0.se.se.5.weight f4 [16]
1.07278 0.82798505 1.2433554 0.7997743 1.242416 0.97765934 0.8422271 0.8972121
0.88753164 0.92164177 0.75921744 0.83723974 1.088367 1.0164714 0.9448106 0.7005006
00000000: db50 893f d4f6 533f 4526 9f3f 02be 4c3f
00000010: 7d07 9f3f e247 7a3f 329c 573f b1af 653f
00000020: 4635 633f b7f0 6b3f 135c 423f 5855 563f
00000030: 9c4f 8b3f bc1b 823f 1cdf 713f 0254 333f

bneck.0.se.se.5.bias f4 [16]
-0.096275866 0.0069355466 -0.100841664 0.101726234 -0.09534431 0.027845006 0.10028086 0.04566547
0.14080815 0.15446456 0.09244454 0.017395249 0.02953559 -0.06241073 -0.091242075 0.048021916
00000000: 482c c5bd 9543 e33b 1386 cebd d855 d03d
00000010: e143 c3bd 361b e43c 0d60 cd3d b70b 3b3d
00000020: 0330 103e f52b 1e3e 9053 bd3d 7b80 8e3c
00000030: 9ff4 f13c 65a2 7fbd 20dd babd a1b2 443d

bneck.0.se.se.5.running_mean f4 [16]
0.45206684 -0.28096524 0.35999295 -0.06456791 0.3827131 0.519011 0.29003885 0.32235608
0.42264917 0.28654295 -0.26989853 0.4244 0.6838471 0.21022223 0.36588374 0.14920498
00000000: 4e75 e73e adda 8fbe ff50 b83e 2e3c 84bd
00000010: f9f2 c33e e8dd 043f f97f 943e db0b a53e
00000020: 7965 d83e c2b5 923e 2430 8abe f54a d93e
00000030: 9b10 2f3f 7f44 573e 1d55 bb3e 31c9 183e

bneck.0.se.se.5.running_var f4 [16]
0.15456371 0.28503072 0.16834813 0.07853395 0.12611319 0.54365194 0.09651643 0.30577067
0.2832928 0.154522 0.061413642 0.10309514 0.3144892 0.19659936 0.28234103 0.0384328
00000000: f345 1e3e 8cef 913e 7463 2c3e 68d6 a03d
00000010: d123 013e c62c 0b3f 68aa c53d f98d 9c3e
00000020: c10b 913e 043b 1e3e df8c 7b3d 8b23 d33d
00000030: ba04 a13e 5851 493e 018f 903e b66b 1d3d

bneck.0.conv1.weight f4 [16, 16, 1, 1]
-0.095708475 -0.15446147 0.21186286 -0.0727999 -0.05143833 -0.10582542 -0.07293916 -0.010014494
-0.041849297 0.0078049777 -0.00045405765 0.011542595 0.13280006 -0.09271119 -0.021942321 -0.26257855
-0.22683902 -0.09273548 0.085878104 0.15940282 0.02373323 0.096514545 -0.050118398 0.32512817
0.08376873 -0.18895406 -0.018672599 0.12304237 0.067151725 -0.2616278 -0.2070891 0.09332734
0.14352924 -0.21434069 0.1489788 0.09954834 -0.15836287 0.19392303 -0.021050788 -0.0293926
-0.0739354 -0.04270531 0.20777117 0.20839977 -0.15577172 0.12996455 0.12331921 0.042668223
0.16587983 -0.2104125 -0.10376132 0.21398078 0.20346467 -0.17400543 0.021080494 -0.073859155
0.33709678 0.06718717 -0.05777867 0.03848274 -0.0034335651 0.050027054 -0.10703869 0.039479867
-0.047023837 -0.07974122 -0.21542135 -0.06474669 -0.18183447 -0.075191304 -0.09108345 0.04737276
0.16180152 -0.14051147 0.22131222 -0.14877962 0.098855525 -0.19776568 -0.14485548 0.0015188406
-0.0358699 -0.17273961 -0.11457765 0.03598085 0.06504055 -0.12403395 0.2885787 0.022080043
-0.258894 0.22597441 -0.25661033 0.10871873 0.19354853 -0.08973047 0.091671795 -0.00013137585
0.010955008 -0.06791791 -0.031013608 0.012613196 -0.14298978 -0.29084304 0.0009557436 0.10943598
-0.21652143 0.08076074 -0.12166876 0.11684413 -0.036602184 -0.02146427 -0.040158227 -0.0289529
-0.17015092 0.14733528 0.16688214 0.07328517 -0.10313224 -0.11342731 0.13566153 0.28809676
-0.1679284 -0.07840737 -0.20165436 -0.05995862 -0.056683585 0.08324393 0.21744166 0.23336911
0.0013326342 0.3007463 0.032776102 0.03268593 -0.017400974 -0.025905048 -0.2995662 -0.0045322697
0.042113665 -0.17514732 0.07065034 0.04537071 -0.17348164 -0.020195117 0.05745596 0.124250405
-0.018761666 -0.27351403 0.08513449 -0.035528205 0.150865 -0.06890847 0.086082146 -0.009898718
-0.035706792 0.18968223 0.22559601 -0.12820716 0.2566439 0.17090446 0.018228834 0.045487937
0.12010512 0.17328297 -0.022510054 -0.24759814 -0.1999507 -0.00064169726 -0.091524504 0.16382465
0.15291378 0.22804058 0.26381543 -0.003127119 0.20836608 -0.16310437 0.07217292 -0.09470077
0.05640659 -0.014825585 0.12689757 -0.11261152 -0.3383184 0.009008211 -0.20078757 -0.11965024
0.2624748 0.07965273 -0.06468772 0.21161658 0.0049738307 0.10567098 -0.06782642 0.17978117
0.24626365 0.18828216 -0.2375528 -0.07202057 0.16221587 -0.106262006 0.084620595 -0.019529512
0.023461277 -0.052401327 -0.055081874 -0.17922662 0.02087717 0.1583496 -0.08123584 -0.15703751
-0.13404739 -0.21561871 0.112146236 -0.060046278 0.13726866 -0.05424864 0.057961952 -0.05560011
-0.01208428 -0.17941704 -0.055908624 -0.007722546 0.04288428 0.2045734 0.036800623 -0.1264478
0.3473396 0.31120548 0.10264384 0.021961635 0.12133126 0.050640974 -0.17220858 -0.17683087
0.102449246 -0.04763732 0.077641904 0.0898351 0.040770493 0.036704164 -0.17678188 0.12971714
0.20010933 0.23855443 0.014762428 -0.17999606 -0.15651242 8.669878e-05 0.14318465 -0.011410846
-0.114086024 -0.026654994 0.0486335 -0.08293441 0.16297886 -0.22343123 -0.17149697 -0.28392276
00000000: ce02 c4bd 262b 1ebe 94f2 583e 1d18 95bd
00000010: 00b1 52bd ffba d8bd 2061 95bd d513 24bc
00000020: 2b6a 2bbd e6c0 ff3b 960e eeb9 271d 3d3c
00000030: bdfc 073e 5ddf bdbd 62c0 b3bc b270 86be
00000040: 7d48 68be 19ec bdbd dce0 af3d 7e3a 233e
00000050: 316c c23c 6ba9 c53d f348 4dbd 3377 a63e
00000060: f18e ab3d 2c7d 41be 47f7 98bc a3fd fb3d
00000070: d886 893d 14f4 85be 2a0f 54be 6822 bf3d
00000080: 54f9 123e 207c 5bbe e68d 183e 00e0 cb3d
00000090: e029 22be c293 463e b472 acbc c0c8 f0bc
000000a0: 716b 97bd c3eb 2ebd f7c1 543e c066 553e
000000b0: 9f82 1fbe 6d15 053e c88e fc3d e0c4 2e3d
000000c0: 67dc 293e 6076 57be d180 d4bd c71d 5b3e
000000d0: 0b59 503e 7b2e 32be 00b1 ac3c 7843 97bd
000000e0: f397 ac3e 6d99 893d 54a9 6cbd 14a0 1d3d
000000f0: aa05 61bb 2be9 4c3d 1a37 dbbd a4b5 213d
00000100: 119c 40bd 5d4f a3bd 6a97 5cbe ea99 84bd
00000110: d132 3abe e6fd 99bd f689 babd f009 423d
00000120: 4caf 253e 3de2 0fbe ac9f 623e af59 18be
00000130: c474 ca3d 1683 4abe ff54 14be d513 c73a
00000140: 51ec 12bd a7e2 30be b0a7 eabd a860 133d
00000150: fb33 853d 8305 febd 96c0 933e 35e1 b43c
00000160: c18d 84be d665 673e 6e62 83be eda7 de3d
00000170: 9631 463e 9cc4 b7bd 6cbe bb3d f0c1 09b9
00000180: a27c 333c 8c18 8bbd 4010 febc 94a7 4e3c
00000190: ea6b 12be 61e9 94be de8a 7a3a f91f e03d
000001a0: cbb7 5dbe e365 a53d 792d f9bd fa4b ef3d
000001b0: 2cec 15bd d6d5 afbc f47c 24bd a22e edbc
000001c0: 0b3c 2ebe 0fdf 163e 27e3 2a3e 8916 963d
000001d0: ff36 d3bd 944c e8bd dbea 0a3e 6b81 933e
000001e0: 6cf5 2bbe 0b94 a0bd 7b7e 4ebe 2c97 75bd
000001f0: 0c2d 68bd cb7b aa3d 07a9 5e3e 50f8 6e3e
00000200: c9ab ae3a 6bfb 993e 3c40 063d afe1 053d
00000210: 7d8c 8ebc d336 d4bc be60 99be 6f83 94bb
00000220: 617f 2c3d d259 33be 20b1 903d a3d6 393d
00000230: 2ca5 31be 3b70 a5bc f156 6b3d ff76 fe3d
00000240: 11b2 99bc 080a 8cbe fe5a ae3d 0686 11bd
00000250: 5b7c 1a3e e21f 8dbd d64b b03d 3c2e 22bc
00000260: 4941 12bd 0f3c 423e a402 673e bd48 03be
00000270: d466 833e 9401 2f3e a354 953c 8f51 3a3d
00000280: acf9 f53d 1771 313e 0167 b8bc 5e8a 7dbe
00000290: e0bf 4cbe 9337 28ba 3371 bbbd a6c1 273e
000002a0: 6e95 1c3e 7883 693e d112 873e 5af0 4cbb
000002b0: eb5d 553e d504 27be 65cf 933d 7af2 c1bd
000002c0: 990a 673d 03e7 72bc 70f1 013e dea0 e6bd
000002d0: 1238 adbe 2d97 133c 429b 4dbe 2f0b f5bd
000002e0: 1963 863e f820 a33d ff7a 84bd 04b2 583e
000002f0: 84fb a23b 076a d83d 94e8 8abd 8e18 383e
00000300: 8a2c 7c3e 0acd 403e 0b41 73be 857f 93bd
00000310: eb1b 263e e59f d9bd 904d ad3d 5bfc 9fbc
00000320: dd31 c03c c6a2 56bd 889d 61bd 2f87 37be
00000330: 9906 ab3c 6626 223e fa5e a6bd 71ce 20be
00000340: b843 09be 27cb 5cbe edac e53d 16f3 75bd
00000350: 2890 0c3e d233 5ebd 8369 6d3d f1bc 63bd
00000360: 25fd 45bc 1ab9 37be 7100 65bd 690d fdbb
00000370: 6da7 2f3d b07b 513e 40bc 163d 887b 01be
00000380: 7fd6 b13e 5356 9f3e ef36 d23d e3e8 b33c
00000390: 867c f83d e96c 4f3d 7257 30be 2713 35be
000003a0: e9d0 d13d 5a1f 43bd b802 9f3d 77fb b73d
000003b0: f6fe 263d 1b57 163d 4f06 35be 92d4 043e
000003c0: 76e9 4c3e 9d47 743e 1cde 713c e350 38be
000003d0: cb44 20be 0ed2 b538 ff9e 123e 8ff4 3abc
000003e0: efa5 e9bd 935b dabc ec33 473d 84d9 a9bd
000003f0: eee3 263e 28cb 64be e79c 2fbe 535e 91be

bneck.0.bn1.weight f4 [16]
0.69249773 0.6492249 0.9109664 0.83919907 0.4927029 0.5145071 0.59750897 0.92717177
0.88589597 0.4075873 0.85468173 0.9596756 0.87052083 0.5226305 0.8734625 0.93464035
00000000: 8847 313f 9a33 263f 1835 693f c0d5 563f
00000010: 8e43 fc3e bdb6 033f 59f6 183f 215b 6d3f
00000020: 14ca 623f 48af d03e 6ccc 5a3f 4dad 753f
00000030: 74da 5e3f 1dcb 053f 3d9b 5f3f 9744 6f3f

bneck.0.bn1.bias f4 [16]
0.23991571 0.23652844 -0.07579793 0.038880866 0.25550592 0.15737383 0.15326105 -0.0024319782
0.028975442 0.34580824 0.01615323 0.012740324 -0.094183065 0.3271735 0.02970136 -0.050718796
00000000: 77ac 753e 8334 723e f23b 9bbd 8b41 1f3d
00000010: acd1 823e 9b26 213e 77f0 1c3e d361 1fbb
00000020: e85d ed3c c70d b13e c753 843c cbbc 503c
00000030: 0de3 c0bd 4983 a73e 4450 f33c 83be 4fbd

bneck.0.bn1.running_mean f4 [16]
-0.118126 0.03753733 0.08796425 0.05106016 -0.13333315 -0.0067327716 -0.08679857 0.10719431
0.020946328 0.086375505 0.103037536 0.024307262 -0.015785392 -0.07215114 0.14834759 -0.07001917
00000000: 0bec f1bd bec0 193d 9a26 b43d 7524 513d
00000010: 7c88 08be 959e dcbb 73c3 b1bd b188 db3d
00000020: a297 ab3c a4e5 b03d 5805 d33d 0620 c73c
00000030: 5e50 81bc fac3 93bd 6ee8 173e 3666 8fbd

bneck.0.bn1.running_var f4 [16]
0.07906532 0.12714554 0.10557714 0.08455001 0.14729571 0.10203031 0.053131793 0.16655831
0.15926255 0.2930582 0.055215638 0.15633702 0.10576296 0.025081972 0.123702005 0.206829
00000000: 00ed a13d 7132 023e d438 d83d 8e28 ad3d
00000010: b0d4 163e 44f5 d03d b9a0 593d 438e 2a3e
00000020: b915 233e b90b 963e cb29 623d d016 203e
00000030: 409a d83d b578 cd3c 7a57 fd3d fbca 533e

bneck.0.conv2.weight f4 [16, 1, 3, 3]
-0.10888133 -0.26113144 -0.44816375 -0.07419538 -0.062011365 0.05461355 0.062490158 0.3042789
-0.11781397 -0.051428456 -0.2590334 0.020500356 -0.41775596 -0.444455 0.07003062 0.10042292
-0.12551118 0.09161177 0.09731994 -0.09102564 -0.061235752 -0.3967521 -0.60593104 -0.17744415
-0.28740937 -0.5867317 -0.30828014 0.0036162632 -0.23989742 -0.15906116 -0.36941567 -0.282416
-0.18068168 -0.1423721 -0.01853957 0.020453503 0.4082695 0.29231733 0.20560695 0.060527667
-0.18219319 0.28300154 0.17468081 0.2313607 -0.053144503 0.15554889 -0.033270806 0.06291377
-0.049279366 0.22087817 0.037531793 -0.1444729 -0.37902868 0.062354214 0.15675646 0.19236569
0.004363927 0.053811394 0.2651954 0.33946398 -0.14166754 0.027415335 0.2884573 0.16838731
0.09221105 0.009736483 0.19520555 0.23617592 0.17837922 0.14008181 0.17746171 -0.088295534
0.060757905 -0.31079403 -0.36548156 0.14500065 0.20789365 -0.24770202 0.32428053 -0.041538768
0.21436135 0.2522578 0.25415277 -0.26420125 0.24988914 0.101975776 0.060011495 -0.31358835
-0.020890998 -0.29847854 0.12566245 0.2522582 0.16531283 0.35887975 0.24562973 0.112099424
0.19565396 -0.23081984 0.04036832 -0.15609227 -0.4627276 -0.14317 -0.25601727 -0.42997158
-0.068503 -0.06495548 -0.117741585 0.049916968 0.11703288 -0.015951892 0.14448391 0.15221669
0.39257592 0.082099184 0.32519957 0.55248326 -0.04639838 0.24799402 -0.08628993 -0.19192821
0.13038677 -0.0815112 -0.39587238 0.23398718 0.047523987 -0.0034149888 0.14035982 -0.06875325
0.19619271 0.12782568 0.24480638 0.18581003 -0.053133514 0.01844513 0.059215266 0.094324596
0.099143974 -0.023430556 0.14611395 0.04764156 0.04264519 -0.4251139 -0.046033934 0.19671911
00000000: 2dfd debd 05b3 85be b875 e5be bff3 97bd
00000010: a1ff 7dbd 75b2 5f3d aef5 7f3d 72ca 9b3e
00000020: 7348 f1bd a5a6 52bd 07a0 84be 5df0 a73c
00000030: 1ce4 d5be 9b8f e3be 376c 8f3d 88aa cd3d
00000040: 0186 00be f49e bb3d ad4f c73d a76b babd
00000050: 57d2 7abd 1723 cbbe 4c1e 1bbf ebb3 35be
00000060: 5227 93be 0c34 16bf e5d6 9dbe d4fe 6c3b
00000070: aba7 75be eee0 22be 0d24 bdbe d498 90be
00000080: 9e04 39be fec9 11be 4ce0 97bc 1b8e a73c
00000090: b308 d13e 9eaa 953e a18a 523e dceb 773d
000000a0: da90 3abe 94e5 903e 87df 323e d2e9 6c3e
000000b0: 0dae 59bd 3548 1f3e f846 08bd efd8 803d
000000c0: 29d9 49bd e32d 623e f0ba 193d b4f0 13be
000000d0: 0c10 c2be 2267 7f3d c484 203e 83fb 443e
000000e0: 46ff 8e3b 5669 5c3d b1c7 873e 39ce ad3e
000000f0: 4c11 11be 2096 e03c adb0 933e b96d 2c3e
00000100: 26d9 bc3d c585 1f3c f7e3 473e 1ad8 713e
00000110: 0ba9 363e 9b71 0f3e 86b8 353e 4ad4 b4bd
00000120: 48dd 783d 6520 9fbe 6620 bbbe 0d7b 143e
00000130: 13e2 543e 99a5 7dbe 1908 a63e 8e24 2abd
00000140: 8b81 5b3e ef27 813e 5020 823e 6345 87be
00000150: f0e2 7f3e add8 d03d 9dce 753d a78e a0be
00000160: 9923 abbc 2ed2 98be a8ad 003e fd27 813e
00000170: c447 293e 16bf b73e 5c86 7b3e 6294 e53d
00000180: 8359 483e 095c 6cbe 4059 253d a7d6 1fbe
00000190: a2ea ecbe 289b 12be b214 83be 3c25 dcbe
000001a0: 4d4b 8cbd 6107 85bd 8022 f1bd bc75 4c3d
000001b0: efae ef3d 8bad 82bc 97f3 133e b1de 1b3e
000001c0: b6ff c83e 9e23 a83d 8f80 a63e 8b6f 0d3f
000001d0: 3a0c 3ebd 25f2 7d3e c6b8 b0bd d488 44be
000001e0: 1c84 053e 58ef a6bd c9af cabe 569a 6f3e
000001f0: 83a8 423d 01ce 5fbb 7cba 0f3e 81ce 8cbd
00000200: bee6 483e bce4 023e 86ae 7a3e fc44 3e3e
00000210: 87a2 59bd 3e1a 973c b58b 723d 412d c13d
00000220: ff0b cb3d 70f1 bfbc e59e 153e cc23 433d
00000230: b9ac 2e3d 87a8 d9be 148e 3cbd bc70 493e

bneck.0.bn2.weight f4 [16]
0.9087665 1.0134382 1.0838383 1.0954053 0.9273716 0.86787736 0.9346943 1.0362016
0.86927885 0.90606534 0.9733163 1.1792731 1.0750952 0.93788964 1.0019058 1.0172684
00000000: eca4 683f 58b8 813f 37bb 8a3f 3e36 8c3f
00000010: 3a68 6d3f 362d 5e3f 2048 6f3f 41a2 843f
00000020: 0f89 5e3f e6f3 673f 422b 793f 6cf2 963f
00000030: b89c 893f 8919 703f 733e 803f da35 823f

bneck.0.bn2.bias f4 [16]
0.10449068 0.079591334 0.30683154 0.068610825 -0.008531528 0.049900156 -0.021671055 0.10993849
0.21173012 0.27610534 0.0340898 0.017232936 0.18920714 0.052780006 -0.002619069 0.021013325
00000000: 36ff d53d c800 a33d 0619 9d3e d583 8c3d
00000010: d2c7 0bbc 1b64 4c3d 7f87 b1bc 6e27 e13d
00000020: c8cf 583e ae5d 8d3e bfa1 0b3d 162c 8d3c
00000030: 84bf 413e d92f 583d b0a4 2bbb 2324 ac3c

bneck.0.bn2.running_mean f4 [16]
-0.22900607 -0.35749578 -0.4846806 -0.33632532 0.4840264 -0.020530205 0.355699 0.34676987
-0.002930331 0.008726513 0.373839 -0.40751496 0.3067452 -0.046709765 0.32424372 0.024195628
00000000: 9180 6abe b009 b7be 0e28 f8be d532 acbe
00000010: 4fd2 f73e f62e a8bc 2e1e b63e d28b b13e
00000020: cc0a 40bb a6f9 0e3c d367 bf3e cda5 d0be
00000030: b50d 9d3e bd52 3fbd 4603 a63e e935 c63c

bneck.0.bn2.running_var f4 [16]
0.055705015 0.24514434 1.6088842 0.32525593 0.21008323 0.01747778 0.10667311 0.35555154
0.04377574 0.008492478 0.34078717 0.62708133 0.21172278 0.046204098 0.17193685 0.016511168
00000000: f12a 643d 1e07 7b3e ebef cd3f f287 a63e
00000010: 0f20 573e 902d 8f3c 6e77 da3d da0a b63e
00000020: 314e 333d 0924 0b3c a87b ae3e 6788 203f
00000030: dbcd 583e 8240 3d3d 3710 303e 6e42 873c

bneck.0.conv3.weight f4 [16, 16, 1, 1]
-0.18379919 0.169591 0.20557734 -0.1860888 -0.107524835 -0.082124434 -0.2101062 0.14429623
-0.13238874 -0.17449532 -0.11868397 0.030789748 0.16715324 0.25745484 0.010608238 0.031066151
-0.015126397 -0.10179606 -0.052462716 -0.1394891 -0.11852277 0.19950165 -0.05376273 -0.20773341
0.14065342 0.044425163 0.15002161 0.26417562 -0.064327575 -0.036335472 0.24850108 0.15847385
0.17286855 0.07794228 0.030135283 0.006606875 -0.16020995 -0.11028741 0.08102634 0.0029202844
-0.11874777 -0.07334405 0.15535092 -0.18555254 0.015447045 0.13256812 -0.019152194 -0.29256856
-0.125886 0.13508844 0.17669106 0.27271432 0.20227912 0.11612265 0.13998349 -0.023439145
0.03584 0.12595662 -0.15800229 0.36029226 -0.029302314 -0.00791048 0.00444614 -0.074942395
-0.11168532 -0.1189036 -0.36246973 -0.31370172 -0.08308167 0.060232304 0.024963332 -0.17612353
-0.16720445 -0.055250987 0.029244736 -0.033690333 0.06901005 0.19240446 0.040979378 0.19866933
0.22742748 -0.0100731235 -0.022368433 -0.072908886 0.2353013 -0.06349439 -0.13537253 0.25802922
-0.015206649 -0.07360227 -0.051673487 -0.108487405 -0.2832822 0.043586582 -0.168603 0.14960839
-0.08934042 0.044618566 -0.20414878 0.22793822 0.12962016 -0.0027091238 0.012508486 -0.039180335
-0.00882889 -0.19156756 0.04791099 -0.2355923 -0.08589007 -0.14373575 0.11475041 -0.10212226
-0.15857841 -0.13649324 -0.035909366 0.24114591 0.040119532 0.15203977 0.12497708 0.26054308
0.2529984 0.2388644 0.116174504 -0.086334035 0.23652156 0.033211477 0.09501468 0.14186038
-0.19951499 0.040983427 -0.26155743 0.04768256 0.25731856 -0.085592546 -0.20407669 0.11744747
-0.10718375 0.117424406 -0.1320946 -0.055584043 0.19965665 -0.0018950144 0.09031274 -0.057661764
-0.07705563 0.30951536 0.28478065 0.044839736 0.12077399 -0.12009856 -0.030768394 -0.029983116
-0.190084 0.051844552 0.073735215 0.23927872 0.2405936 -0.100508586 -0.07059101 0.0156061435
0.16245042 -0.19647324 0.07972844 -0.16641201 0.078892745 -0.09242805 -0.04390176 0.082325056
-0.2134478 0.10871998 0.054693602 0.0037130588 -0.3391523 -0.26515755 -0.18622474 -0.08977762
0.1588176 -0.09811684 0.008716908 -0.23284899 -0.091219746 0.02864096 -0.0030682348 -0.09313264
0.23205128 -0.19427484 -0.25662568 -0.22486801 -0.15229854 0.24508877 0.20189293 0.13752784
0.38080567 0.10325419 -0.057428963 -0.11746566 -0.010303782 0.23530059 -0.123019315 0.072813146
0.08831228 0.17195517 -0.2928722 -0.17434913 0.20628445 -0.08393194 -0.12552896 0.021511953
0.0100532845 -0.06215065 0.16876769 -0.13469452 0.03554673 -0.1021904 -0.18496257 -0.111011595
-0.1674955 -0.031638816 -0.08722946 -0.16219239 0.00020308617 0.12968542 0.08658952 0.22427945
0.048545208 -0.1030821 0.07864947 0.04172759 -0.054317217 0.15346362 -0.08729717 -0.14528206
0.11765132 -0.16812725 -0.23705521 0.25638178 -0.059462804 0.13871637 0.2524798 -0.22671115
-0.1498611 0.2598287 0.058065053 -0.27509674 0.23403603 0.101803444 -0.19869578 -0.27504453
-0.02896839 -0.038012765 0.036858454 0.01734794 0.20837787 0.021159617 -0.0018205803 0.013435694
00000000: db35 3cbe 43a9 2d3e de82 523e 108e 3ebe
00000010: fb35 dcbd db30 a8bd 1426 57be 64c2 133e
00000020: ea90 07be e7ae 32be 9510 f3bd c83a fc3c
00000030: 382a 2b3e 1fd1 833e 2dce 2d3c 717e fe3c
00000040: b5d4 77bc 747a d0bd 25e3 56bd 3bd6 0ebe
00000050: 11bc f2bd 294a 4c3e 4f36 5cbd 11b8 54be
00000060: 7307 103e 29f7 353d 449f 193e 0742 873e
00000070: 2dbe 83bd 81d4 14bd 1177 7e3e f846 223e
00000080: 7404 313e 34a0 9f3d 45de f63c 7c7e d83b
00000090: 140e 24be 5ede e1bd 23f1 a53d 3e62 3f3b
000000a0: 0832 f3bd 6835 96bd 5014 1f3e 7c01 3ebe
000000b0: 9a15 7d3c f0bf 073e 10e5 9cbc 8ccb 95be
000000c0: 42e8 00be a054 0a3e 80ee 343e 36a1 8b3e
000000d0: 4222 4f3e b6d1 ed3d d557 0f3e 7303 c0bc
000000e0: f7cc 123d c6fa 003e 5acb 21be 3a78 b83e
000000f0: 680b f0bc f59a 01bc edb0 913b 667b 99bd
00000100: 46bb e4bd bb83 f3bd a295 b9be 839d a0be
00000110: b926 aabd 26b6 763d e77f cc3c ba59 34be
00000120: a537 2bbe dc4e 62bd a892 ef3c e0fe 09bd
00000130: 2455 8d3d ad05 453e fed9 273d f96f 4b3e
00000140: c0e2 683e be09 25bc 013e b7bc 4151 95bd
00000150: d3f2 703e 5909 82bd 199f 0abe 681c 843e
00000160: 4f25 79bc c9bc 96bd 94a7 53bd a52e debd
00000170: 5d0a 91be d887 323d 44a6 2cbe f132 193e
00000180: 1cf8 b6bd f5c1 363d 610c 51be a368 693e
00000190: 26bb 043e 8e8b 31bb 65f0 4c3c 8f7b 20bd
000001a0: 0ca7 10bc 492a 44be 503e 443d 1c3f 71be
000001b0: 22e7 afbd 772f 13be 4302 eb3d 7a25 d1bd
000001c0: 6162 22be e2c4 0bbe b315 13bd f4ee 763e
000001d0: 6154 243d 50b0 1b3e fcf3 ff3d e765 853e
000001e0: 0289 813e df98 743e e6ec ed3d e6cf b0bd
000001f0: b532 723e c208 083d 0e97 c23d d943 113e
00000200: a84d 4cbe 3dde 273d dbea 85be ca4e 433d
00000210: 42bf 833e 254b afbd 7bf9 50be 4d88 f03d
00000220: 2783 dbbd 357c f03d cf43 07be 18ac 63bd
00000230: cb72 4c3e 2262 f8ba e3f5 b83d be2e 6cbd
00000240: 58cf 9dbd cc78 9e3e c5ce 913e dfa9 373d
00000250: 5b58 f73d 3cf6 f5bd 000e fcbc 279f f5bc
00000260: 61a5 42be f45a 543d 7d02 973d 7b05 753e
00000270: 2b5e 763e 72d7 cdbd 0592 90bd e9b0 7f3c
00000280: 6759 263e 4830 49be aa48 a33d e967 2abe
00000290: 8592 a13d eb4a bdbd 55d2 33bd 0a9a a83d
000002a0: 0f92 5abe 95a8 de3d 6606 603d ca56 733b
000002b0: 5fa5 adbe bbc2 87be b3b1 3ebe 54dd b7bd
000002c0: 15a1 223e 7bf1 c8bd 5dd1 0e3c f76f 6ebe
000002d0: 6bd1 babd 72a0 ea3c 7014 49bb 53bc bebd
000002e0: da9e 6d3e fcef 46be 7164 83be cd43 66be
000002f0: 26f4 1bbe 8df8 7a3e 05bd 4e3e 19d4 0c3e
00000300: f6f8 c23e ef76 d33d a23a 6bbd d691 f0bd
00000310: 32d1 28bc a3f2 703e 8df1 fbbd 0f1f 953d
00000320: 12dd b43d 0415 303e 58f3 95be 9488 32be
00000330: 3b3c 533e 82e4 abbd aa8a 00be d639 b03c
00000340: 88b6 243c ae91 7ebd 70d1 2c3e 5ced 09be
00000350: 7399 113d 3349 d1bd d466 3dbe 0c5a e3bd
00000360: f183 2bbe b497 01bd 5ca5 b2bd c315 26be
00000370: 87f3 5439 41cc 043e d955 b13d 83a9 653e
00000380: 57d7 463d b51c d3bd f912 a13d 8dea 2a3d
00000390: bb7b 5ebd 9125 1d3e dcc8 b2bd d2c4 14be
000003a0: 2df3 f03d 8d29 2cbe 9abe 72be 7944 833e
000003b0: 458f 73bd aa0b 0e3e 0845 813e f826 68be
000003c0: 3075 19be 4408 853e 9fd5 6d3d 7bd9 8cbe
000003d0: 24a7 6f3e 537e d03d e876 4bbe a3d2 8cbe
000003e0: 1e4f edbc 46b3 1bbd e4f8 163d 441d 8e3c
000003f0: 0261 553e ef56 ad3c 8aa0 eeba 6321 5c3c

bneck.0.bn3.weight f4 [16]
0.9491369 0.8895862 1.0019206 1.0183278 1.0422062 1.0429659 1.0055984 1.0328145
1.0942222 1.095954 0.9912472 0.94305503 1.0951415 0.9454188 0.9607705 0.9401685
00000000: a3fa 723f ecbb 633f ef3e 803f 9158 823f
00000010: 0367 853f e87f 853f 73b7 803f 4433 843f
00000020: 790f 8c3f 3848 8c3f 60c2 7d3f 0e6c 713f
00000030: 992d 8c3f f706 723f 0ef5 753f e2ae 703f

bneck.0.bn3.bias f4 [16]
-0.02008407 -0.028683925 -0.19068299 -0.079644755 0.23850977 0.030644305 0.064165875 0.067424096
-0.07170128 0.064148664 0.09662301 0.16617669 0.20834646 -0.07721998 -0.043561917 -0.008365054
00000000: 5987 a4bc 8dfa eabc 6742 43be ca1c a3bd
00000010: e83b 743e c409 fb3c 6669 833d a515 8a3d
00000020: 1fd8 92bd 6060 833d 49e2 c53d 392a 2a3e
00000030: c658 553e 8225 9ebd fb6d 32bd 940d 09bc

bneck.0.bn3.running_mean f4 [16]
-0.084521376 0.11842202 -0.07240491 0.46026462 -0.41135976 -0.05292907 -0.2154393 0.5492804
-0.10937487 0.36839014 -0.3292856 -0.16575484 0.112040825 -0.13326204 0.0010120727 -0.017355358
00000000: 8b19 adbd 3e87 f23d 0749 94bd cea7 eb3e
00000010: bf9d d2be 27cc 58bd 1f9c 5cbe a49d 0c3f
00000020: efff dfbd a29d bc3e 1f98 a8be a3bb 29be
00000030: a975 e53d d875 08be 86a7 843a d32c 8ebc

bneck.0.bn3.running_var f4 [16]
0.101827346 0.10009372 0.07238562 0.102924645 0.09701154 0.15383565 0.07084488 0.27640814
0.07395741 0.16878866 0.22372544 0.25798786 0.2819595 0.07729911 0.19437079 0.1962728
00000000: db8a d03d f0fd cc3d e93e 943d 28ca d23d
00000010: fcad c63d 1887 1d3e 1f17 913d 5e85 8d3e
00000020: fc76 973d efd6 2c3e 4818 653e fc16 843e
00000030: ff5c 903e ff4e 9e3d 2309 473e bdfb 483e

bneck.1.conv1.weight f4 [72, 16, 1, 1]
-0.16711079 0.13207637 0.030649643 -0.19843963 0.10018681 -0.19128549 0.22820525 0.15235674
0.20709367 -0.010092297 -0.033261646 0.16801408 0.0065081776 -0.18080729 -0.09352779 -0.018089082
-0.024550596 -0.09458968 0.12837256 -0.15756805 -0.1405369 0.18556884 0.06986256 -0.2019516
0.19777907 -0.3135556 0.12466003 0.03331598 0.12252311 0.11623158 -0.21529621 0.14563964
-0.08664942 -0.18915255 0.037395973 -0.004558506 -0.04484336 -0.23381592 0.046812102 -0.33274865
-0.09219376 0.08286963 0.3045721 0.10162377 -0.035800446 -0.12450993 -0.095801875 0.024835177
-0.2185101 -0.21432848 -0.058396243 -0.35849002 0.11128738 0.20605063 0.16778716 -0.12787999
0.2542409 0.17269568 0.095311105 0.036158532 0.16189124 0.16940059 -0.018416006 -0.048730195
0.22091231 -0.102143124 -0.11039382 0.11918059 0.02330748 0.11886403 -0.1914855 -0.02004254
-0.13899428 0.19838417 -0.052633747 0.056007158 0.26649848 -0.06935074 0.16121332 0.16139688
-0.26036158 -0.13473485 0.16528015 -0.12631021 -0.3013497 0.0036894956 -0.039899856 -0.19342214
0.06240189 0.17804475 0.3002856 0.09893218 -0.15981036 0.12941796 0.1534546 0.08404787
0.008734592 0.07084361 -0.030387443 -0.17791165 0.26237622 0.14423862 0.25099963 -0.1680939
-0.091900975 -0.0949577 0.0205977 0.0999653 -0.12508138 0.14248078 -0.06749393 0.16312727
0.13348626 -0.15236758 -0.10267484 -0.032614347 0.009223378 0.055763517 -0.019299963 -0.019373305
-0.36847466 -0.0412478 0.29152754 -0.2624525 -0.13638696 -0.21246053 -0.09235924 0.06525224
-0.048590902 -0.0132133225 -0.10564598 -0.19380909 0.23183915 0.22360824 0.137699 0.04591494
0.054723643 -0.19463493 -0.030465243 -0.014526066 -0.076079935 0.037441984 0.15846044 0.12542331
0.1348078 -0.15837806 -0.044124443 0.12702146 -0.17054829 -0.11564978 0.1254354 -0.23513621
-0.13058381 -0.21875943 0.1657079 0.005269827 -0.19850378 -0.02240555 -0.016628593 0.005537564
-0.12467322 -0.15917343 0.121633396 0.15826194 0.111405365 0.19357075 0.014403333 0.102552265
-0.26474762 -0.2563231 -0.008780837 0.13190232 -0.14555539 0.11971537 0.007949522 -0.0019122348
0.052944586 0.034658514 -0.117055535 -0.123878226 0.082353055 -0.017933166 -0.17699236 -0.08582965
0.25429103 -0.29965237 0.023420114 0.19056642 0.29132026 -0.03821668 -0.08231696 -0.097522125
-0.056014225 -0.10632554 0.1159851 -0.2699138 0.12902541 0.027936267 -0.18338685 -0.065302186
-0.13055815 0.007962863 0.081871085 -0.1491925 -0.074953385 0.005633485 -0.0933072 0.17320628
0.11516341 0.12908316 -0.22317305 -0.21067342 0.34253785 -0.13876693 0.1741857 0.16937895
-0.14237274 -0.044124484 -0.19415292 -0.062853575 -0.060839385 -0.021687403 0.15508707 0.0031503714
0.10466007 0.1457664 -0.05080466 -0.24742125 0.06416869 -0.039335642 -0.1886792 0.20743547
-0.046879932 0.036022667 0.053005073 0.22797151 -0.026177863 0.07032251 -0.09612666 0.20278716
-0.034196097 -0.14308582 0.17649122 -0.023209294 -0.042354863 0.12778111 -0.06174162 0.18734837
-0.12521783 -0.012520687 -0.07991151 -0.30118644 -0.13242796 0.0855194 -0.19900072 -0.07339377
00000000: 171f 2bbe 073f 073e f614 fb3c c233 4bbe
00000010: be2e cd3d 58e0 43be a3ae 693e 6803 1c3e
00000020: 5d10 543e 295a 25bc 5d3d 08bd e20b 2c3e
00000030: 8d42 d53b 8c25 39be 7f8b bfbd 8e2f 94bc
00000040: 551e c9bc 3cb8 c1bd 1974 033e 8559 21be
00000050: e8e8 0fbe c205 3e3e 1a14 8f3d 66cc 4ebe
00000060: 9986 4a3e 5c8a a0be c24d ff3d 5676 083d
00000070: 65ed fa3d d30a ee3d 9c76 5cbe 8f22 153e
00000080: 4075 b1bd 35b1 41be 852c 193d 855f 95bb
00000090: acad 37bd 716d 6fbe 0cbe 3f3d 085e aabe
000000a0: 15d0 bcbd 8db7 a93d e0f0 9b3e 2020 d03d
000000b0: 7da3 12bd 10ff febd c633 c4bd 2473 cb3c
000000c0: 1dc1 5fbe ed78 5bbe e630 6fbd 018c b7be
000000d0: a3ea e33d f0fe 523e 66d0 2b3e f9f2 02be
000000e0: dd2b 823e 23d7 303e 7832 c33d f81a 143d
000000f0: d1c6 253e 5977 2d3e 2add 96bc 5099 47bd
00000100: d636 623e 6a30 d1bd 2816 e2bd f414 f43d
00000110: 54ef be3c fc6e f33d c614 44be 4130 a4bc
00000120: 8454 0ebe 3825 4b3e 7c96 57bd c367 653d
00000130: 7d72 883e c307 8ebd 1b15 253e 3945 253e
00000140: 1d4e 85be eff7 09be 333f 293e 7757 01be
00000150: 824a 9abe 77cb 713b 086e 23bd 7410 46be
00000160: 2099 7f3d 5d51 363e 09bf 993e f49c ca3d
00000170: 54a5 23be 2486 043e 3423 1d3e 4a21 ac3d
00000180: 891b 0f3c 7416 913d 16ef f8bc 792e 36be
00000190: 2d56 863e 4ab3 133e 0683 803e cf20 2cbe
000001a0: 9436 bcbd 2f79 c2bd 82bc a83c 9bba cc3d
000001b0: 5515 00be 7be6 113e 423a 8abd d60a 273e
000001c0: 9fb0 083e 3f06 1cbe 3047 d2bd 9f96 05bd
000001d0: a71d 173c 4968 643d f51a 9ebc c4b4 9ebc
000001e0: b6a8 bcbe 74f3 28bd 1943 953e 2d60 86be
000001f0: 06a9 0bbe 418f 59be d726 bdbd f7a2 853d
00000200: 4107 47bd b17c 58bc eb5c d8bd e475 46be
00000210: 3e67 6d3e 8ff9 643e f700 0d3e 4e11 3c3d
00000220: e625 603d 614e 47be 3f92 f9bc bdfe 6dbc
00000230: cccf 9bbd c45c 193d 7443 223e f86e 003e
00000240: 0e0b 0a3e dc2d 22be d5bb 34bd ea11 023e
00000250: 36a4 2ebe cbd9 ecbd 2372 003e 8cc7 70be
00000260: c3b7 05be 7902 60be 55af 293e 83ae ac3b
00000270: 9344 4bbe d88b b7bc b038 88bc 7474 b53b
00000280: ac54 ffbd 5cfe 22be ee1a f93d 6b0f 223e
00000290: 7f28 e43d 6937 463e f5fb 6b3c ec06 d23d
000002a0: 008d 87be c83c 83be 80dd 0fbc 6711 073e
000002b0: 790c 15be 552d f53d b63e 023c f4a3 faba
000002c0: 6cdc 583d 16f6 0d3d d0ba efbd deb3 fdbd
000002d0: b8a8 a83d 93e8 92bc 7c3d 35be 75c7 afbd
000002e0: 6f32 823e 096c 99be 8adb bf3c d823 433e
000002f0: ee27 953e 1889 1cbd cb95 a8bd aeb9 c7bd
00000300: 2c6f 65bd 34c1 d9bd 9989 ed3d 2432 8abe
00000310: 3d1f 043e 99da e43c c3c9 3bbe 27bd 85bd
00000320: 09b1 05be ab76 023c 07ac a73d ebc5 18be
00000330: 2981 99bd 1999 b83b d817 bfbd fd5c 313e
00000340: cbda eb3d 602e 043e 7a87 64be c6ba 57be
00000350: 1f61 af3e eb18 0ebe bc5d 323e ad71 2d3e
00000360: 29ca 11be e0bb 34bd 06d0 46be 60b9 80bd
00000370: b832 79bd c8a9 b1bc 25cf 1e3e 7676 4e3b
00000380: 0558 d63d ca43 153e 8c18 50bd ff5b 7dbe
00000390: e06a 833d 691e 21bd 1f35 41be f769 543e
000003a0: 2c05 40bd 818c 133d d91b 593d 5d71 693e
000003b0: f572 d6bc 4005 903d 0ede c4bd 70a7 4f3e
000003c0: 3511 0cbd 1785 12be 1dba 343e 6b21 bebc
000003d0: 4b7c 2dbd 0dd9 023e c8e4 7cbd 40d8 3f3e
000003e0: 1a39 00be 9123 4dbc a5a8 a3bd 1c35 9abe
000003f0: 329b 07be cc24 af3d d8c6 4bbe 794f 96bd

bneck.1.bn1.weight f4 [72]
0.754851 0.4384318 0.85369515 0.7648811 0.633873 0.69668895 0.6502178 0.77718663
0.569803 0.7802513 0.7505682 0.5646796 0.749607 0.80336016 0.8167494 0.75901085
0.5167849 0.7122268 0.6885305 0.7477466 0.4836602 0.7611549 0.8620627 0.91875064
0.4005331 0.44137633 0.8116313 0.57800746 0.79036075 0.8986294 0.7132996 0.7560235
0.82741433 0.61074513 0.6030094 0.67103916 0.8003769 0.68873745 0.40891019 0.75432074
0.7483566 0.8028909 0.6517446 0.88131195 0.67610013 0.66683483 0.7056773 0.4263712
0.7438572 0.6147642 0.72509736 0.7482285 0.76761156 0.67949486 0.42772496 0.74289674
0.626134 0.7101584 0.8532774 0.75750536 0.73407406 0.7049602 0.8439932 0.6614815
0.7837533 0.6303439 0.6963621 0.8055508 0.66147125 0.6523771 0.5882934 0.48834732
00000000: ea3d 413f 227a e03e c48b 5a3f 3fcf 433f
00000010: 8045 223f 355a 323f ac74 263f b4f5 463f
00000020: 9cde 113f 8dbe 473f 3d25 403f d88e 103f
00000030: 3fe6 3f3f 03a9 4d3f 7d16 513f 894e 423f
00000040: 044c 043f 7f54 363f 8943 303f 526c 3f3f
00000050: 4fa2 f73e 0cdb 423f 24b0 5c3f 3e33 6b3f
00000060: ad12 cd3e 14fc e13e 12c7 4f3f 4cf8 133f
00000070: 1555 4a3f 940c 663f cd9a 363f c28a 413f
00000080: 6dd1 533f cb59 1c3f d35e 1a3f 39c9 2b3f
00000090: 80e5 4c3f 1951 303f ad5c d13e 2a1b 413f
000000a0: 4c94 3f3f 428a 4d3f bcd8 263f a99d 613f
000000b0: e614 2d3f b0b5 2a3f 44a7 343f 534d da3e
000000c0: 6d6d 3e3f 3061 1d3f fb9f 393f e78b 3f3f
000000d0: 3182 443f 60f3 2d3f c4fe da3e 7b2e 3e3f
000000e0: 514a 203f f1cc 353f 6370 5a3f dfeb 413f
000000f0: 47ec 3b3f 4678 343f f00f 583f da56 293f
00000100: 0ea4 483f 385e 213f c944 323f 9438 4e3f
00000110: 2e56 293f 3002 273f 659a 163f a908 fa3e

bneck.1.bn1.bias f4 [72]
0.0026733677 0.32714397 -0.00825098 0.010466122 0.15206686 0.1515565 0.11763751 -0.021222392
0.2850478 0.14096047 0.10606735 0.18481861 0.02599706 0.10949748 0.06664351 0.04370332
0.24131568 -0.053210102 0.23597261 0.1337474 -0.24589343 0.17103186 0.016982807 -0.030023776
0.2382525 0.22922243 0.08415304 0.1343549 0.03551914 -0.0051909317 0.028554944 0.108142436
0.012436194 0.19053511 0.08487116 -0.027685557 0.06229847 -0.013182581 0.36465523 0.11466558
-0.14599489 0.03835341 0.15659457 -0.010043807 0.06839535 0.21521929 0.06676913 0.17718652
-0.03821626 -0.082807176 -0.10952173 -0.00988071 -0.013908298 0.20290427 0.12908274 0.06629676
0.2405281 0.057335127 0.05573473 -0.03868855 0.114398904 -0.013353472 0.0065916856 0.21917276
-0.013199673 0.16413242 0.039141215 -0.059136488 -0.11440943 0.19026707 0.2187658 0.116043516
00000000: ab33 2f3b 6a7f a73e 1e2f 07bc 197a 2b3c
00000010: 6ab7 1b3e a131 1b3e efeb f03d 95da adbc
00000020: c9f1 913e f157 103e d739 d93d 1741 3d3e
00000030: c9f7 d43c 3740 e03d 647c 883d 4102 333d
00000040: 751b 773e d6f2 59bd cea2 713e 14f5 083e
00000050: 7dcb 7bbe fa22 2f3e 871f 8b3c 6cf4 f5bc
00000060: 77f8 733e 49b9 6a3e 6e58 ac3d 5594 093e
00000070: 857c 113d b118 aabb 0fec e93c c879 dd3d
00000080: 2ec1 4b3c a31b 433e eed0 ad3d d2cc e2bc
00000090: ae2c 7f3d c1fb 57bc 17b4 ba3e cad5 ea3d
000000a0: af7f 15be 7718 1d3d 545a 203e c88e 24bc
000000b0: dc12 8c3d 7262 5c3e 41be 883d 6270 353e
000000c0: a788 1cbd cf96 a9bd ee4c e0bd b4e2 21bc
000000d0: a1df 63bc 23c6 4f3e 442e 043e 99c6 873d
000000e0: 004d 763e 3dd8 6a3d 1a4a 643d e377 1ebd
000000f0: f949 ea3d 85c8 5abc 11ff d73b d36e 603e
00000100: 7143 58bc 5412 283e 8a52 203d 1a39 72bd
00000110: 7e4f eabd 5fd5 423e 2404 603e 39a8 ed3d

bneck.1.bn1.running_mean f4 [72]
0.01803367 -0.013132558 0.018430043 0.049310334 0.05129584 -0.022855818 0.03369498 -0.009657918
0.03498621 -0.012605698 0.011002285 0.051884666 -0.011700435 0.055602424 0.026122171 -0.070001565
-0.025880175 0.0096705295 -0.020316016 -0.013808464 -0.04467087 -0.007867313 -0.02429738 0.043998633
0.014700676 0.0079961065 0.00863587 0.017580822 0.038322393 0.0077559208 0.043376986 0.033885058
0.029607136 0.03593147 0.03235841 -0.01627895 0.014182446 -0.022775523 0.02192486 0.022498986
0.05124126 0.057638854 -0.040847786 -0.0062330593 0.0662154 -0.00060622947 -0.028583061 0.0054171383
0.018087583 -0.036104992 -0.016159853 -0.031375613 0.031502273 0.044335756 0.06595027 0.043350276
0.024628198 -0.0052983547 0.057518303 -0.011720438 0.00059605663 -0.018013736 0.0011288385 -0.039884202
-0.021567719 0.012114397 -0.015627092 0.008987033 0.0017568732 0.029026842 0.02814395 -0.0114848185
00000000: 59bb 933c f129 57bc 9afa 963c a2f9 493d
00000010: 961b 523d 203c bbbc bf03 0a3d 3e3c 1ebc
00000020: b34d 0f3d 2188 4ebc ee42 343c 0485 543d
00000030: 2eb3 3fbc 5ebf 633d 2afe d53c fb5c 8fbd
00000040: a902 d4bc 2471 1e3c c66d a6bc e53c 62bc
00000050: cdf8 36bd e7e5 00bc 4d0b c7bc e937 343d
00000060: 1bdb 703c 1a02 033c 777d 0d3c a805 903c
00000070: f1f7 1c3d 6125 fe3b 11ac 313d 0fcb 0a3d
00000080: aa8a f23c e12c 133d 418a 043d 6f5b 85bc
00000090: 7d5d 683c bc93 babc c49b b33c cb4f b83c
000000a0: 5be2 513d b816 6c3d 0250 27bd b13e ccbb
000000b0: f19b 873d 5feb 1eba 0627 eabc 4082 b13b
000000c0: 692c 943c d4e2 13bd ab61 84bc b783 00bd
000000d0: 8708 013d 6999 353d ef10 873d 0f90 313d
000000e0: 13c1 c93c d29d adbb 5098 6b3d 1407 40bc
000000f0: af40 1c3a 8b91 93bc 89f5 933a 9e5d 23bd
00000100: c9ae b0bc 777b 463c 6304 80bc 593e 133c
00000110: e246 e63a b3c9 ed3c 248e e63c d22a 3cbc

bneck.1.bn1.running_var f4 [72]
0.05295564 0.091441825 0.12966006 0.08622846 0.07573789 0.1397907 0.12131478 0.17839606
0.07509472 0.12919648 0.09428182 0.17349342 0.04536302 0.13834259 0.10317586 0.09101165
0.06384208 0.11576048 0.08867888 0.079133645 0.02667508 0.18101545 0.042667918 0.051682904
0.09554317 0.09787148 0.047132704 0.0660722 0.24521966 0.089248314 0.14606673 0.07896741
0.11246964 0.17841855 0.0336 0.05347452 0.08767073 0.1329505 0.069728896 0.045149557
0.040157378 0.08430564 0.071422435 0.17467679 0.1510726 0.094976805 0.11438744 0.13063736
0.035061166 0.07146342 0.11764883 0.042318247 0.1462275 0.07367948 0.07152722 0.22107756
0.0539604 0.13176535 0.114012495 0.06950286 0.20343535 0.028970134 0.041989785 0.07455323
0.058082454 0.08659525 0.07907743 0.074435085 0.07673735 0.097810626 0.07919527 0.17096785
00000000: 03e8 583d da45 bb3d 9bc5 043e 8c98 b03d
00000010: 781c 9b3d 4b25 0f3e e273 f83d 75ad 363e
00000020: 43cb 993d 154c 043e d416 c13d 42a8 313e
00000030: 93ce 393d aea9 0d3e de4d d33d 5164 ba3d
00000040: a3bf 823d d513 ed3d 469d b53d d210 a23d
00000050: b385 da3c 1d5c 393e 8ec4 2e3d 74b1 533d
00000060: 23ac c33d d870 c83d 390e 413d dd50 873d
00000070: dd1a 7b3e d2c7 b63d 8492 153e aab9 a13d
00000080: 7c56 e63d 5ab3 363e 27a0 093d 1908 5b3d
00000090: b68c b33d 2d24 083e 06ce 8e3d beee 383d
000000a0: 107c 243d 6fa8 ac3d ed45 923d 79de 323e
000000b0: c7b2 1a3e 3383 c23d f643 ea3d cdc5 053e
000000c0: 4c9c 0f3d 6a5b 923d dff1 f03d e655 2d3d
000000d0: a9bc 153e 44e5 963d dd7c 923d 2862 623e
000000e0: 9505 5d3d 7fed 063e 627f e93d 8457 8e3d
000000f0: 5b51 503e c652 ed3c 7bfd 2b3d 5daf 983d
00000100: dee7 6d3d da58 b13d 59f3 a13d 6c71 983d
00000110: 7928 9d3d f050 c83d 2131 a23d 3212 2f3e
