TX2/multicamerarl/torch_models/weights_60.pth (torch_old, 478682 bytes, 91 tensors)

conv1.weight f4 [16, 3, 3, 3]
-0.0020416318 -0.09316911 0.22409782 0.12909192 -0.15413857 0.113122165 -0.0147579815 0.011758441
-0.1513418 -0.070603006 0.13809913 -0.008537639 -0.02518982 -0.11577093 -0.13423415 -0.2018453
-0.18280062 -0.033855814 0.094916046 -0.07919943 0.16509072 -0.18386306 -0.15967701 0.13882494
-0.19050807 0.11913691 -0.026451848 0.10718232 -0.07561695 0.12925142 0.09206162 0.09262808
0.063875005 -0.2186884 -0.15733926 -0.07826761 0.039942425 0.21090649 -0.016054377 0.003214231
-0.05356273 -0.19311526 0.09667787 -0.16230027 -0.11334345 -0.057967052 -0.107554905 0.09017595
0.056608748 -0.033510603 0.07807852 -0.12564233 -0.10691697 0.1041259 -0.006935666 -0.23649363
-0.06459374 -0.08048228 -0.13859451 0.081120536 -0.066932306 0.009300701 0.21012977 -0.043887872
-0.19191377 -0.066403896 -0.039876435 0.057051864 0.045997113 -0.048645746 -0.025594624 0.015502446
0.055491764 -0.064794704 -0.093660116 0.032470647 -0.06016809 -0.020593692 -0.048084266 0.16813432
0.022353454 0.020636877 -0.096214704 0.12032672 -0.03442178 -0.16636148 -0.18375184 0.09791542
0.12841971 0.12228418 0.16126043 0.14099286 0.14797848 -0.09409502 -0.103722304 0.07390168
-0.06437852 -0.1593625 0.062164646 0.048017386 0.024616057 -0.15427397 0.061531343 -0.06908957
0.02760114 -0.17571676 0.12323607 -0.0006063038 0.1372674 -0.096361145 -0.016135175 0.070825234
0.1306697 -0.053443834 -0.016825372 0.0064431494 -0.018259574 0.0932164 -0.074197814 -0.07924504
0.03615698 0.17870963 0.016953668 -0.092569605 -0.19392973 -0.044770498 0.2261611 0.056465395
0.11383273 -0.11524836 -0.09792506 -0.16349663 -0.07350661 -0.15595871 -0.26925075 -0.14568646
-0.045192126 0.006858714 0.09940501 -0.1458585 0.08815981 0.08935436 -0.147315 0.10116847
-0.16147259 -0.19133586 0.13049552 0.028911004 0.16222428 0.06976605 -0.104026295 -0.09856562
0.044051424 0.11268287 -0.13509841 -0.1028825 0.011879146 0.036443595 0.023489598 -0.06411866
0.1262147 0.0819994 0.08289288 0.15903097 0.02469221 0.10361195 -0.012701489 0.23553234
-0.030276805 -0.06197272 -0.11374898 0.05955003 0.09947449 -0.2257886 0.1031755 -0.07731099
0.074458465 -0.011191203 -0.02184823 0.055478558 -0.04403955 0.09128821 0.088536724 -0.2880587
-0.024085127 0.10115536 -1.0019938e-05 -0.108564176 -0.23410407 -0.10300798 -0.18538365 -0.17538168
0.14095895 -0.1998034 0.06969145 -0.1090098 -0.13940127 -0.028143382 0.023846213 0.17044654
0.2103068 0.04425763 0.1415791 -0.15350735 0.13923419 -0.0817574 0.12387761 -0.13156103
-0.11279646 0.08399932 0.08090872 0.14770524 -0.003577028 -0.12595488 0.013610292 0.047679204
0.1430724 0.11537819 -0.17017522 -0.07656344 -0.15217555 -0.0079568215 0.0073747905 0.15389678
-0.112800844 -0.0102315815 -0.018477855 -0.15993838 -0.07852015 -0.049558435 0.10767124 -0.06489609
0.038247593 0.12094747 0.2005106 0.07000213 -0.13548024 -0.1310036 0.126642 -0.1457821
0.042281672 0.19896375 -0.13388544 0.16627285 0.08295633 0.096392676 -0.118246034 0.006264746
0.09597776 -0.056660507 0.12968132 0.24629465 0.08311104 -0.31124198 0.112258315 -0.08124887
00000000: e6cc 05bb 72cf bebd e679 653e ac30 043e
00000010: 80d6 1dbe 98ac e73d 76cb 71bc 7aa6 403c
00000020: 58f9 1abe 4f98 90bd dc69 0d3e 74e1 0bbc
00000030: e25a cebc 4f19 edbd ad74 09be 89b0 4ebe
00000040: 1630 3bbe 65ac 0abd 5863 c23d 5033 a2bd
00000050: 8b0d 293e 9946 3cbe 5f82 23be 2028 0e3e
00000060: 8c14 43be 0dfe f33d 8cb1 d8bc 6782 db3d
00000070: 0fdd 9abd 7c5a 043e cd8a bc3d cab3 bd3d
00000080: e6d0 823d daef 5fbe 8b1d 21be c54a a0bd
00000090: ab9a 233d dff7 573e 7884 83bc d9a5 523b
000000a0: 9864 5bbd 02c0 45be 0cff c53d 0b32 26be
000000b0: 9c20 e8bd dc6e 6dbd bf45 dcbd 2bae b83d
000000c0: 93de 673d 6a42 09bd a2e7 9f3d 62a8 00be
000000d0: 49f7 dabd f63f d53d 9544 e3bb 632b 72be
000000e0: b949 84bd e5d3 a4bd b8eb 0dbe 8622 a63d
000000f0: ce13 89bd f861 183c 422c 573e c5c3 33bd
00000100: 0b85 44be c4fe 87bd 7955 23bd 37af 693d
00000110: 7867 3c3d c340 47bd d1ab d1bc f9fd 7d3c
00000120: 554b 633d 16b3 84bd e0d0 bfbd f1ff 043d
00000130: d172 76bd 1ab4 a8bc 02f4 44bd 672b 2c3e
00000140: 971e b73c ab0e a93c 370c c5bd db6d f63d
00000150: dafd 0cbd aa5a 2abe 7129 3cbe e187 c83d
00000160: 7580 033e 2170 fa3d 7421 253e 6f60 103e
00000170: ac87 173e e4b4 c0bd 5c6c d4bd c459 973d
00000180: e3d8 83bd ec2f 23be 5ba0 7e3d e1ad 443d
00000190: 9da7 c93c fff9 1dbe 4a08 7c3d d57e 8dbd
000001a0: c91b e23c 18ef 33be 3163 fc3d 5cf0 1eba
000001b0: d38f 0c3e fe58 c5bd ea2d 84bc d20c 913d
000001c0: 47ce 053e ece7 5abd 5dd5 89bc 0e21 d33b
000001d0: 1a95 95bc 3de8 be3d 06f5 97bd 394b a2bd
000001e0: 5719 143d a8ff 363e 6be2 8a3c 2295 bdbd
000001f0: 8495 46be 4561 37bd c796 673e 4248 673d
00000200: 2221 e93d 5507 ecbd ef8c c8bd a96b 27be
00000210: a28a 96bd a4b3 1fbe 3cdb 89be d52e 15be
00000220: 611b 39bd 10bf e03b db94 cb3d ee5b 15be
00000230: 218d b43d 6bff b63d bed9 16be 6a31 cf3d
00000240: 1259 25be 8ced 43be 9ea0 053e c5d6 ec3c
00000250: 1f1e 263e 81e1 8e3d bd0b d5bd c6dc c9bd
00000260: 446f 343d 47c6 e63d 3d57 0abe 0fb4 d2bd
00000270: c0a0 423c e145 153d 426d c03c a550 83bd
00000280: 6d3e 013e 4def a73d bec3 a93d 04d9 223e
00000290: 5147 ca3c 8132 d43d e819 50bc 642f 713e
000002a0: 1007 f8bc 1bd7 7dbd 3af5 e8bd bbea 733d
000002b0: 48b9 cb3d 2035 67be ad4d d33d 3955 9ebd
000002c0: ae7d 983d 4f5b 37bc 0ffb b2bc 7c3d 633d
000002d0: d162 34bd 50f5 ba3d be52 b53d 6e7c 93be
000002e0: 2c4e c5bc 8b2a cf3d 4e1b 28b7 e556 debd
000002f0: fab8 6fbe d9f5 d2bd 36d5 3dbe 4197 33be
00000300: 8b57 103e 4399 4cbe 64ba 8e3d 8840 dfbd
00000310: 35bf 0ebe f38c e6bc 2259 c33c 8a89 2e3e
00000320: aa5a 573e 7d47 353d 1dfa 103e 0831 1dbe
00000330: 6893 0e3e 6c70 a7bd 8bb3 fd3d efb7 06be
00000340: d501 e7bd d607 ac3d 79b3 a53d 0b40 173e
00000350: 926c 6abb 51fa 00be b4fd 5e3c 454b 433d
00000360: 9281 123e 674b ec3d 6a42 2ebe 4bcd 9cbd
00000370: e8d3 1bbe 545d 02bc 3aa8 f13b 1e97 1d3e
00000380: 2104 e7bd 5da2 27bc df5e 97bc e3c6 23be
00000390: 2ccf a0bd c9fd 4abd bd82 dc3d 3ee8 84bd
000003a0: 82a9 1c3d 4fb3 f73d a752 4d3e 475d 8f3d
000003b0: 55bb 0abe cf25 06be 71ae 013e e747 15be
000003c0: 8c2f 2d3d 27bd 4b3e 4419 09be 6e43 2a3e
000003d0: 02e5 a93d 8669 c53d fa2a f2bd 8048 cd3b
000003e0: fd8f c43d d914 68bd 2ecb 043e aa34 7c3e
000003f0: 1f36 aa3d 1c5b 9fbe b0e7 e53d cf65 a6bd

bn1.weight f4 [16]
1.0015169 1.0545247 0.98312986 0.97659343 0.996972 1.0107878 1.0183889 1.1721373
1.0328132 0.97979033 1.0034767 0.9918188 0.9810009 1.025633 0.9653931 1.0713592
00000000: b531 803f aafa 863f 66ae 7b3f 0702 7a3f
00000010: 8f39 7f3f 7f61 813f 915a 823f 9808 963f
00000020: 3933 843f 8ad3 7a3f ed71 803f d6e7 7d3f
00000030: e022 7b3f f147 833f 0124 773f 4c22 893f

bn1.bias f4 [16]
0.0064055626 0.03545848 0.004127163 0.04916894 -0.021996608 -0.030524962 0.0011207577 0.035783395
-0.031263594 -0.0025879305 -0.011327586 0.031215006 -0.03742761 -0.010154868 -0.05106645 0.08839044
00000000: c1e5 d13b e93c 113d 273d 873b 5f65 493d
00000010: 3b32 b4bc 7c0f fabc 63e6 923a 9c91 123d
00000020: 410e 00bd 459a 29bb 5797 39bc 9db6 ff3c
00000030: b24d 19bd 9a60 26bc 0e2b 51bd 0c06 b53d

bn1.running_mean f4 [16]
-0.32081872 -0.1553548 -0.2651179 0.020626094 -0.23578925 -0.05013758 -0.00064108515 -0.033866722
-0.051030457 0.16288714 0.13636062 -0.14096674 0.29933012 0.07060656 -0.1561488 0.0065043867
00000000: 5a42 a4be 5415 1fbe 89bd 87be 0ef8 a83c
00000010: bd72 71be 105d 4dbd 7f0e 28ba d5b7 0abd
00000020: 5005 51bd e3cb 263e 1ea2 0b3e 9659 10be
00000030: cc41 993e 2c9a 903d 79e5 1fbe c022 d53b

bn1.running_var f4 [16]
0.05276129 0.014302345 0.04006758 0.0017618809 0.0301649 0.0037537005 0.003407119 0.0028006132
0.002886749 0.017781746 0.0102547575 0.014722202 0.04694828 0.00649172 0.016753899 0.0038915002
00000000: 391c 583d 6254 6a3c e71d 243d eaee e63a
00000010: 611c f73c a500 763b f949 5f3b 7e8a 373b
00000020: 9d2f 3d3b 06ab 913c 9203 283c 6435 713c
00000030: d74c 403d 7fb8 d43b 793f 893c 8a08 7f3b

bneck.0.se.se.1.weight f4 [4, 16, 1, 1]
0.11257941 -0.13298059 0.051216047 -0.08757684 -0.16876757 -0.10861479 0.22208576 -0.03729272
0.14414804 -0.0848784 0.2490354 -0.16687973 -0.054667614 -0.10200502 0.24371822 0.16511047
0.08257729 -0.026427519 0.4039035 0.20296048 -0.1049506 -0.047141053 0.047029175 -0.15993983
0.06155875 0.010317884 -0.03855096 0.22464392 0.0003247984 0.15700237 -0.04564204 -0.1045908
-0.13227604 -0.004229285 -0.048804164 -0.056167677 0.028845238 0.3308918 0.12400107 -0.20523016
-0.09509249 0.01960801 0.17415532 0.004040547 0.24728836 0.05926415 -0.04539083 -0.07836107
-0.08678701 -0.0542019 0.089161485 -0.1758113 0.05251258 0.19556029 -0.062957235 0.079095826
-0.21137933 0.15245077 -0.062250294 0.1401931 0.027846677 0.026773145 -0.19243693 0.12440526
00000000: 0990 e63d 102c 08be ebc7 513d 7c5b b3bd
00000010: 68d1 2cbe 6e71 debd 736a 633e 40c0 18bd
00000020: 8b9b 133e bad4 adbd 2303 7f3e 85e2 2abe
00000030: 26eb 5fbd 02e8 d0bd 4591 793e b812 293e
00000040: 481e a93d 867e d8bc 71cc ce3e dfd4 4f3e
00000050: 57f0 d6bd fa16 41bd aaa1 403d 44c7 23be
00000060: 0725 7c3d 580c 293c 9de7 1dbd 0e09 663e
00000070: b449 aa39 3bc5 203e 26f3 3abd b433 d6bd
00000080: 5f73 07be d095 8abb e0e6 47bd 1410 66bd
00000090: d94c ec3c a66a a93e 46f4 fd3d db27 52be
000000a0: dabf c2bd faa0 a03c c655 323e 9166 843b
000000b0: 2939 7d3e f7be 723d bceb 39bd c57b a0bd
000000c0: 63bd b1bd d002 5ebd 4c9a b63d e107 34be
000000d0: 6e17 573d f540 483e b9ef 80bd fefc a13d
000000e0: d373 58be 0e1c 1c3e 2afa 7ebd c88e 0f3e
000000f0: b71e e43c 5b53 db3c 300e 45be 2fc8 fe3d

bneck.0.se.se.2.weight f4 [4]
0.98481774 1.1225781 0.98278904 0.85338974
00000000: 041d 7c3f a4b0 8f3f 1098 7b3f c077 5a3f

bneck.0.se.se.2.bias f4 [4]
0.21544473 0.11163783 0.062909104 -0.12641524
00000000: 8b9d 5c3e 60a2 e43d 7dd6 803d ff72 01be

bneck.0.se.se.2.running_mean f4 [4]
-0.062333476 -0.07848928 0.063059874 0.05260184
00000000: 6351 7fbd fdbe a0bd 8925 813d 0775 573d

bneck.0.se.se.2.running_var f4 [4]
0.013430257 0.044975054 0.019981392 0.037635032
00000000: 950a 5c3c c337 383d 04b0 a33c 3127 1a3d

bneck.0.se.se.4.weight f4 [16, 4, 1, 1]
0.19110279 0.34506044 0.21474627 0.21400449 -0.23446016 -0.4193156 -0.0538767 0.3802725
-0.030936273 0.45448825 0.3287886 -0.12282027 0.34726143 -0.12436508 -0.37398934 -0.1383013
0.45289233 0.12421247 0.095103346 0.08504179 0.611413 0.44590738 -0.22322091 -0.011873101
-0.2677513 0.26548332 0.4628539 0.24206617 0.45713326 0.25165296 -0.2144407 -0.18715996
0.5538272 0.23701715 -0.15863888 0.044854667 0.06994079 0.27226317 0.34111682 -0.35743558
-0.2700971 0.032831017 -0.37822902 -0.15078737 -0.030274197 0.32733655 0.4065547 0.22253147
0.28231117 0.43820772 0.4982892 0.24662896 0.22362027 0.29949453 -0.17892444 -0.18806343
0.4792553 0.2306802 0.15532303 -0.37350562 -0.11051902 -0.049281687 0.1853081 0.3189289
00000000: 73b0 433e c3ab b03e 72e6 5b3e fe23 5b3e
00000010: 5316 70be 89b0 d6be d1ad 5cbd 14b3 c23e
00000020: 116e fdbc afb2 e83e fb56 a83e 3289 fbbd
00000030: 40cc b13e 1eb3 febd 887b bfbe db9e 0dbe
00000040: 81e1 e73e 1c63 fe3d 8bc5 c23d 642a ae3d
00000050: 9085 1c3f f94d e43e 0694 64be 6587 42bc
00000060: b316 89be 6eed 873e 30fb ec3e 32e0 773e
00000070: 5f0d ea3e a8d8 803e 5896 5bbe dca6 3fbe
00000080: 9fc7 0d3f a0b4 723e 3b72 22be 87b9 373d
00000090: 1e3d 8f3d 1466 8b3e dda6 ae3e cc01 b7be
000000a0: 2b4a 8abe d179 063d 3ca7 c1be 0168 1abe
000000b0: 9801 f8bc a898 a73e f027 d03e 4adf 633e
000000c0: 178b 903e c35c e03e c31f ff3e 4d8c 7c3e
000000d0: b6fc 643e 5957 993e f837 37be b393 40be
000000e0: f360 f53e 6e37 6c3e 000d 1f3e 213c bfbe
000000f0: cc57 e2bd 98db 49bd 68c1 3d3e a64a a33e

bneck.0.se.se.5.weight f4 [16]
1.0236169 0.87157834 1.1940628 0.86785513 1.2122302 0.96241194 0.9117686 0.9282728
0.913896 0.948833 0.7781753 0.89558023 1.0655944 1.0089954 0.96359503 0.7979414
00000000: e105 833f c21f 5f3f 0dd7 983f c12b 5e3f
00000010: 5c2a 9b3f a160 763f ab69 693f 49a3 6d3f
00000020: 17f5 693f b8e6 723f 7f36 473f bf44 653f
00000030: 6665 883f c326 813f 2aae 763f e345 4c3f

bneck.0.se.se.5.bias f4 [16]
-0.06409091 -0.0044221883 -0.081227876 0.08158174 -0.06512476 0.03441226 0.07450988 0.02779035
0.11735606 0.13964324 0.08230084 -0.0013873441 0.025328666 -0.05083157 -0.06813464 0.04202726
00000000: 1842 83bd 01e8 90bb cd5a a6bd 5414 a73d
00000010: 2160 85bd dff3 0c3d a398 983d 97a8 e33c
00000020: 6058 f03d a3fe 0e3e 588d a83d 8bd7 b5ba
00000030: 107e cf3c c434 50bd 2d8a 8bbd c724 2c3d

bneck.0.se.se.5.running_mean f4 [16]
0.43199217 -0.2519588 0.31945083 -0.07699941 0.3677513 0.46003968 0.25774115 0.2256756
0.36276293 0.2115226 -0.32533544 0.38681564 0.65452087 0.1444012 0.32816142 0.08369479
00000000: 142e dd3e be00 81be 0f8f a33e deb1 9dbd
00000010: e649 bc3e 528a eb3e a6f6 833e 8117 673e
00000020: 10bc b93e 6199 583e 5e92 a6be b30c c63e
00000030: ae8e 273f e8dd 133e c604 a83e 2d68 ab3d

bneck.0.se.se.5.running_var f4 [16]
0.10540357 0.27571377 0.12495076 0.07184793 0.113269575 0.4652718 0.07633445 0.25525084
0.23845457 0.12625109 0.06317145 0.0762845 0.23030919 0.16521579 0.28292084 0.060067557
00000000: d4dd d73d 5b2a 8d3e 2fe6 ff3d 0225 933d
00000010: e1f9 e73d 1b38 ee3e 3c55 9c3d 3db0 823e
00000020: 6f2d 743e f747 013e 0860 813d 0c3b 9c3d
00000030: 2cd6 6b3e 542e 293e 00db 903e 6609 763d

bneck.0.conv1.weight f4 [16, 16, 1, 1]
-0.100089446 -0.15891162 0.21941523 -0.06985745 -0.049595375 -0.1016892 -0.06506019 -0.0077962424
-0.050434824 0.0051730215 -0.0070231957 0.022348583 0.13125673 -0.078359395 -0.013085475 -0.2506281
-0.23321345 -0.10093384 0.08748777 0.16274895 0.027156241 0.10799104 -0.0463218 0.2786546
0.1121999 -0.18583085 -0.023905234 0.12747401 0.064207196 -0.25310028 -0.21103153 0.06899378
0.14824373 -0.21117802 0.14843108 0.100673646 -0.1550664 0.1984029 -0.0021947697 -0.023407718
-0.08639252 -0.042953916 0.20281179 0.20187838 -0.15378253 0.14197354 0.11849591 0.05190592
0.17497034 -0.20111436 -0.099996746 0.24102147 0.21465611 -0.15390094 0.031415876 -0.07309478
0.31862578 0.068779334 -0.05661058 0.035095453 -0.006974868 0.05848915 -0.10801931 0.04540224
-0.06613813 -0.12702961 -0.20961505 -0.04452711 -0.19351582 -0.054560356 -0.075194985 0.061248574
0.16143759 -0.12724853 0.23968345 -0.14845581 0.10598791 -0.18452063 -0.11575107 0.0008476644
-0.042173415 -0.16194755 -0.13310821 0.037924703 0.0335392 -0.11461513 0.26155093 0.03636043
-0.29223725 0.20414333 -0.2689152 0.09306956 0.18297933 -0.13397972 0.048221223 0.008659036
-0.0068323864 -0.07795906 -0.042825174 0.008719981 -0.15833794 -0.26419508 0.013031161 0.105624534
-0.20320827 0.08553907 -0.12464181 0.124919675 -0.03144713 -0.018190792 -0.048522074 -0.038974915
-0.15303147 0.1746933 0.16562903 0.07707603 -0.081387214 -0.12653226 0.15981011 0.28478748
-0.16912368 -0.07264895 -0.20381191 -0.063537635 -0.058345407 0.085586324 0.21739298 0.21435688
-0.023403378 0.29773557 0.05034712 0.013528186 -0.023292042 -0.035346318 -0.27453622 -0.002253627
0.0493526 -0.17997217 0.058071513 0.073360436 -0.16329873 -0.008856454 0.050849214 0.13501126
-0.07184215 -0.33938172 0.07375522 -0.024629889 0.10836874 -0.10497152 0.10573764 0.003285429
-0.045764126 0.1792328 0.18078993 -0.11888189 0.20138922 0.13669035 0.03706236 0.078023046
0.120706044 0.17382553 -0.035883784 -0.2643887 -0.17753562 0.004371741 -0.071694866 0.15892078
0.15537266 0.22743978 0.2668882 -0.010893546 0.21035215 -0.15131792 0.062070727 -0.08130141
0.060445342 -0.007433962 0.12263364 -0.11751766 -0.3335609 -0.009194448 -0.19418027 -0.121849045
0.27300677 0.0886518 -0.057189427 0.2062336 0.009033419 0.11104072 -0.07566537 0.17084742
0.24451427 0.18137854 -0.2356446 -0.06859101 0.16236596 -0.11147619 0.0852052 -0.024008213
0.03383592 -0.055620767 -0.07503803 -0.17759775 0.011742805 0.16315822 -0.08322486 -0.14195523
-0.1334189 -0.20307165 0.08400977 -0.07963295 0.10633843 -0.034558106 0.059171222 -0.07921714
-0.011879177 -0.18105318 -0.06489987 -0.02859848 0.024268627 0.2172142 0.017029423 -0.12829815
0.32618585 0.31101203 0.09694037 0.02530489 0.12241322 0.06276432 -0.16975355 -0.14636065
0.12889984 -0.056491286 0.050693426 0.09126033 0.044239715 0.061392833 -0.18988395 0.135599
0.20161511 0.23520859 0.017298428 -0.18061343 -0.1628444 -0.0057506063 0.13368052 -0.015195713
-0.10970301 -0.022124238 0.04911775 -0.0784693 0.15922204 -0.23064518 -0.17397967 -0.26424938
00000000: b2fb ccbd bab9 22be 63ae 603e 6c11 8fbd
00000010: 8524 4bbd 6d42 d0bd 473e 85bd 9f77 ffbb
00000020: bf94 4ebd 7382 a93b d622 e6bb 6014 b73c
00000030: 2a68 063e e47a a0bd 7664 56bc 5452 80be
00000040: 82cf 6ebe 67b6 cebd ca2c b33d a9a7 263e
00000050: c476 de3c 682a dd3d eebb 3dbd d1ab 8e3e
00000060: 10c9 e53d 714a 3ebe e9d4 c3bc 8c88 023e
00000070: 107f 833d 5c96 81be a618 58be 9c4c 8d3d
00000080: 34cd 173e 0d3f 58be 51fe 173e fc2d ce3d
00000090: bac9 1ebe 212a 4b3e 20d6 0fbb 8bc1 bfbc
000000a0: 90ee b0bd 72f0 2fbd e5ad 4f3e 35b9 4e3e
000000b0: 2b79 1dbe 8361 113e fcad f23d 4d9b 543d
000000c0: 6d2b 333e ecf0 4dbe 18cb ccbd 55ce 763e
000000d0: d0ce 5b3e 3598 1dbe efad 003d b7b2 95bd
000000e0: eb22 a33e 2edc 8c3d 7fe0 67bd 40c0 0f3d
000000f0: 6f8d e4bb 5292 6f3d 3a39 ddbd b3f7 393d
00000100: 6e73 87bd 0d14 02be 54a5 56be 0f62 36bd
00000110: 0329 46be ae7a 5fbd d4ff 99bd c9df 7a3d
00000120: e54f 253e 704d 02be 946f 753e cd04 18be
00000130: 3010 d93d faf2 3cbe e60e edbd cc35 5e3a
00000140: 08be 2cbd 94d5 25be 854d 08be ef56 1b3d
00000150: 6660 093d 56bb eabd 01ea 853e adee 143d
00000160: 1fa0 95be f30a 513e 41af 89be 419b be3d
00000170: ef5e 3b3e fb31 09be 9e83 453d a1de 0d3c
00000180: 36e2 dfbb 00a9 9fbd 7369 2fbd 40de 0e3c
00000190: 5723 22be 9444 87be a780 553c ad51 d83d
000001a0: d415 50be 1c2f af3d 3544 ffbd e3d5 ff3d
000001b0: b5ce 00bd db04 95bc 15bf 46bd 29a4 1fbd
000001c0: 48b4 1cbe cde2 323e a89a 293e 0ada 9d3d
000001d0: 57ae a6bd ac91 01be 43a5 233e aacf 913e
000001e0: c22e 2dbe f9c8 94bd 12b4 50be 0520 82bd
000001f0: 98fb 6ebd e247 af3d 449c 5e3e 5f80 5b3e
00000200: 71b8 bfbc cc70 983e c838 4e3d 53a5 5d3c
00000210: f4ce bebc 4dc7 10bd 0390 8cbe 96b1 13bb
00000220: f425 4a3d a04a 38be 65dc 6d3d ff3d 963d
00000230: c837 27be a91a 11bc 4447 503d 6440 0a3e
00000240: fa21 93bd 71c3 adbe fa0c 973d 9fc4 c9bc
00000250: 6ef0 dd3d 4ffb d6bd fa8c d83d 5a50 573b
00000260: 2a73 3bbd ce88 373e ff20 393e 5978 f3bd
00000270: fa38 4e3e 8ef8 0b3e b4ce 173d 8cca 9f3d
00000280: bb34 f73d 52ff 313e e0fa 12bd f55d 87be
00000290: e6cb 35be d240 8f3b c2d4 92bd 21bc 223e
000002a0: 031a 1f3e f9e5 683e 92a5 883e d87a 32bc
000002b0: 8e66 573e 16f3 1abe e03d 7e3d 5b81 a6bd
000002c0: 8995 773d 9898 f3bb 5927 fb3d 19ad f0bd
000002d0: 7fc8 aabe 4fa4 16bc 31d7 46be fe8b f9bd
000002e0: 8bc7 8b3e 138f b53d 763f 6abd e72e 533e
000002f0: e800 143c 5169 e33d 72f6 9abd a0f2 2e3e
00000300: f361 7a3e 4cbb 393e d14c 71be 7279 8cbd
00000310: 4343 263e a14d e4bd 1080 ae3d dfac c4bc
00000320: 8997 0a3d 9ad2 63bd 8aad 99bd 2fdc 35be
00000330: e564 403c f312 273e cc71 aabd b65c 11be
00000340: f79e 08be 04f2 4fbe 500d ac3d 9a16 a3bd
00000350: f6c7 d93d cd8c 0dbd 865d 723d 993c a2bd
00000360: e1a0 42bc 0166 39be 39ea 84bd 5c47 eabc
00000370: 00cf c63c 666d 5e3e 4a81 8b3c 9760 03be
00000380: d501 a73e f83c 9f3e ac88 c63d 334c cf3c
00000390: c8b3 fa3d 948a 803d e0d3 2dbe 91df 15be
000003a0: 52fe 033e 6863 67bd e9a3 4f3d b2e6 ba3d
000003b0: b434 353d 0d77 7b3d f070 42be 77da 0a3e
000003c0: 3174 4e3e 85da 703e 6fb5 8d3c baf2 38be
000003d0: afc0 26be 956f bcbb 8ce3 083e 71f7 78bc
000003e0: f9ab e0bd e43d b5bc b22f 493d 83b4 a0bd
000003f0: 1a0b 233e 402e 6cbe ba27 32be b24b 87be

bneck.0.bn1.weight f4 [16]
0.7241805 0.73393786 0.9314918 0.81010586 0.65383536 0.74927264 0.77045625 0.9235894
0.8985567 0.5921183 0.88401383 0.9557644 0.9236105 0.6416381 0.91272324 0.9596549
00000000: e563 393f 5ae3 3b3f 3f76 6e3f 1963 4f3f
00000010: c161 273f 55d0 3f3f 9f3c 453f 5b70 6c3f
00000020: d007 663f 1195 173f bb4e 623f faac 743f
00000030: bd71 6c3f 6542 243f 3ba8 693f f2ab 753f

bneck.0.bn1.bias f4 [16]
0.21554066 0.17387524 -0.058980685 0.07669855 0.17745885 0.07384199 0.07158473 -0.027885616
0.032027405 0.22543453 0.010704411 0.015888393 -0.059315573 0.25659233 0.019198146 -0.023022221
00000000: b1b6 5c3e 5a0c 323e bb95 71bd 2114 9d3d
00000010: c6b7 353e 783a 973d 049b 923d 6070 e4bc
00000020: 2b2f 033d 4fd8 663e 8e61 2f3c 6028 823c
00000030: e3f4 72bd 1260 833e 6e45 9d3c 1999 bcbc

bneck.0.bn1.running_mean f4 [16]
-0.103780225 0.018246185 0.09423653 0.06824654 -0.12096101 -0.04432203 -0.09370574 0.0997659
0.024539612 0.04496736 0.108283736 0.025224078 -0.012941112 -0.09172849 0.15818797 -0.062777534
00000000: ba8a d4bd 0679 953c 15ff c03d d8c4 8b3d
00000010: 68ba f7bd 048b 35bd cce8 bfbd 1052 cc3d
00000020: 4c07 c93c b22f 383d ddc3 dd3d baa2 ce3c
00000030: f506 54bc 26dc bbbd 07fc 213e 8291 80bd

bneck.0.bn1.running_var f4 [16]
0.06699359 0.10274463 0.09787645 0.07258517 0.1568273 0.107785486 0.052740023 0.14651059
0.16140194 0.298062 0.053620957 0.12704489 0.083719745 0.030549495 0.1343266 0.18560258
00000000: ef33 893d c76b d23d 7373 c83d 89a7 943d
00000010: 5697 203e a3be dc3d ec05 583d df06 163e
00000020: 8d46 253e 959b 983e a6a1 5b3d 0e18 023e
00000030: 4275 ab3d ef42 fa3c ea8c 093e 9a0e 3e3e

bneck.0.conv2.weight f4 [16, 1, 3, 3]
-0.085878655 -0.20848374 -0.4376803 -0.07961074 -0.08304651 0.060265686 0.0775763 0.30419555
-0.15138093 -0.01873861 -0.3224646 0.01981331 -0.3986271 -0.4070572 0.102856204 0.10703293
-0.11749151 0.100498065 0.13856211 -0.10657051 -0.07502811 -0.4457972 -0.5836304 -0.13894674
-0.29139322 -0.5072611 -0.27800778 -0.0062763114 -0.21258937 -0.17062435 -0.34946153 -0.28915322
-0.17792995 -0.16905195 -0.014284487 0.03004395 0.40147376 0.29895666 0.17549574 0.096506424
-0.14594686 0.2910243 0.17034367 0.26210597 -0.034360286 0.16953512 -0.07914514 0.053192418
-0.05470737 0.22553386 0.0263791 -0.140736 -0.35591587 0.06772555 0.17507008 0.19469002
-0.027630093 0.06756364 0.22502863 0.33803612 -0.1669304 -0.0061775725 0.28441414 0.19565062
0.11187827 -0.007614793 0.18695523 0.21376841 0.15646376 0.10436737 0.19010466 -0.10616935
0.07251797 -0.30017596 -0.37132013 0.120716505 0.21555485 -0.24470884 0.33164313 -0.075364515
0.1956821 0.2531128 0.24683018 -0.27577513 0.2567276 0.10913766 0.073111795 -0.29996607
-0.005120123 -0.29305834 0.055499956 0.23331542 0.1614914 0.38987643 0.22117035 0.10262918
0.21879052 -0.23507234 0.07350207 -0.14109972 -0.44810012 -0.15313631 -0.26413706 -0.41173643
-0.080458924 -0.099428594 -0.12955578 0.057556517 0.1492013 -0.074079044 0.18494266 0.1988651
0.39941332 0.045349594 0.28467292 0.52304715 -0.048767015 0.25121868 -0.12660639 -0.20756772
0.12236051 -0.074846305 -0.38140008 0.2325638 0.028795741 0.0017882279 0.15749069 -0.07330107
0.20198138 0.11835159 0.25569606 0.14947705 -0.052428987 0.0027672383 0.037437774 0.10428477
0.11932313 -0.044304945 0.16275473 0.04313403 0.032912478 -0.40435463 -0.05885516 0.20020214
00000000: 26e1 afbd c37c 55be a217 e0be f50a a3bd
00000010: 4a14 aabd 27d9 763d 53e0 9e3d 85bf 9b3e
00000020: 9a03 1bbe b781 99bc 141a a5be 864f a23c
00000030: da18 ccbe cd69 d0be 46a6 d23d 1534 db3d
00000040: 649f f0bd eed1 cd3d 3ae3 0d3e a441 dabd
00000050: 56a8 99bd 883f e4be cd68 15bf 0e48 0ebe
00000060: 7e31 95be dddb 01bf 0957 8ebe 84a9 cdbb
00000070: 07b1 59be 26b8 2ebe 9fec b2be e40b 94be
00000080: 4533 36be f41b 2dbe 7b09 6abc bb1e f63c
00000090: f88d cd3e d910 993e 28b5 333e 29a5 c53d
000000a0: 1873 15be 2301 953e 926e 2e3e c132 863e
000000b0: 5fbd 0cbd 9d9a 2d3e d916 a2bd 4be0 593d
000000c0: d614 60bd 59f2 663e fb18 d83c 191d 10be
000000d0: 9b3a b6be b1b3 8a3d 9245 333e d25c 473e
000000e0: 8158 e2bc ce5e 8a3d e86d 663e 1213 ad3e
000000f0: ceef 2abe 3c6d cabb bb9e 913e a358 483e
00000100: 6f20 e53d 8385 f9bb 3171 3f3e 1be6 5a3e
00000110: 0938 203e 8fbe d53d ccaa 423e 516f d9bd
00000120: 4d84 943d aab0 99be ac1d bebe 373a f73d
00000130: 69ba 5c3e f494 7abe 21cd a93e b658 9abd
00000140: e360 483e 0098 813e 0dc1 7c3e 6632 8dbe
00000150: cd71 833e 9183 df3d a3bb 953d 2795 99be
00000160: b4c6 a7bb be0b 96be ec53 633d 3dea 6e3e
00000170: 005e 253e e29d c73e 7b7a 623e 3f2f d23d
00000180: 9f0a 603e ceb6 70be 4188 963d 727c 10be
00000190: 616d e5be c4cf 1cbe f93c 87be 1ecf d2be
000001a0: a6c7 a4bd 38a1 cbbd 45aa 04be 62c0 6b3d
000001b0: 3ac8 183e c1b6 97bd 9c61 3d3e 4ba3 4b3e
000001c0: e77f cc3e 7fc0 393d a6c0 913e 6be6 053f
000001d0: ecbf 47bd bc9f 803e 1ba5 01be a28c 54be
000001e0: 2698 fa3d 0549 99bd df46 c3be 3425 6e3e
000001f0: 0ce5 eb3c f962 ea3a 3d45 213e df1e 96bd
00000200: 35d4 4e3e 5262 f23d 98ea 823e 8310 193e
00000210: c7bf 56bd 8e5a 353b 5a58 193d 4193 d53d
00000220: af5f f43d 1a79 35bd 2da9 263e 4fad 303d
00000230: 3ccf 063d 9207 cfbe 1c12 71bd ca01 4d3e

bneck.0.bn2.weight f4 [16]
0.91475546 0.995166 1.091309 1.0714449 0.95381224 0.8863162 0.94832236 1.0226872
0.91001993 0.9368436 0.9844274 1.1484942 1.0880508 0.9170002 1.0061973 1.0229204
00000000: 6a2d 6a3f 33c3 7e3f 03b0 8b3f 1b25 893f
00000010: 0a2d 743f 9ee5 623f 41c5 723f 6ae7 823f
00000020: 11f7 683f fbd4 6f3f 6f03 7c3f dc01 933f
00000030: 4045 8b3f 86c0 6a3f 13cb 803f 0eef 823f

bneck.0.bn2.bias f4 [16]
0.059910726 0.03477908 0.26260468 0.06554777 -0.0044252984 0.012202538 -0.0370432 0.059866842
0.12774701 0.13896409 0.017188324 0.03986327 0.15097173 0.060562383 -0.0042517 0.0076373103
00000000: f364 753d 8274 0e3d 1f74 863e e93d 863d
00000010: 1802 91bb 27ed 473c 9cba 17bd ef36 753d
00000020: 1dd0 023e 9a4c 0e3e 87ce 8c3c ab47 233d
00000030: 5598 1a3e 4310 783d d851 8bbb 6742 fa3b

bneck.0.bn2.running_mean f4 [16]
-0.20208526 -0.32547164 -0.47797737 -0.33278978 0.5536967 -0.033506654 0.35817933 0.3146337
-0.014076004 0.014956793 0.37593904 -0.4086264 0.37215665 -0.06512701 0.315509 0.035763912
00000000: 70ef 4ebe 38a4 a6be 73b9 f4be 6c63 aabe
00000010: 11bf 0d3f 463e 09bd 4863 b73e ab17 a13e
00000020: 0a9f 66bc 560d 753c 157b c03e 7b37 d1be
00000030: 518b be3e 4f61 85bd 658a a13e 2e7d 123d

bneck.0.bn2.running_var f4 [16]
0.04460899 0.23375864 1.6573497 0.32873714 0.3633447 0.02660051 0.13678324 0.29138038
0.044475 0.012239104 0.37195835 0.6152346 0.2624614 0.05307348 0.16229293 0.018243546
00000000: ebb7 363d 6d5e 6f3e 0924 d43f 3c50 a83e
00000010: 5108 ba3e 50e9 d93c e810 0c3e cf2f 953e
00000020: 6b2b 363d 8686 483c 5371 be3e 0480 1d3f
00000030: 5761 863e 9463 593d 1e30 263e 7d73 953c

bneck.0.conv3.weight f4 [16, 16, 1, 1]
-0.18566592 0.18023597 0.19872889 -0.20021416 -0.10595548 -0.052076686 -0.1848687 0.14593147
-0.16363598 -0.17638326 -0.12179736 -0.016640298 0.18233141 0.21319452 -0.0045964853 0.037927717
-0.031277142 -0.10794351 -0.032873824 -0.15838912 -0.12307049 0.22072782 -0.051688705 -0.19979236
0.11838349 0.02335236 0.14711894 0.25195605 -0.046364456 -0.044661094 0.23921826 0.18412939
0.15912798 0.08059907 0.031522848 -0.039272375 -0.14886872 -0.08762947 0.08423468 -0.01704511
-0.11174878 -0.10426495 0.16056374 -0.1826414 0.024087708 0.13469358 -0.017348314 -0.29178256
-0.11404663 0.13753909 0.16894759 0.25710544 0.21366055 0.13101219 0.14702882 -0.02265187
0.02136817 0.11414995 -0.16566795 0.34832036 -0.016395824 -0.035446856 0.009423591 -0.07496327
-0.13156816 -0.11007261 -0.36771214 -0.29482675 -0.10222391 0.055899136 0.037047658 -0.163918
-0.17920837 -0.03267171 0.020992288 -0.04792273 0.079526275 0.17568642 0.036220014 0.19186024
0.24079728 0.005670655 -0.036668226 -0.07361459 0.23163395 -0.08034791 -0.14381228 0.24802479
-0.013193478 -0.057904776 -0.054950815 -0.089746304 -0.28097436 0.03392396 -0.16717638 0.14652324
-0.068106495 0.034284204 -0.18121332 0.22290212 0.14464828 0.04562804 0.03724479 -0.03882555
-0.007843877 -0.18900156 0.043153275 -0.20231254 -0.09989521 -0.14278497 0.12093669 -0.10508608
-0.16535969 -0.11609213 -0.011038756 0.21881434 0.050563842 0.1700032 0.13481031 0.25968108
0.2527423 0.23544581 0.11074001 -0.095133625 0.22657506 0.032809608 0.10140127 0.15858163
-0.19238394 0.015691549 -0.25617173 0.06108617 0.26631454 -0.08187158 -0.20233008 0.10720517
-0.103340976 0.11482352 -0.14012662 -0.07189957 0.18710154 0.014045627 0.084889315 -0.059936788
-0.090191245 0.27716854 0.279735 0.04664821 0.1323507 -0.08861302 -0.03582114 -0.007826994
-0.19312927 0.05811834 0.0658981 0.24250473 0.24099316 -0.09146263 -0.091253914 0.0017733101
0.18375376 -0.18260962 0.04529455 -0.16575427 0.07178435 -0.10913427 -0.06565117 0.068287596
-0.21384254 0.12237789 0.056897897 0.04287289 -0.3345247 -0.24859603 -0.18496339 -0.09240845
0.15794021 -0.10175878 0.02573864 -0.21870904 -0.10866612 0.0073627494 -0.008040915 -0.10359008
0.22244552 -0.17034242 -0.24639052 -0.23345539 -0.16357717 0.25088155 0.20392214 0.13675335
0.34211087 0.073089555 -0.0013036178 -0.09906245 -0.022127384 0.21358983 -0.1597835 0.077308625
0.1263143 0.16948202 -0.29280365 -0.17531049 0.20404859 -0.04379061 -0.14714287 0.021912405
0.0077764126 -0.09920263 0.13514103 -0.12573034 0.04605891 -0.122870006 -0.18641867 -0.12818186
-0.1598285 -0.06325622 -0.09733038 -0.12008144 0.011487107 0.12982067 0.067501605 0.22828239
0.07767009 -0.09792787 0.08963385 0.11158505 -0.071912155 0.12083497 -0.09185321 -0.15683377
0.11255799 -0.17689033 -0.23533554 0.21732093 -0.031242827 0.1601592 0.25530127 -0.19526383
-0.14696151 0.23470616 0.045871075 -0.2622233 0.24385591 0.118733235 -0.18626183 -0.2671804
-0.0637047 -0.04553828 0.03475892 0.022653088 0.23104732 0.032178074 -0.0073396773 0.012215357
00000000: 351f 3ebe c78f 383e 967f 4b3e f104 4dbe
00000010: 30ff d8bd 5d4e 55bd 384e 3dbe 0f6f 153e
00000020: 3190 27be d09d 34be e570 f9bd 3c51 88bc
00000030: 16b5 3a3e aa4f 5a3e 1d9e 96bb 185a 1b3d
00000040: 761c 00bd 7d11 ddbd b4a6 06bd c230 22be
00000050: 620c fcbd 7906 623e 89b7 53bd 5e96 4cbe
00000060: 0b73 f23d 734d bf3c 59a6 163e 6200 813e
00000070: a8e8 3dbd 8dee 36bd a2f5 743e 6a8c 3c3e
00000080: 72f2 223e 2011 a53d 1a1e 013d 12dc 20bd
00000090: 0b71 18be 1477 b3bd 3b83 ac3d 30a2 8bbc
000000a0: 8bdc e4bd dd88 d5bd d26a 243e 5906 3bbe
000000b0: 9653 c53c 1ded 093e 0d1e 8ebc 8664 95be
000000c0: 4891 e9bd 0cd7 0c3e 9900 2d3e 53a3 833e
000000d0: d5c9 5a3e 0f28 063e b98e 163e 6a90 b9bc
000000e0: 4d0c af3c 73c7 e93d dca4 29be 0c57 b23e
000000f0: 8950 86bc b930 11bd 6865 1a3c 5886 99bd
00000100: ceb9 06be c06d e1bd c444 bcbe 88f3 96be
00000110: c55a d1bd 7ef6 643d 49bf 173d 1fda 27be
00000120: 6682 37be c5d2 05bd 05f8 ab3c a04a 44bd
00000130: acde a23d 24e7 333e 705b 143d 0377 443e
00000140: 9093 763e e7d0 b93b 6c31 16bd 3fc3 96bd
00000150: 7331 6d3e 728d a4bd 8743 13be 36fa 7d3e
00000160: 7529 58bc 8f2d 6dbd 1b14 61bd e9cc b7bd
00000170: dfdb 8fbe daf3 0a3d 4930 2bbe 300a 163e
00000180: 6b7b 8bbd 986d 0c3d fc8f 39be 7440 643e
00000190: ae1e 143e 78e4 3a3d fe8d 183d 8a07 1fbd
000001a0: 9b83 00bc a089 41be 7dc1 303d 052b 4fbe
000001b0: dc95 ccbd 3936 12be a8ad f73d 5f37 d7bd
000001c0: 0d54 29be b6c1 edbd e6db 34bc de10 603e
000001d0: 081c 4f3d 5215 2e3e b70b 0a3e ebf4 843e
000001e0: 7067 813e b518 713e a9cb e23d 6bd5 c2bd
000001f0: 4b03 683e 5e63 063d 78ab cf3d 3963 223e
00000200: 4c00 45be 908b 803c f128 83be 7e35 7a3d
00000210: 615a 883e 49ac a7bd 9e2f 4fbe 628e db3d
00000220: 6fa4 d3bd 9828 eb3d 5a7d 0fbe 1540 93bd
00000230: 8c97 3f3e a11f 663c 73da ad3d 4780 75bd
00000240: 30b6 b8bd 09e9 8d3e 6d39 8f3e 3212 3f3d
00000250: f186 073e be7a b5bd 30b9 12bd cb3c 00bc
00000260: aec3 45be 7f0d 6e3d 95f5 863d 2953 783e
00000270: e9c6 763e c250 bbbd 55e3 babd 6a6e e83a
00000280: f229 3c3e 04fe 3abe c786 393d 7dbb 29be
00000290: ac03 933d ca81 dfbd 1f74 86bd 5eda 8b3d
000002a0: 8af9 5abe 42a1 fa3d c50d 693d 7c9b 2f3d
000002b0: d246 abbe f58f 7ebe 0b67 3dbe a440 bdbd
000002c0: 14bb 213e e866 d0bd d7d9 d23c 43f5 5fbe
000002d0: 588c debd 3843 f13b 0bbe 03bc 0927 d4bd
000002e0: c2c8 633e 3e6e 2ebe cc4d 7cbe ee0e 6fbe
000002f0: c680 27be 8c73 803e f7d0 503e 1209 0c3e
00000300: 2829 af3e faaf 953d 28de aaba 41e1 cabd
00000310: 7d44 b5bc 4bb7 5a3e 499e 23be fc53 9e3d
00000320: 8958 013e b28c 2d3e 5cea 95be 9884 33be
00000330: 1df2 503e c85d 33bd 9fac 16be a581 b33c
00000340: 47d1 fe3b c02a cbbd 6962 0a3e 74bf 00be
00000350: 45a8 3c3d 45a3 fbbd 89e4 3ebe 1b42 03be
00000360: 15aa 23be 7a8c 81bd 2655 c7bd 42ed f5bd
00000370: 6b34 3c3c b6ef 043e 483e 8a3d dcc2 693e
00000380: 7f11 9f3d 688e c8bd f491 b73d b486 e43d
00000390: ae46 93bd 5378 f73d 891d bcbd 0899 20be
000003a0: ce84 e63d bd22 35be cdfb 70be 6189 5e3e
000003b0: f5f0 ffbc c600 243e d9b6 823e 3ef3 47be
000003c0: 147d 16be d056 703e 4fe3 3b3d 2242 86be
000003d0: 5db5 793e 692a f33d 6cbb 3ebe dfcb 88be
000003e0: 9c77 82bd 5986 3abd 5f5f 0e3d f892 b93c
000003f0: ab97 6c3e 28cd 033d ad81 f0bb ec22 483c

bneck.0.bn3.weight f4 [16]
0.95609105 0.9042417 0.9957413 1.0259368 1.0363977 1.0404619 1.0085707 1.027229
1.0797535 1.0905218 0.98988926 0.9417687 1.0749123 0.9544239 0.9788135 0.95449746
00000000: 62c2 743f 627c 673f e7e8 7e3f e651 833f
00000010: aea8 843f db2d 853f d818 813f 3d7c 833f
00000020: 5d35 8a3f 3896 8b3f 6269 7d3f c117 713f
00000030: ba96 893f 2055 743f 8693 7a3f f259 743f

bneck.0.bn3.bias f4 [16]
-0.033636417 -0.03657633 -0.17082481 -0.020258693 0.16401047 -0.01969507 0.037801802 0.03334849
-0.08406595 0.04418933 0.04309431 0.14993532 0.16779315 -0.07613375 -0.038134992 0.018485365
00000000: 57c6 09bd 10d1 15bd b3ec 2ebe 8ff5 a5bc
00000010: 5cf2 273e 8e57 a1bc 10d6 1a3d 6d98 083d
00000020: c52a acbd dfff 343d a983 303d a588 193e
00000030: f8d1 2b3e 03ec 9bbd 7033 1cbd 9f6e 973c

bneck.0.bn3.running_mean f4 [16]
-0.088219695 0.107480906 -0.08552436 0.42583832 -0.37472177 -0.04758089 -0.13684973 0.5274865
-0.10951018 0.3400397 -0.3299623 -0.15560861 0.0684089 -0.15044889 0.051740166 0.0018888462
00000000: 87ac b4bd f31e dc3d 6527 afbd 7b07 da3e
00000010: 88db bfbe 2ee4 42bd 5622 0cbe 5b09 073f
00000020: e046 e0bd af19 ae3e d2f0 a8be dd57 1fbe
00000030: f719 8c3d 460f 1abe 7fed 533d 2993 f73a

bneck.0.bn3.running_var f4 [16]
0.11663628 0.09660866 0.06592211 0.098581925 0.08704316 0.13144763 0.069557145 0.27606705
0.06481039 0.15692714 0.20975102 0.2631469 0.27294087 0.08321621 0.22895746 0.17365113
00000000: 01df ee3d c3da c53d 2c02 873d 52e5 c93d
00000010: af43 b23d 359a 063e fa73 8e3d a958 8d3e
00000020: 4fbb 843d 82b1 203e f9c8 563e 31bb 863e
00000030: e8be 8b3e 436d aa3d d373 6a3e 9ad1 313e

bneck.1.conv1.weight f4 [72, 16, 1, 1]
-0.19514182 0.113937676 0.049543027 -0.18162934 0.10522835 -0.19006515 0.22865148 0.11732082
0.18689029 -0.027809868 -0.020911973 0.17152594 0.0046852166 -0.16439497 -0.0933871 -0.0022509564
-0.0051107253 -0.066220224 0.1365012 -0.18329385 -0.1414513 0.20443915 0.04953842 -0.20999256
0.19326137 -0.29422757 0.104611166 0.029428292 0.117893085 0.1135931 -0.22484745 0.15186043
-0.076859556 -0.1971346 0.027820123 0.007198441 -0.027466908 -0.25449622 0.05727793 -0.32605568
-0.07342907 0.082781725 0.26842314 0.10563898 -0.02554535 -0.14119914 -0.10688036 0.020145006
-0.23697212 -0.1988507 -0.11608496 -0.33133006 0.120863706 0.20857525 0.17198242 -0.14354461
0.25400582 0.17567 0.100540325 0.036128953 0.1462852 0.1797187 -0.013412441 -0.037803836
0.16013384 -0.11882519 -0.08502151 0.13585453 0.037366856 0.11951801 -0.2643757 0.008270278
-0.12622648 0.18950246 -0.039947845 -0.019612165 0.246632 -0.12642153 0.114014804 0.17983405
-0.25066552 -0.14894196 0.17226146 -0.14883828 -0.27707234 0.04849706 -0.033809017 -0.18943295
0.056701828 0.16966203 0.29260954 0.11722153 -0.15591006 0.12826087 0.16868104 0.07437361
0.02467994 0.1004068 0.024378898 -0.18280172 0.25816512 0.14753206 0.21680154 -0.17192294
-0.12330007 -0.0827487 0.020680955 0.09056323 -0.13182558 0.14854594 -0.08301006 0.15425
0.1489128 -0.16095541 -0.09283974 -0.048660785 0.078509316 0.048424497 -0.0051045287 -0.03963056
-0.35255182 -0.04620541 0.2887865 -0.2573843 -0.12338548 -0.20925726 -0.0628202 0.08875605
-0.06769872 -0.018432748 -0.10386381 -0.18936531 0.24963126 0.2110739 0.12629369 0.04572048
0.05912024 -0.19868699 -0.02781422 -0.016314521 -0.064191 0.049475476 0.15205456 0.1250275
0.13047525 -0.19653106 -0.03826203 0.14219898 -0.103260145 -0.13405971 0.06872102 -0.25379106
-0.13388601 -0.21231882 0.17893586 -0.012838444 -0.18120849 -0.032089382 -0.008828638 0.019507203
-0.1249853 -0.1371247 0.13895883 0.14236961 0.13724966 0.16799453 3.513797e-05 0.10800333
-0.25611308 -0.26319885 -0.0112326145 0.13205032 -0.14766568 0.12606981 0.014276405 0.005727437
0.056737985 0.009268019 -0.13070315 -0.12882277 0.07770006 -0.019355914 -0.20142595 -0.09781855
0.21036217 -0.28460106 0.06065798 0.20123257 0.2713579 -0.0067146188 -0.08856987 -0.11160892
-0.05735068 -0.098937646 0.07664573 -0.24422185 0.11437365 -0.010488885 -0.2054347 -0.07773379
-0.15090378 0.06067884 0.048910618 -0.15421975 -0.060555708 -0.006252556 -0.113418184 0.18756695
0.12026723 0.12875456 -0.23395249 -0.20416339 0.3043749 -0.14869986 0.17123018 0.19281392
-0.15366721 -0.029747322 -0.17929885 -0.081556365 -0.088375956 -0.066150926 0.14530212 -0.0053849765
0.09094094 0.15026012 -0.03472294 -0.24841401 0.051764876 -0.028595366 -0.19009472 0.20964652
-0.059067395 0.034106936 0.07706714 0.21700527 -0.037605815 0.046860185 -0.108248726 0.21595365
-0.0448893 -0.20001616 0.16005722 -0.0053529018 -0.00961036 0.15561719 -0.015075602 0.1507778
-0.09816182 -0.057220265 -0.048954096 -0.29011637 -0.1431794 0.08106565 -0.2100298 -0.06253318
00000000: 42d3 47be 2858 e93d a1ed 4a3d 0bfd 39be
00000010: f681 d73d 70a0 42be 9d23 6a3e e645 f03d
00000020: 2b60 3f3e 85d1 e3bc 964f abbc 7fa4 2f3e
00000030: 7286 993b 2857 28be bc41 bfbd c884 13bb
00000040: df77 a7bb 789e 87bd f8c6 0b3e 62b1 3bbe
00000050: 9cd8 10be 7f58 513e cce8 4a3d 4a08 57be
00000060: 4fe6 453e ffa4 96be 613e d63d 9a13 f13c
00000070: ee71 f13d 80a3 e83d 693e 66be 4d81 1b3e
00000080: 8b68 9dbd a7dd 49be 07e7 e33c e6e0 eb3b
00000090: 4802 e1bc 544d 82be 439c 6a3d c5f0 a6be
000000a0: fb61 96bd 7789 a93d c26e 893e 4059 d83d
000000b0: 7b44 d1bc 8296 10be 17e4 dabd 2407 a53c
000000c0: d2a8 72be 859f 4bbe f4bd edbd 18a4 a9be
000000d0: 6487 f73d c094 553e 291c 303e 5cfd 12be
000000e0: 0d0d 823e d6e2 333e 16e8 cd3d f4fb 133d
000000f0: cacb 153e 2e08 383e dbbf 5bbc 32d8 1abd
00000100: 20fa 233e 9f5a f3bd c21f aebd 731d 0b3e
00000110: fd0d 193d dcc5 f43d 405c 87be 0f80 073c
00000120: 8441 01be ef0c 423e 5aa0 23bd b1a9 a0bc
00000130: 198d 7c3e a574 01be 9880 e93d 6b26 383e
00000140: 3b57 80be 3e84 18be 4f65 303e 1069 18be
00000150: 6ddc 8dbe daa4 463d 537b 0abd b6fa 41be
00000160: 2d40 683d e2bb 2d3e ebd0 953e d711 f03d
00000170: e3a6 1fbe d156 033e b9ba 2c3e 3151 983d
00000180: 962d ca3c 15a2 cd3d 41b6 c73c 6030 3bbe
00000190: 382e 843e a512 173e 3901 5e3e 910c 30be
000001a0: bf84 fcbd 2778 a9bd 1b6b a93c 3779 b93d
000001b0: 49fd 06be 6d1c 183e 2e01 aabd b6f3 1d3e
000001c0: 997c 183e 7fd1 24be c322 bebd 8850 47bd
000001d0: 7ec9 a03d c458 463d e443 a7bb a753 22bd
000001e0: ac81 b4be e241 3dbd d3db 933e e0c7 83be
000001f0: 87b1 fcbd 8947 56be e1a7 80bd bbc5 b53d
00000200: a0a5 8abd 4600 97bc 8db6 d4bd fbe8 41be
00000210: 569f 7f3e c223 583e 2253 013e 6645 3b3d
00000220: 1128 723d 9a74 4bbe a6da e3bc 08a6 85bc
00000230: 9276 83bd cca6 4a3d 31b4 1b3e 3507 003e
00000240: 4e9b 053e 703f 49be a5b8 1cbd 9c9c 113e
00000250: 0e7a d3bd f346 09be 9bbd 8c3d e7f0 81be
00000260: 6a19 09be 1b6a 59be f63a 373e 5658 52bc
00000270: b88e 39be 2870 03bd fea5 10bc 92cd 9f3c
00000280: 4bf8 ffbd 6b6a 0cbe 394b 0e3e 57c9 113e
00000290: 2d8b 0c3e c206 2c3e 1c61 1338 da30 dd3d
000002a0: 4121 83be 00c2 86be 0009 38bc 3338 073e
000002b0: ac35 17be 7218 013e 95e7 693c 39ad bb3b
000002c0: 1766 683d e4d8 173c 0cd7 05be 1eea 03be
000002d0: 3621 9f3d 4b90 9ebc 9b42 4ebe 1855 c8bd
000002e0: 2e69 573e 3bb7 91be 8174 783d e90f 4e3e
000002f0: 6cef 8a3e 4e06 dcbb 1f64 b5bd 3893 e4bd
00000300: 8ce8 6abd d29f cabd 70f8 9c3d 4b15 7abe
00000310: bb3c ea3d 93d9 2bbc 795d 52be e532 9fbd
00000320: 8586 1abe 608a 783d 8056 483d c8eb 1dbe
00000330: 4309 78bd 3ee2 ccbb cb47 e8bd 8d11 403e
00000340: aa4e f63d 3cd8 033e 3e91 6fbe 3510 51be
00000350: 07d7 9b3e c744 18be f756 2f3e 0371 453e
00000360: f05a 1dbe a8b0 f3bc 1e9a 37be 0607 a7bd
00000370: 74fe b4bd 237a 87bd 14ca 143e 7574 b0bb
00000380: 3e3f ba3d cadd 193e a439 0ebd 3e60 7ebe
00000390: 6807 543d d440 eabc 31a8 42be 94ad 563e
000003a0: a7f0 71bd b7b3 0b3d 60d5 9d3d a136 5e3e
000003b0: 8e08 1abd 77f0 3f3d 82b1 ddbd f422 5d3e
000003c0: d8dd 37bd 09d1 4cbe 0ae6 233e 6567 afbb
000003d0: c574 1dbc 1d5a 1f3e a8ff 76bc 7f65 1a3e
000003e0: 1009 c9bd cc5f 6abd 1784 48bd 228a 94be
000003f0: 9f9d 12be bf05 a63d 0d12 57be 6511 80bd

bneck.1.bn1.weight f4 [72]
0.7610357 0.47886762 0.89968073 0.80964357 0.70651394 0.7763491 0.7465449 0.8338989
0.58344185 0.8091017 0.77067703 0.58890367 0.7633627 0.8430713 0.852081 0.77593184
0.6154713 0.73150826 0.70179397 0.79503405 0.5946495 0.7790907 0.87969637 0.9212944
0.5990572 0.5328185 0.848889 0.6944007 0.81727284 0.9301287 0.7341922 0.81295353
0.84115404 0.6403058 0.68263644 0.7367497 0.79969734 0.75180393 0.43269286 0.7430056
0.7340357 0.83130693 0.66520345 0.9189876 0.6745359 0.7818747 0.7878692 0.553879
0.74957454 0.71044636 0.7508721 0.832076 0.82506067 0.7049179 0.5063197 0.7902307
0.677818 0.7394275 0.86096495 0.7728599 0.8054584 0.74460757 0.8654747 0.729896
0.78732854 0.6802072 0.7980236 0.8813168 0.71175325 0.7574803 0.64469606 0.5790522
00000000: 3cd3 423f 232e f53e 7a51 663f cd44 4f3f
00000010: 19de 343f d1be 463f 911d 3f3f 667a 553f
00000020: 725c 153f 4a21 4f3f 174b 453f 64c2 163f
00000030: bd6b 433f 85d3 573f fb21 5a3f 78a3 463f
00000040: 878f 1d3f 2044 3b3f c5a8 333f 5a87 4b3f
00000050: f33a 183f 7d72 473f c833 613f f3d9 6b3f
00000060: d05b 193f cb66 083f ca50 593f 3fc4 313f
00000070: cb38 513f ea1c 6e3f 05f4 3b3f b91d 503f
00000080: df55 573f 15eb 233f 43c1 2e3f a19b 3c3f
00000090: f7b8 4c3f 3976 403f eb89 dd3e 9d35 3e3f
000000a0: c3e9 3b3f 88d0 543f c64a 2a3f c542 6b3f
000000b0: 62ae 2c3f f128 483f ccb1 493f 04cb 0d3f
000000c0: 1ee4 3f3f d0df 353f 2739 403f ef02 553f
000000d0: 2d37 533f 8075 343f 2b9e 013f 8f4c 4a3f
000000e0: 7b85 2d3f 1f4b 3d3f 3368 5c3f 25da 453f
000000f0: 8632 4e3f 9a9e 3e3f c08f 5d3f 77da 3a3f
00000100: 5d8e 493f 0f22 2e3f 464b 4c3f fa9d 613f
00000110: 7635 363f 3bea 413f cd0a 253f c43c 143f

bneck.1.bn1.bias f4 [72]
0.021166652 0.29820395 0.0021025564 0.01616589 0.11586864 0.10161465 0.07165165 -0.012710706
0.2752352 0.122047916 0.0927919 0.16890311 0.03553081 0.08914743 0.051387284 0.044705786
0.17860843 -0.049055226 0.22550705 0.11160962 -0.16541031 0.15688273 0.030796947 -0.039617047
0.13915864 0.16996594 0.06941593 0.06972893 0.033430662 0.0037028138 0.038803138 0.08568491
0.0085442485 0.1720875 0.051744293 -0.022150222 0.0676603 -0.0050097643 0.34987786 0.12794895
-0.1629191 -0.04256571 0.15083505 -0.0024927114 0.07536296 0.14010206 0.038481675 0.096742384
-0.044963144 -0.03861908 -0.094048075 -0.0058212704 0.0060129557 0.18730931 0.08453133 0.04456379
0.20277387 0.048368942 0.069474936 -0.043742664 0.07392315 -0.015983015 -0.028912563 0.1739017
-0.048208255 0.13188985 0.017196681 -0.0039432757 -0.08209545 0.13201343 0.1765634 0.067561895
00000000: b065 ad3c 30ae 983e 0bcb 093b 546e 843c
00000010: 8a4c ed3d 571b d03d 1abe 923d 9140 50bc
00000020: a1eb 8c3e 42f4 f93d ae09 be3d f0f4 2c3e
00000030: c188 113d ee92 b63d 797b 523d 6a1d 373d
00000040: 21e5 363e 22ee 48bd 52eb 663e 9693 e43d
00000050: 5261 29be dea5 203e e149 fc3c 7c45 22bd
00000060: 9a7f 0e3e 8d0b 2e3e f029 8e3d 0bce 8e3d
00000070: 97ee 083d e8aa 723b 0af0 1e3d 927b af3d
00000080: 2dfd 0b3c b537 303e d3f1 533d 6274 b5bc
00000090: 7c91 8a3d f328 a4bb 3123 b33e 0d05 033e
000000a0: 44d4 26be 6259 2ebd 8174 1a3e c25c 23bb
000000b0: e557 9a3d ea76 0f3e f69e 1d3d df20 c63d
000000c0: 462b 38bd 0a2f 1ebd 479c c0bd 5bc0 bebb
000000d0: 5408 c53b 03ce 3f3e c31e ad3d 8588 363d
000000e0: f4a3 4f3e 831e 463d e048 8e3d 822b 33bd
000000f0: 0565 973d d0ee 82bc 0ada ecbc 4a13 323e
00000100: 0576 45bd 220e 073e 0ee0 8c3c 9836 81bb
00000110: a921 a8bd 872e 073e 09cd 343e e45d 8a3d

bneck.1.bn1.running_mean f4 [72]
0.007039631 -0.020434476 0.028030816 0.028603567 0.03149166 -0.01040538 0.018145278 -0.004069813
0.025675276 0.011476844 0.013236817 0.043850478 -0.0093495445 0.038653173 0.01089053 -0.062130302
-0.0077101137 0.014578559 0.001756858 -0.004646505 -0.045310527 0.012126648 -0.020890128 0.030757286
0.000322357 -0.00957927 0.002870241 0.0057201856 0.030356305 0.009300319 0.05342712 0.0066152653
0.01568272 0.021155672 0.03755325 -0.030613035 0.012928856 -0.014860838 0.01320315 0.0068012564
0.041699916 0.043645695 -0.041345153 -0.016931672 0.054633167 0.002283935 -0.033647317 0.019457685
0.017049234 -0.026315073 -0.018607903 -0.031756897 0.024734009 0.027865192 0.0529798 0.027686477
0.016753424 0.015853742 0.06530701 -0.0029582963 0.0030325223 -0.020251444 0.0027209416 -0.03623247
-0.049485225 0.0069957003 0.00031251766 0.019117294 -0.017986841 0.021709189 0.02983409 -0.023585614
00000000: b4ac e63b 3466 a7bc e2a0 e53c 0752 ea3c
00000010: 66fd 003d 547b 2abc 68a5 943c 115c 85bb
00000020: f554 d23c 5f09 3c3c 3cdf 583c 8f9c 333d
00000030: d52e 19bc ca52 1e3d 326e 323c 587c 7ebd
00000040: 1fa5 fcbb e9da 6e3c 5f46 e63a b641 98bb
00000050: 8897 39bd d9ae 463c c621 abbc b4f6 fb3c
00000060: 0602 a939 5ff2 1cbc a71a 3c3b 6570 bb3b
00000070: c9ad f83c 5d60 183c 65d6 5a3d dec4 d83b
00000080: 0c79 803c a94e ad3c 70d1 193d 30c8 fabc
00000090: 8dd3 533c df7a 73bc 0652 583c 13dd de3b
000000a0: 88cd 2a3d d4c5 323d 8959 29bd 4ab4 8abc
000000b0: 07c7 5f3d 12ae 153b c5d1 09bd b965 9f3c
000000c0: d6aa 8b3c b592 d7bc 9a6f 98bc 8513 02bd
000000d0: fa9e ca3c 8b45 e43c 5901 593d c0ce e23c
000000e0: 7a3e 893c b5df 813c afbf 853d fadf 41bb
000000f0: 48bd 463b 5be6 a5bc d351 323b 8068 14bd
00000100: 05b1 4abd 303c e53b 69d9 a339 df9b 9c3c
00000110: 2459 93bc 78d7 b13c 9f66 f43c 9e36 c1bc

bneck.1.bn1.running_var f4 [72]
0.0429872 0.08552585 0.11731497 0.073072575 0.090879984 0.15005997 0.11963789 0.14495394
0.07486524 0.116615355 0.079285175 0.17612152 0.04911896 0.118735805 0.09354666 0.100966066
0.06497923 0.100656234 0.08169099 0.057894997 0.021405827 0.17435698 0.03910534 0.048922013
0.08569266 0.09342701 0.041388396 0.07201322 0.25826952 0.07850538 0.11830686 0.0973687
0.10183163 0.17984396 0.035557367 0.062438834 0.092614986 0.14245555 0.058836337 0.03878897
0.045095496 0.069629595 0.06831897 0.21116601 0.16606529 0.08592945 0.1126126 0.13088201
0.030416192 0.0765838 0.1314108 0.04113315 0.15597183 0.06934583 0.06927477 0.19004065
0.0515207 0.13744214 0.11259398 0.070651025 0.19404024 0.028824553 0.033719372 0.06309157
0.058610287 0.089598246 0.08063921 0.07081524 0.078940205 0.09186489 0.0900612 0.1719617
00000000: 5913 303d 2d28 af3d d542 f03d 13a7 953d
00000010: 491f ba3d 52a9 193e b604 f53d ce6e 143e
00000020: f252 993d 08d4 ee3d 4460 a23d 3359 343e
00000030: f630 493d c22b f33d 6495 bf3d 4cc7 ce3d
00000040: d513 853d db24 ce3d 9b4d a73d 4e23 6d3d
00000050: 465b af3c a38a 323e ec2c 203d 7362 483d
00000060: a27f af3d a956 bf3d e186 293d ab7b 933d
00000070: e73b 843e 6ec7 a03d de4a f23d 3e69 c73d
00000080: 1a8d d03d 0429 383e 9aa4 113d ddbf 7f3d
00000090: edac bd3d dedf 113e 5ffe 703d 2fe1 1e3d
000000a0: 0eb6 383d f699 8e3d d1ea 8b3d e73b 583e
000000b0: 050d 2a3e c8fb af3d 6fa1 e63d ef05 063e
000000c0: 612b f93c f8d7 9c3d 8e90 063e 3c7b 283d
000000d0: 14b7 1f3e 3005 8e3d eedf 8d3d 049a 423e
000000e0: 5f07 533d a2bd 0c3e ac97 e63d 7cb1 903d
000000f0: 7cb2 463e 7821 ec3c 531d 0a3d 2736 813d
00000100: 5711 703d 497f b73d 2c26 a53d 9507 913d
00000110: 67ab a13d a923 bc3d 0272 b83d ba16 303e
