TX2/multicamerarl/torch_models/weights_45.pth (torch_old, 478682 bytes, 91 tensors)

conv1.weight f4 [16, 3, 3, 3]
0	0xbc2dda4d	-0.010611129
1	0xbdc4a6d7	-0.09602135
2	0x3e6336ce	0.22188875
3	0x3e05ebf4	0.1307829
4	0xbe1cd911	-0.1531718
5	0x3df04acd	0.11733017
6	0xbc20c82f	-0.0098133525
7	0x3cab239a	0.020891
8	0xbe11660d	-0.14199086
9	0xbd8c4f2f	-0.068510406
10	0x3e120a19	0.14261664
11	0xbbd4cea9	-0.0064943624
12	0xbca68a7f	-0.020329712
13	0xbde97850	-0.11399901
14	0xbe06a950	-0.13150525
15	0xbe5447d2	-0.20730522
16	0xbe3cf86d	-0.18454142
17	0xbd10463d	-0.035223234
18	0x3dc5a35a	0.096502975
19	0xbd9c3ff2	-0.07629384
20	0x3e298688	0.16555226
21	0xbe371c1d	-0.17881818
22	0xbe2248a4	-0.15848023
23	0x3e0faece	0.14031526
24	0xbe489ff8	-0.19592273
25	0x3deade00	0.114681244
26	0xbd009fdb	-0.03140245
27	0x3dda3e6e	0.10656439
28	0xbd9f7a4c	-0.07786998
29	0x3e027df7	0.12743364
30	0x3dc10025	0.09423856
31	0x3dbb99b9	0.0916018
32	0x3d877702	0.06614496
33	0xbe5ea65b	-0.21743147
34	0xbe16e524	-0.14735848
35	0xbd8b6352	-0.06806053
36	0x3d354b42	0.044261225
37	0x3e59dccd	0.21275635
38	0xbc7fff88	-0.015624888
39	0x3bb67f42	0.0055693695
40	0xbd668439	-0.05627844
41	0xbe47f637	-0.19527517
42	0x3dc225f3	0.094798945
43	0xbe242d66	-0.16032943
44	0xbde9f6d0	-0.11424029
45	0xbd63e2dc	-0.05563627
46	0xbdddd388	-0.10831362
47	0x3db5053c	0.08838889
48	0x3d7c7547	0.061635282
49	0xbd0c90bd	-0.03431772
50	0x3d9d2ac8	0.076741755
51	0xbe024f64	-0.12725598
52	0xbdda8245	-0.10669378
53	0x3dcd6b4b	0.1003023
54	0xbbf68a8c	-0.0075238403
55	0xbe69ad5e	-0.2282004
56	0xbd8a649b	-0.0675747
57	0xbdb0e1fd	-0.08636854
58	0xbe16f469	-0.14741673
59	0x3d49c326	0.049258374
60	0xbd87d987	-0.06633287
61	0xbbb46427	-0.005505103
62	0x3e4bf225	0.1991659
63	0xbd965c88	-0.07341868
64	0xbe48948a	-0.19587913
65	0xbdb1c9e5	-0.086810865
66	0xbd327993	-0.043572973
67	0x3d5d6edb	0.0540608
68	0x3ccd548c	0.02506473
69	0xbd4b61cb	-0.04965381
70	0xbd1e1ce2	-0.038601764
71	0x3be6cfb3	0.0070438026
72	0x3d3f6d79	0.04673526
73	0xbd6137fc	-0.05498503
74	0xbdcc9ec8	-0.099912226
75	0x3c151440	0.009099066
76	0xbda74f4b	-0.08169421
77	0xbd632817	-0.055458155
78	0xbd8b1297	-0.06790655
79	0x3e0eef27	0.13958417
80	0x3af782be	0.0018883569
81	0x3c95141b	0.018198064
82	0xbdc610e2	-0.09671189
83	0x3df6ce02	0.120510116
84	0xbd0abb9c	-0.033870324
85	0xbe286054	-0.16442996
86	0xbe3d8d2a	-0.18510881
87	0x3dc88ebc	0.097928494
88	0x3e0217cb	0.12704389
89	0x3df258e3	0.1183336
90	0x3e23b579	0.15987195
91	0x3e1082d6	0.1411241
92	0x3e184db4	0.14873391
93	0xbdc14d4a	-0.0943857
94	0xbdcf1475	-0.10111324
95	0x3d985003	0.07437136
96	0xbd844493	-0.06458392
97	0xbe22e4b0	-0.1590755
98	0x3d7c371e	0.061576
99	0x3d486f11	0.048934046
100	0x3cdbd613	0.026835477
101	0xbe1b9078	-0.15191829
102	0x3d7903e8	0.06079474
103	0xbd89ea8a	-0.06734188
104	0x3ce2eb5a	0.027700115
105	0xbe356d20	-0.17717409
106	0x3dfc68f4	0.12324706
107	0xba5c5eee	-0.00084064796
108	0x3e0cee95	0.13762887
109	0xbdd312fb	-0.103063546
110	0xbcc94f2f	-0.02457389
111	0x3d9029b0	0.07039201
112	0x3e0d5915	0.13803513
113	0xbd37a9a9	-0.044839535
114	0xbc90b6ef	-0.017665355
115	0x3ca64bcb	0.020299813
116	0xbc4a4f03	-0.012347939
117	0x3dbdf47e	0.09275149
118	0xbdab17a1	-0.08354116
119	0xbdb4dc78	-0.088311136
120	0x3d0ed1c6	0.034868024
121	0x3e3a07a7	0.18166982
122	0x3cb61479	0.022226559
123	0xbdc4f2da	-0.09616633
124	0xbe3eef4a	-0.18645969
125	0xbd3d2c85	-0.046185035
126	0x3e5ad19f	0.21369027
127	0x3d023897	0.03179225
128	0x3db9fdc2	0.090816036
129	0xbdfc4ac8	-0.12318951
130	0xbdcc8122	-0.09985568
131	0xbe2403ce	-0.16017076
132	0xbda8a442	-0.08234455
133	0xbe157c16	-0.14598116
134	0xbe8d790d	-0.27631417
135	0xbe15595c	-0.14584869
136	0xbd30a69c	-0.04312764
137	0x3baf8106	0.005355957
138	0x3dcdb7f2	0.100448504
139	0xbe165626	-0.146813
140	0x3db0dd8a	0.08636005
141	0x3dbf7cdc	0.09349987
142	0xbe153c11	-0.14573695
143	0x3dd0fd4e	0.10204564
144	0xbe2645ae	-0.16237518
145	0xbe43dfc4	-0.19128329
146	0x3e01429a	0.12623063
147	0x3ce76ca7	0.028250052
148	0x3e23e9b8	0.16007125
149	0x3d89de9b	0.06731912
150	0xbdd28413	-0.102790974
151	0xbdcaa04c	-0.098938555
152	0x3d345f40	0.04403615
153	0x3def8814	0.11695877
154	0xbe05bbc1	-0.13059904
155	0xbdd3aa87	-0.1033526
156	0x3c56c84b	0.013109277
157	0x3d104991	0.03522641
158	0x3cb16229	0.021653252
159	0xbd7a7fd1	-0.06115705
160	0x3e024706	0.12722406
161	0x3daa80de	0.08325361
162	0x3d9e7867	0.07737809
163	0x3e1e256a	0.1544396
164	0x3c8f42e1	0.017487945
165	0x3dd30070	0.10302818
166	0xbc9c0d66	-0.019049358
167	0x3e6fd13a	0.23419657
168	0xbd0036c8	-0.031302243
169	0xbd7e7295	-0.062120993
170	0xbde9b29f	-0.114110224
171	0x3d826cc1	0.063683994
172	0x3dd8889b	0.105729304
173	0xbe631c75	-0.22178824
174	0x3dda3615	0.106548466
175	0xbda29f55	-0.079405464
176	0x3d9e8354	0.077398926
177	0xbc693693	-0.014234203
178	0xbcc65608	-0.024210945
179	0x3d593702	0.053030975
180	0xbd3506a1	-0.044195775
181	0x3dc3eb62	0.0956638
182	0x3dbb64a1	0.09150053
183	0xbe9076b9	-0.28215578
184	0xbcb063a1	-0.021531882
185	0x3ddf673b	0.109083615
186	0x3a50b7fd	0.00079619867
187	0xbdda55c9	-0.106608935
188	0xbe6df3b2	-0.23237494
189	0xbdcdce9b	-0.100491725
190	0xbe3befd4	-0.18353206
191	0xbe2fa6f8	-0.17153537
192	0x3e187c66	0.14891204
193	0xbe444ee0	-0.19170713
194	0x3d9c924b	0.07645091
195	0xbde67a3a	-0.112537816
196	0xbe0ed347	-0.13947783
197	0xbccca29f	-0.024979888
198	0x3c877a6b	0.016537866
199	0x3e26dd55	0.16295369
200	0x3e526585	0.20546539
201	0x3d2d6c9a	0.0423399
202	0x3e0f17ac	0.13973874
203	0xbe207fb7	-0.1567372
204	0x3e08eca8	0.13371527
205	0xbdae7e21	-0.08520151
206	0x3dfba3e2	0.122871175
207	0xbe0a0f35	-0.13482364
208	0xbdec6084	-0.115418464
209	0x3dabc110	0.08386433
210	0x3da85849	0.08219964
211	0x3e1946df	0.14968441
212	0xbb43708e	-0.0029821726
213	0xbe0497d1	-0.12948538
214	0x3c4c99d0	0.012487844
215	0x3d49ecc3	0.04929806
216	0x3e119fc9	0.1422111
217	0x3dec23eb	0.11530288
218	0xbe2c0310	-0.16798043
219	0xbd9b116d	-0.07571683
220	0xbe1a4aa8	-0.15067542
221	0xbbeb1b3a	-0.0071748765
222	0x3c24ad30	0.010051057
223	0x3e1e05fa	0.15431967
224	0xbde5f6e6	-0.11228733
225	0xbc60973e	-0.013707934
226	0xbcb1fa51	-0.021725805
227	0xbe23b4df	-0.15986966
228	0xbda4a854	-0.080399185
229	0xbd4df270	-0.050280035
230	0x3ddbed54	0.10738626
231	0xbd87b692	-0.066266194
232	0x3d128f1a	0.035781004
233	0x3df444a5	0.119271554
234	0x3e4edb16	0.20200762
235	0x3d926a8b	0.07149228
236	0xbe06060b	-0.13088243
237	0xbe0544ee	-0.13014576
238	0x3e03aeaf	0.12859605
239	0xbe1271a8	-0.14301169
240	0x3d2fc738	0.0429146
241	0x3e4be35e	0.19910952
242	0xbe0802cf	-0.13282321
243	0x3e2db73c	0.1696443
244	0x3dc1b1c3	0.094577335
245	0x3da5e4d7	0.08100288
246	0xbdf93eab	-0.12170156
247	0xbc1bd5b9	-0.009511405
248	0x3d70e9cc	0.058816716
249	0xbd8b5002	-0.0680237
250	0x3e0be879	0.136629
251	0x3e68db46	0.22739896
252	0x3dcf3efa	0.10119434
253	0xbe8e95da	-0.27848703
254	0x3e002cd7	0.12517105
255	0xbd9b732d	-0.075903274

bn1.weight f4 [16]
0	0x3f8016bd	1.0006939
1	0x3f864a21	1.0491372
2	0x3f7c1007	0.98461956
3	0x3f7dfa92	0.99210465
4	0x3f7fbeba	0.999004
5	0x3f80dcd3	1.006739
6	0x3f80e136	1.0068729
7	0x3f928c6d	1.1449105
8	0x3f83afbb	1.0288004
9	0x3f7bd8ce	0.9837769
10	0x3f806849	1.0031825
11	0x3f7daaf4	0.9908898
12	0x3f7ae256	0.9800161
13	0x3f83c907	1.0295724
14	0x3f787eeb	0.9706866
15	0x3f870b7d	1.0550381

bn1.bias f4 [16]
0	0x3c1e2c5a	0.009654129
1	0x3d0f085f	0.034920093
2	0x3b19f572	0.0023492244
3	0x3d3cad3a	0.04606364
4	0xbcafdb58	-0.021466896
5	0xbcf6c15c	-0.030121498
6	0x3c403e07	0.0117335385
7	0x3ce5982e	0.028026666
8	0xbcdf2bff	-0.027242659
9	0xbbfbc5a9	-0.007683475
10	0xbc0b015d	-0.008484212
11	0x3cd5891d	0.026066357
12	0xbd0fb786	-0.03508713
13	0xbc35a4d7	-0.011086664
14	0xbd51e7fc	-0.05124663
15	0x3d95e50c	0.07319078

bn1.running_mean f4 [16]
0	0xbe9ce702	-0.30644995
1	0xbe13ea9f	-0.1444497
2	0xbece3981	-0.40278247
3	0x3cc283ea	0.023744542
4	0xbe8a82b6	-0.2705285
5	0xbd4a6df5	-0.04942127
6	0x3b90ac56	0.0044150753
7	0xbcec39a8	-0.028836086
8	0xbd3d2783	-0.04618026
9	0x3e2f2076	0.17102227
10	0x3e160b25	0.14652689
11	0xbe0ba153	-0.13635759
12	0x3ea55ec2	0.32298857
13	0x3d778abf	0.060435053
14	0xbe12e87b	-0.14346497
15	0x3bf39d52	0.0074345255

bn1.running_var f4 [16]
0	0x3d42a6ef	0.04752248
1	0x3c4bfaf5	0.01244997
2	0x3dac56a5	0.08414964
3	0x3aee5233	0.0018182456
4	0x3d18851b	0.037236314
5	0x3b6f1775	0.0036482487
6	0x3b5cce4f	0.0033692305
7	0x3b2340be	0.0024910416
8	0x3b29c05d	0.002590201
9	0x3c995994	0.018719472
10	0x3c3eb634	0.01164012
11	0x3c632d46	0.0138657745
12	0x3d5bf9fd	0.053705204
13	0x3bbd9825	0.0057859593
14	0x3c69f02f	0.014278456
15	0x3b75f8d2	0.0037532342

bneck.0.se.se.1.weight f4 [4, 16, 1, 1]
0	0x3de57cac	0.1120542
1	0xbe0fd353	-0.14045458
2	0x3d4f5867	0.050621416
3	0xbdd08ded	-0.1018332
4	0xbe2a58c0	-0.16635418
5	0xbdd3e9fc	-0.10347363
6	0x3e5eb103	0.21747212
7	0xbd19482d	-0.037422348
8	0x3e15bf67	0.14623795
9	0xbdbb9e2c	-0.09161028
10	0x3e7f01b5	0.24902995
11	0xbe29226c	-0.16517037
12	0xbd23f4a4	-0.04002823
13	0xbdd1fcff	-0.10253333
14	0x3e7887bf	0.24270533
15	0x3e26e653	0.16298799
16	0x3da47b8b	0.080313765
17	0xbd0c4fe0	-0.034255862
18	0x3ebf0416	0.37307805
19	0x3e568f83	0.20953183
20	0xbdefd559	-0.11710615
21	0xbd8a4878	-0.067521036
22	0x3d8dc8dd	0.06923077
23	0xbe3787fa	-0.17922965
24	0x3d7c3a07	0.061578777
25	0xbc90405e	-0.017608818
26	0xbcfdd90f	-0.03098729
27	0x3e52158e	0.20516035
28	0xbc2948e6	-0.010332322
29	0x3e24760b	0.16060655
30	0x38d8e74d	0.00010342766
31	0xbdfbee43	-0.12301304
32	0xbe0e37a8	-0.13888419
33	0x3c31489f	0.010820537
34	0xbd5b8cb1	-0.05360097
35	0xbd6e6505	-0.05820181
36	0x3bbf2fec	0.00583457
37	0x3ea84db7	0.32871792
38	0x3e062142	0.13098624
39	0xbe4c306d	-0.19940348
40	0xbdc3cb65	-0.09560279
41	0x3c530e54	0.012881834
42	0x3e3861a3	0.18005995
43	0xbb18d6cf	-0.0023321395
44	0x3e77a8d8	0.24185503
45	0x3d5fedaa	0.054670013
46	0xbd248e6a	-0.04017488
47	0xbdca1ad3	-0.098683976
48	0xbdb418b3	-0.087937735
49	0xbd353064	-0.044235602
50	0x3da93dc0	0.08263731
51	0xbe36736c	-0.17817467
52	0x3d5ee41f	0.054416772
53	0x3e500a1c	0.20316356
54	0xbd7471e2	-0.05967892
55	0x3d8c5de6	0.06853847
56	0xbe50e6ed	-0.20400591
57	0x3e1d7b37	0.15379034
58	0xbd5aa09f	-0.053375836
59	0x3e0c9ec8	0.13732445
60	0x3ca5c8a4	0.020237274
61	0x3d16b91d	0.03679763
62	0xbe45008e	-0.19238493
63	0x3e04da67	0.12973939

bneck.0.se.se.2.weight f4 [4]
0	0x3f82163f	1.0163039
1	0x3f8c4847	1.0959557
2	0x3f79dc46	0.97601736
3	0x3f6103e0	0.8789654

bneck.0.se.se.2.bias f4 [4]
0	0x3e348abf	0.17631052
1	0x3d88905c	0.06668159
2	0x3d089b28	0.033351094
3	0xbdb29673	-0.08720102

bneck.0.se.se.2.running_mean f4 [4]
0	0xbd6c028c	-0.057619616
1	0xbd7ee83b	-0.06223319
2	0x3d1c3545	0.03813674
3	0x3d22ffd6	0.039794765

bneck.0.se.se.2.running_var f4 [4]
0	0x3c3b9f59	0.011451566
1	0x3d8e408b	0.06945904
2	0x3cb858e6	0.022503328
3	0x3d136264	0.035982504

bneck.0.se.se.4.weight f4 [16, 4, 1, 1]
0	0x3e311258	0.17292154
1	0x3eab5810	0.33465624
2	0x3e57a3dc	0.21058601
3	0x3e78aaa4	0.24283844
4	0xbe607259	-0.2191862
5	0xbeded110	-0.43518877
6	0xbcd7432d	-0.02627715
7	0x3ec31fe4	0.38110268
8	0xbb981e64	-0.0046422947
9	0x3ed27498	0.4110458
10	0x3eb81f85	0.35961547
11	0xbe383bba	-0.17991534
12	0x3eaf9762	0.34295183
13	0xbe0e5cba	-0.1390256
14	0xbec14079	-0.377445
15	0xbdffa1d5	-0.12482039
16	0x3edf867d	0.43657294
17	0x3deb1d22	0.11480166
18	0x3e02462f	0.12722085
19	0x3d9bc134	0.0760521
20	0x3f1da5fd	0.61581403
21	0x3ed63a59	0.4184139
22	0xbe726421	-0.23671009
23	0xbc97f354	-0.018548645
24	0xbe9434fe	-0.2894668
25	0x3e880708	0.26567864
26	0x3edceba1	0.4314852
27	0x3e77f7a3	0.2421556
28	0x3ee462a4	0.44606507
29	0x3e5c49da	0.21512547
30	0xbe6f5928	-0.23373854
31	0xbe5db6a8	-0.21651709
32	0x3f0e09e0	0.5548382
33	0x3e46c5ce	0.19411394
34	0xbe39e0bc	-0.18152136
35	0x3d53d852	0.05171997
36	0x3d44b233	0.048021507
37	0x3e881b90	0.2658353
38	0x3eab1a92	0.3341871
39	0xbebea6ad	-0.3723654
40	0xbea3111e	-0.31848997
41	0xbba511aa	-0.005037506
42	0xbeaa9660	-0.33317852
43	0xbe1cd73e	-0.15316483
44	0xbd6205d1	-0.05518133
45	0x3ea9e513	0.33182582
46	0x3ec9f179	0.39442042
47	0x3e6547f8	0.22390735
48	0x3e8e51ce	0.27796787
49	0x3ed8fbd2	0.42379624
50	0x3efa6b8b	0.48910174
51	0x3e8cd963	0.27509603
52	0x3e6ac3ca	0.2292625
53	0x3e83f6d2	0.25774246
54	0xbe55326c	-0.20820016
55	0xbe4da6d1	-0.20083167
56	0x3efaf434	0.49014437
57	0x3e5e0ec2	0.21685317
58	0x3e24e07b	0.16101258
59	0xbebdc0ee	-0.37061256
60	0xbe3e2ea2	-0.18572477
61	0xbd406daf	-0.046979602
62	0x3e167e29	0.14696564
63	0x3e9e45e5	0.309127

bneck.0.se.se.5.weight f4 [16]
0	0x3f809c7c	1.0047755
1	0x3f64a5f0	0.893157
2	0x3f9413b4	1.1568513
3	0x3f6417ef	0.8909902
4	0x3f98d506	1.194001
5	0x3f77e272	0.96829903
6	0x3f6b73b3	0.9197342
7	0x3f6ec93c	0.9327581
8	0x3f6f1742	0.93394864
9	0x3f7c1851	0.98474604
10	0x3f4cfa4f	0.8006944
11	0x3f6b5756	0.9193014
12	0x3f884ec3	1.0649036
13	0x3f8151bb	1.0103067
14	0x3f773966	0.9657196
15	0x3f5a26c0	0.8521538

bneck.0.se.se.5.bias f4 [16]
0	0xbd56ab74	-0.052409604
1	0xbc055ffe	-0.008140562
2	0xbd8f2860	-0.06990123
3	0x3d958f10	0.07302678
4	0xbd708fd6	-0.058730923
5	0x3ce7ca4c	0.028294705
6	0x3d789856	0.060692154
7	0x3cbf15d8	0.023325846
8	0x3ddbda6c	0.1073502
9	0x3df9ec8d	0.122033216
10	0x3daddb02	0.08489038
11	0xbbe2a7b6	-0.0069169654
12	0x3c8fa641	0.01753533
13	0xbd2df063	-0.04246558
14	0xbd687551	-0.056752507
15	0x3cf0752a	0.029352743

bneck.0.se.se.5.running_mean f4 [16]
0	0x3ed301d3	0.4121233
1	0xbe5dae7a	-0.21648589
2	0x3e8fc9f3	0.28083763
3	0xbda28917	-0.07936304
4	0x3eb4fdb8	0.35349822
5	0x3ed8a475	0.4231297
6	0x3e6723f9	0.22572316
7	0x3e315444	0.17317301
8	0x3ea646c0	0.32475853
9	0x3e297be6	0.1655117
10	0xbeb116f9	-0.3458784
11	0x3eb7db41	0.35909465
12	0x3f20f02b	0.6286647
13	0x3dca9aa0	0.09892774
14	0x3e9a8983	0.30183038
15	0x3d03f8e9	0.0322198

bneck.0.se.se.5.running_var f4 [16]
0	0x3db6b8c3	0.08921959
1	0x3e8ea2b5	0.2785851
2	0x3dff3c15	0.124626316
3	0x3d8439fd	0.06456373
4	0x3de01848	0.10942131
5	0x3ee017e0	0.43768215
6	0x3d854c0f	0.06508648
7	0x3e70e2bb	0.23523991
8	0x3e59e50b	0.21278779
9	0x3e018fdb	0.12652533
10	0x3d8c3c04	0.068473846
11	0x3d828c94	0.063744694
12	0x3e5708dc	0.20999473
13	0x3e172f99	0.14764251
14	0x3e952a11	0.29133657
15	0x3d912e4c	0.070889086

bneck.0.conv1.weight f4 [16, 16, 1, 1]
0	0xbdd2866a	-0.10279544
1	0xbe267c95	-0.16258462
2	0x3e64ea7d	0.22355075
3	0xbd7f6412	-0.062351294
4	0xbd4707b7	-0.04859134
5	0xbdd9ba6c	-0.1063126
6	0xbd8c4393	-0.06848826
7	0xba828280	-0.0009957105
8	0xbd3b8d1f	-0.04578888
9	0x3be2cad8	0.0069211535
10	0xbc05ea78	-0.0081735775
11	0x3d04056e	0.03223174
12	0x3e0a179d	0.1348557
13	0xbd8fb1f6	-0.07016365
14	0xbba73750	-0.0051030293
15	0xbe711fb7	-0.23547255
16	0xbe6bfb3b	-0.23045056
17	0xbdccee6d	-0.100064136
18	0x3dbb4077	0.09143155
19	0x3e25645b	0.16151564
20	0x3d01058a	0.031499423
21	0x3df09867	0.117478184
22	0xbcba536b	-0.022744855
23	0x3e835a92	0.25655037
24	0x3e088526	0.13332042
25	0xbe3d76a1	-0.18502285
26	0xbd00c5b3	-0.03143854
27	0x3e04234c	0.1290409
28	0x3d751e09	0.059843097
29	0xbe8048ea	-0.2505563
30	0xbe5debe0	-0.2167201
31	0x3d3e98df	0.046532508
32	0x3e186ea9	0.14885963
33	0xbe5839c7	-0.2111579
34	0x3e167d4c	0.14696234
35	0x3dd7bbfa	0.105339006
36	0xbe1ed54f	-0.15511058
37	0x3e473ff6	0.19457993
38	0x3bb9e085	0.0056725168
39	0xbc2e1d94	-0.010627169
40	0xbdc283d3	-0.094978
41	0xbd3a6181	-0.045503143
42	0x3e4c2675	0.19936545
43	0x3e4ad12c	0.19806355
44	0xbe1d6797	-0.15371548
45	0x3e169ffb	0.14709465
46	0x3debbc03	0.1151047
47	0x3d81a0bc	0.06329486
48	0x3e3b18b9	0.1827115
49	0xbe46e793	-0.19424276
50	0xbdc4c6e2	-0.096082464
51	0x3e82a58b	0.25516924
52	0x3e627eec	0.2211873
53	0xbe0eaf28	-0.13934004
54	0x3d1a6a39	0.037698958
55	0xbd8b0c6c	-0.06789479
56	0x3e9d79e4	0.30757058
57	0x3d8f5514	0.06998649
58	0xbd69dfde	-0.057098262
59	0x3d08f043	0.033432256
60	0xbc2617d3	-0.010137516
61	0x3d7c4dad	0.061597515
62	0xbdde1871	-0.108445056
63	0x3d3dc3c7	0.046329286
64	0xbd8c1ca1	-0.06841398
65	0xbe1f25a6	-0.15541705
66	0xbe4354f1	-0.19075371
67	0xbd2145e7	-0.039373305
68	0xbe3f8f1f	-0.1870694
69	0xbd2f76f2	-0.042838044
70	0xbd7d7ef0	-0.061888635
71	0x3d8c09fe	0.06837843
72	0x3e322792	0.17397907
73	0xbdf51b2f	-0.119680755
74	0x3e7feb82	0.24992183
75	0xbe078b8e	-0.1323683
76	0x3de5433b	0.11194464
77	0xbe32e217	-0.17469059
78	0xbdbd6510	-0.09247792
79	0x3bc1c943	0.005913885
80	0xbd164c8c	-0.036694095
81	0xbe185240	-0.14875126
82	0xbe1ab365	-0.15107496
83	0x3d34a4a1	0.044102315
84	0x3cade5fd	0.021227831
85	0xbdfe9a00	-0.12431717
86	0x3e87071a	0.26372606
87	0x3d279946	0.040917657
88	0xbe995e6a	-0.29954845
89	0x3e4676a1	0.19381191
90	0xbe83e140	-0.2575779
91	0x3d8d2750	0.06892264
92	0x3e46bb6c	0.19407433
93	0xbe1102c3	-0.1416121
94	0x3cc52c09	0.02406885
95	0xbb0f075c	-0.0021824455
96	0xbc8b2f16	-0.016990226
97	0xbda32f3f	-0.07967996
98	0xbd567c8e	-0.05236488
99	0x3a0afa3a	0.0005301569
100	0xbe2f148a	-0.17097679
101	0xbe7b80a8	-0.24560797
102	0x3c94a570	0.018145293
103	0x3dcfad61	0.10140491
104	0xbe4b56c0	-0.19857311
105	0x3db2891c	0.08717558
106	0xbe02f5ba	-0.1278905
107	0x3dfefdf4	0.124507815
108	0xbcf21eb7	-0.029555662
109	0xbc980fec	-0.01856228
110	0xbd689b32	-0.05678863
111	0xbd3cd47d	-0.046101082
112	0xbe138d8b	-0.14409463
113	0x3e3ece33	0.18633346
114	0x3e2a4c1b	0.16630594
115	0x3d9f5db1	0.07781542
116	0xbd90bc30	-0.07067144
117	0xbe0cb806	-0.13742074
118	0x3e30fbd0	0.17283559
119	0x3e8f9c25	0.28048816
120	0xbe31d49b	-0.17366259
121	0xbd8a73ab	-0.06760343
122	0xbe4f3cae	-0.20237991
123	0xbd8a95d7	-0.06766861
124	0xbd70b818	-0.058769315
125	0x3dad8946	0.084734485
126	0x3e5e286f	0.21695112
127	0x3e4e410b	0.20142
128	0xbcf6eb87	-0.030141605
129	0x3e9637ba	0.2933939
130	0x3d6f59c7	0.058435228
131	0xbb5f2ad2	-0.0034052623
132	0xbc267a8f	-0.010161056
133	0xbd69c062	-0.057068236
134	0xbe87e343	-0.26540574
135	0x3bf95db3	0.007610047
136	0x3d7e4324	0.06207575
137	0xbe459b51	-0.1929753
138	0x3d5c3a6c	0.053766653
139	0x3da6cde4	0.08144739
140	0xbe204605	-0.1565171
141	0x3b65382c	0.0034976108
142	0x3d4e26e5	0.05033006
143	0x3e070095	0.13183816
144	0xbd9de8ba	-0.07710405
145	0xbeb5f661	-0.35539535
146	0x3da73ceb	0.08165916
147	0xbc332878	-0.0109349415
148	0x3de8aea2	0.113614336
149	0xbe09069e	-0.1338143
150	0x3dded976	0.10881321
151	0xbba8d68d	-0.0051525296
152	0xbd6b3442	-0.057422884
153	0x3e3ad7b8	0.18246353
154	0x3e0bf3e1	0.13667251
155	0xbdf80ffd	-0.121124245
156	0x3e3a475f	0.18191288
157	0x3decb366	0.11557655
158	0x3d3c9c21	0.046047334
159	0x3db3daf1	0.08781994
160	0x3def28d2	0.11677708
161	0x3e2d38c4	0.16916186
162	0xbd46e044	-0.04855372
163	0xbe874311	-0.26418355
164	0xbe363c4d	-0.1779644
165	0x3c58934f	0.013218715
166	0xbd8da382	-0.06915952
167	0x3e24395c	0.16037506
168	0x3e24aea3	0.16082244
169	0x3e6922f1	0.22767235
170	0x3e88747c	0.2665137
171	0xbcc37edf	-0.023864208
172	0x3e57d23d	0.21076293
173	0xbe1346ba	-0.14382449
174	0x3d399123	0.04530443
175	0xbd932b6b	-0.07186016
176	0x3d816b18	0.06319255
177	0xbb505737	-0.0031790265
178	0x3df86fe8	0.121307194
179	0xbdf5151b	-0.11966916
180	0xbea93b52	-0.3305307
181	0xbc8c52f4	-0.017129399
182	0xbe401900	-0.18759537
183	0xbdf957ca	-0.121749476
184	0x3e8f2112	0.27954918
185	0x3db3a338	0.08771366
186	0xbd6a9039	-0.057266448
187	0x3e50945f	0.20369099
188	0x3bc3258f	0.005955405
189	0x3deac206	0.11462788
190	0xbda181af	-0.07886063
191	0x3e2e6578	0.17030895
192	0x3e78b6cb	0.2428848
193	0x3e34ca28	0.17655241
194	0xbe7089b4	-0.2349003
195	0xbd8b821b	-0.06811925
196	0x3e26c943	0.16287713
197	0xbdecbc73	-0.11559381
198	0x3da6f476	0.08152096
199	0xbd011ccb	-0.0315216
200	0x3d1599c7	0.036523607
201	0xbd71284d	-0.058876324
202	0xbdae0560	-0.08497119
203	0xbe343fb0	-0.1760242
204	0x3c0ecff4	0.008716572
205	0x3e2b30ff	0.1671791
206	0xbdaafa29	-0.083484955
207	0xbe0a58f7	-0.135105
208	0xbe0bd408	-0.13655102
209	0xbe3e6d59	-0.185964
210	0x3d6fc46f	0.058536943
211	0xbdb45cb6	-0.08806746
212	0x3dbde630	0.092724204
213	0xbc95a554	-0.018267311
214	0x3d4ca51a	0.04996214
215	0xbdb0e52f	-0.08637463
216	0xbcbad4e0	-0.022806585
217	0xbe3012bd	-0.17194648
218	0xbd728935	-0.059212882
219	0xbd6beb89	-0.05759767
220	0x3ca3bf72	0.01998875
221	0x3e66cb88	0.22538579
222	0xbb06be71	-0.002056029
223	0xbe0c905f	-0.13726948
224	0x3ea2764c	0.31730878
225	0x3e9f1be8	0.31075978
226	0x3dcc8699	0.0998661
227	0x3c9ac3a9	0.018892126
228	0x3dfc6e73	0.12325754
229	0x3d8ac56a	0.06775935
230	0xbe39ee94	-0.18157417
231	0xbdf80219	-0.12109775
232	0x3e09596f	0.13413022
233	0xbd8c7253	-0.06857743
234	0x3cb1513d	0.021645183
235	0x3dbf69f5	0.093463816
236	0x3d30e3eb	0.04318611
237	0x3d933116	0.07187097
238	0xbe4c8a39	-0.19974603
239	0x3e095b41	0.13413717
240	0x3e5021a4	0.20325333
241	0x3e71314f	0.23553966
242	0x3c9598dc	0.018261366
243	0xbe40ae30	-0.18816447
244	0xbe299c7d	-0.16563602
245	0xbc2f5fc8	-0.010703988
246	0x3e008f7f	0.1255474
247	0xbc65f740	-0.014036
248	0xbdd9b101	-0.10629464
249	0xbcb96c9d	-0.022634799
250	0x3d42f568	0.04759732
251	0xbd9df3c2	-0.07712509
252	0x3e207ce3	0.1567264
253	0xbe6e06e0	-0.2324481
254	0xbe3384ab	-0.17531078
255	0xbe802478	-0.25027823

bneck.0.bn1.weight f4 [16]
0	0x3f3eb955	0.74501544
1	0x3f4d91cf	0.8030061
2	0x3f6fbbb1	0.9364577
3	0x3f4b30e3	0.7937147
4	0x3f410380	0.75395966
5	0x3f5e26c4	0.867779
6	0x3f55d32f	0.83525366
7	0x3f69510e	0.91139305
8	0x3f670389	0.9023977
9	0x3f2b409f	0.6689548
10	0x3f6551a2	0.89577687
11	0x3f7578c9	0.9588743
12	0x3f6fcced	0.93672067
13	0x3f380f89	0.71898705
14	0x3f6f71cf	0.93533033
15	0x3f768bd8	0.96307135

bneck.0.bn1.bias f4 [16]
0	0x3e4cda0f	0.20005058
1	0x3dffeb68	0.12496072
2	0xbd6083bb	-0.054813128
3	0x3dbd2e22	0.09237315
4	0x3e03dae5	0.1287647
5	0x3d176807	0.036964443
6	0x3d32ffb0	0.043700874
7	0xbd3f0c74	-0.046642736
8	0x3d10835c	0.035281524
9	0x3e34289b	0.17593615
10	0x3c5a0b23	0.013308319
11	0x3c40c9d2	0.011766868
12	0xbd4aabf7	-0.049480405
13	0x3e54806d	0.20752116
14	0x3c6750d2	0.01411839
15	0xbc96edb4	-0.018423893

bneck.0.bn1.running_mean f4 [16]
0	0xbdbb03e0	-0.091315985
1	0x3c308f6e	0.010776384
2	0x3dc65f94	0.09686199
3	0x3da099b0	0.078418136
4	0xbdda06e2	-0.10645844
5	0xbd5727e8	-0.052528292
6	0xbdcbc547	-0.09949737
7	0x3dc3d3ad	0.09561858
8	0x3cd23aa3	0.025662726
9	0x3cf9f508	0.030512348
10	0x3dd58366	0.10425453
11	0x3cbb76ac	0.022883736
12	0xbc752a50	-0.014963701
13	0xbdd37a24	-0.10326031
14	0x3e1e01bb	0.15430348
15	0xbd7c1462	-0.061542876

bneck.0.bn1.running_var f4 [16]
0	0x3d803ba9	0.06261379
1	0x3dae39f4	0.085071474
2	0x3dd0c212	0.10193266
3	0x3d91315b	0.07089492
4	0x3e1d940a	0.15388504
5	0x3e0e1092	0.13873509
6	0x3d652a80	0.055948734
7	0x3e0df5ae	0.1386325
8	0x3e32844e	0.17433283
9	0x3e85401c	0.26025474
10	0x3d5a531a	0.053301908
11	0x3df3af38	0.11898655
12	0x3d91e235	0.07123224
13	0x3d19e2bc	0.037569746
14	0x3e1dae1e	0.15398452
15	0x3e43dd4e	0.1912739

bneck.0.conv2.weight f4 [16, 1, 3, 3]
0	0xbd831501	-0.064004906
1	0xbe42b3e2	-0.19013932
2	0xbedbd5cd	-0.42936555
3	0xbdae0dae	-0.08498703
4	0xbdb7b7d4	-0.08970609
5	0x3d73db22	0.059535153
6	0x3da30287	0.079594664
7	0x3e9a59bf	0.30146596
8	0xbe3048ad	-0.17215224
9	0x3c3f1304	0.0116622485
10	0xbeb77bb4	-0.35836565
11	0x3c3d98cd	0.011572075
12	0xbebdb7e4	-0.3705436
13	0xbec81ec0	-0.3908596
14	0x3dfc83b2	0.123298064
15	0x3de6b901	0.112657554
16	0xbdf4620a	-0.11932762
17	0x3dd03315	0.10165993
18	0x3e2ccae6	0.16874275
19	0xbdf8bd5a	-0.12145491
20	0xbda30bdf	-0.079612486
21	0xbeef1a00	-0.46699524
22	0xbf0f700b	-0.5603034
23	0xbdbbd350	-0.09171164
24	0xbe90c79b	-0.28277287
25	0xbee9eeb9	-0.45689943
26	0xbe85ab69	-0.26107338
27	0xbc4a7354	-0.012356598
28	0xbe448253	-0.1919034
29	0xbe7ca692	-0.24672917
30	0xbea2d236	-0.31801003
31	0xbe94d11d	-0.2906579
32	0xbe278a20	-0.16361284
33	0xbe27fe18	-0.16405523
34	0xbbdb5af3	-0.0066941916
35	0x3d2c009d	0.041992772
36	0x3ec78f70	0.38976622
37	0x3e9bf2ab	0.30458578
38	0x3e29b44b	0.16572683
39	0x3de08025	0.10961942
40	0xbe12ee02	-0.14348605
41	0x3e95c800	0.2925415
42	0x3e23b49a	0.15986863
43	0x3e8e8911	0.27838948
44	0xbcdec0bd	-0.027191514
45	0x3e38b3d7	0.18037353
46	0xbdce8582	-0.10084058
47	0x3d43613c	0.04770015
48	0xbd72beaf	-0.05926388
49	0x3e6062e9	0.21912731
50	0x3c3ee35d	0.011650887
51	0xbe11eaac	-0.14249676
52	0xbeb0ca45	-0.3452932
53	0x3d824e74	0.0636262
54	0x3e3da22e	0.18518898
55	0x3e3822d9	0.17982043
56	0xbd454013	-0.04815681
57	0x3d91c864	0.071182996
58	0x3e480666	0.19533691
59	0x3eb1b279	0.34706476
60	0xbe396bd6	-0.18107542
61	0xbcad1790	-0.0211294
62	0x3e90e6a6	0.2830097
63	0x3e4efb52	0.20213059
64	0x3df1452f	0.11780774
65	0xbc7dff99	-0.015502834
66	0x3e39496a	0.18094411
67	0x3e5800d5	0.21094067
68	0x3e0db341	0.13837911
69	0x3dcfc87e	0.10145663
70	0x3e4c138d	0.19929333
71	0xbdd47150	-0.10373175
72	0x3db2aa3a	0.087238744
73	0xbe94da6a	-0.29072887
74	0xbebc8664	-0.36821282
75	0x3de7b6fd	0.11314199
76	0x3e62d7b7	0.22152601
77	0xbe777614	-0.24166137
78	0x3eace2ce	0.33766788
79	0xbdc62eed	-0.09676919
80	0x3e3c29e4	0.18375355
81	0x3e812f54	0.2523142
82	0x3e7547cc	0.2395317
83	0xbe92f61a	-0.28703386
84	0x3e835bff	0.25656125
85	0x3de05eaf	0.109555595
86	0x3d9ea666	0.07746582
87	0xbe968eec	-0.29405916
88	0x3b247dd4	0.0025099413
89	0xbe955f75	-0.2917439
90	0x3b12cbb6	0.0022399253
91	0x3e6cc414	0.23121673
92	0x3e335812	0.17514065
93	0x3ec80b3a	0.39071065
94	0x3e470963	0.19437174
95	0x3da4b0d6	0.08041541
96	0x3e6e9593	0.23299246
97	0xbe660c99	-0.22465743
98	0x3dec1e5f	0.1152923
99	0xbe0a648f	-0.13514923
100	0xbed674e3	-0.41886052
101	0xbe2f81bb	-0.17139332
102	0xbe97d930	-0.29657888
103	0xbecef834	-0.4042374
104	0xbddac2eb	-0.10681709
105	0xbded6356	-0.115912125
106	0xbdf36abf	-0.118855946
107	0x3d8eebb0	0.069785476
108	0x3e2d2922	0.16910222
109	0xbde89c08	-0.113578856
110	0x3e537a99	0.20652236
111	0x3e5d1eba	0.21593753
112	0x3ecbca38	0.39802718
113	0x3d1db482	0.038502224
114	0x3e85e8b4	0.261541
115	0x3efe3c57	0.4965541
116	0xbd5bbdf9	-0.05364797
117	0x3e7b6e92	0.24553898
118	0xbe1961ee	-0.14978763
119	0xbe61e020	-0.22058153
120	0x3decb1ca	0.11557348
121	0xbd953d67	-0.07287102
122	0xbebf0e63	-0.37315664
123	0x3e6ef3bd	0.23335166
124	0x3ca398f3	0.019970393
125	0x3b1851cd	0.0023242116
126	0x3e2a991f	0.16659974
127	0xbdafaeed	-0.08578286
128	0x3e5805d4	0.21095973
129	0x3db63f58	0.088988006
130	0x3e861836	0.26190346
131	0x3df48a8a	0.11940487
132	0xbd3cfc5c	-0.046139106
133	0x3bbecfb8	0.005823102
134	0x3ce9a83c	0.028522603
135	0x3dc8f34d	0.09812031
136	0x3e0a29d6	0.13492522
137	0xbd42ee87	-0.04759076
138	0x3e33ef6f	0.17571805
139	0x3d171f73	0.036895227
140	0x3cbfe5f2	0.023425076
141	0xbeca7a61	-0.39546493
142	0xbd852e05	-0.06502918
143	0x3e4b1016	0.19830355

bneck.0.bn2.weight f4 [16]
0	0x3f6a82b4	0.9160569
1	0x3f7a85da	0.9786049
2	0x3f8d6216	1.1045558
3	0x3f863064	1.0483518
4	0x3f775f01	0.9662934
5	0x3f67af56	0.90501916
6	0x3f75947d	0.959297
7	0x3f821b2e	1.0164545
8	0x3f6e596e	0.9310521
9	0x3f734b86	0.95037115
10	0x3f7b4dc7	0.98165554
11	0x3f905aed	1.1277748
12	0x3f8ccdf1	1.1000348
13	0x3f67aa03	0.9049379
14	0x3f804c2c	1.0023246
15	0x3f8414f2	1.0318892

bneck.0.bn2.bias f4 [16]
0	0x3d330611	0.043706957
1	0x3b4ceb64	0.0031268233
2	0x3e66be4f	0.22533534
3	0x3d47ff1f	0.048827287
4	0xbc05be2d	-0.008163017
5	0x3bf326d1	0.0074203988
6	0xbd0c272c	-0.034217045
7	0x3cc9c090	0.024627954
8	0x3dbe4b78	0.09291738
9	0x3de3a762	0.1111591
10	0x3b184e82	0.0023240154
11	0x3d4d6dac	0.05015342
12	0x3e08ec86	0.13371477
13	0x3d124601	0.035711292
14	0xbc10ba18	-0.008833431
15	0x3bae1d2a	0.005313535

bneck.0.bn2.running_mean f4 [16]
0	0xbe446c72	-0.19181994
1	0xbe98177f	-0.29705426
2	0xbee96b71	-0.45589784
3	0xbead5492	-0.33853585
4	0x3f15f393	0.5857479
5	0xbd536c90	-0.051617205
6	0x3eb3df6d	0.35131398
7	0x3e9847f7	0.29742405
8	0xbcbea0b7	-0.023269994
9	0x3c7c67eb	0.015405635
10	0x3ec5ac0c	0.38607824
11	0xbed7f71a	-0.4218071
12	0x3ecabba3	0.3959628
13	0xbda5dd91	-0.08098901
14	0x3e9b9e0b	0.30394015
15	0x3d073f44	0.03301932

bneck.0.bn2.running_var f4 [16]
0	0x3d24dab2	0.040247627
1	0x3e76ef89	0.24114813
2	0x3fc6a3c6	1.551873
3	0x3ea9bcbe	0.3315181
4	0x3ee3c3bc	0.4448527
5	0x3cf6837d	0.030091995
6	0x3e0df3b2	0.13862494
7	0x3e85d0c1	0.2613583
8	0x3d2fe725	0.042945046
9	0x3c64a553	0.013955432
10	0x3ed1fb89	0.4101222
11	0x3f295fc1	0.66161734
12	0x3e8fe733	0.28106079
13	0x3d5ec746	0.05438926
14	0x3e15b2b2	0.14618948
15	0x3c9b44a8	0.018953636

bneck.0.conv3.weight f4 [16, 16, 1, 1]
0	0xbe3bc0c8	-0.18335259
1	0x3e33229a	0.17493668
2	0x3e47255c	0.19447845
3	0xbe59ff4b	-0.21288793
4	0xbdcd2373	-0.10016527
5	0xbca2c3e0	-0.019868791
6	0xbe2c43b1	-0.16822697
7	0x3e1439f0	0.14475226
8	0xbe2d8a1a	-0.16947213
9	0xbe39bc74	-0.18138295
10	0xbe00d0fb	-0.1257972
11	0xbd2d5b1f	-0.042323228
12	0x3e467bf3	0.1938322
13	0x3e495ba8	0.1966387
14	0xbc3295f9	-0.010900014
15	0x3d061e63	0.032743823
16	0xbd2a1652	-0.041525193
17	0xbdf7eacc	-0.12105331
18	0xbcc84df2	-0.02445123
19	0xbe2202d3	-0.1582139
20	0xbe02e825	-0.12783869
21	0x3e6d4cfd	0.231739
22	0xbd5160a0	-0.05111754
23	0xbe526585	-0.20546539
24	0x3dcebaf4	0.10094252
25	0x3cd4df47	0.025985373
26	0x3e143ccd	0.14476319
27	0x3e7426ce	0.23842928
28	0xbd002b69	-0.0312914
29	0xbd5f972f	-0.05458754
30	0x3e6c961d	0.23104139
31	0x3e47ef0e	0.19524786
32	0x3e18eea0	0.14934778
33	0x3d9999ed	0.07500062
34	0x3d6e23da	0.05813966
35	0xbd904376	-0.07044117
36	0xbe1251b8	-0.14288986
37	0xbd915ad4	-0.07097402
38	0x3da91b15	0.082571186
39	0xbcf6fcc4	-0.030149825
40	0xbddc3bf3	-0.10753622
41	0xbdf8226c	-0.121159405
42	0x3e25c6e0	0.16189146
43	0xbe319949	-0.1734363
44	0x3cda19db	0.026623657
45	0x3e03fdb0	0.12889743
46	0xbca404d8	-0.02002184
47	0xbe98eb05	-0.29866806
48	0xbdd3ccf8	-0.10341829
49	0x3df8e6b1	0.12153376
50	0x3e2ca7c0	0.16860867
51	0x3e7c71c6	0.24652776
52	0x3e5fc376	0.21851906
53	0x3e1a13c5	0.15046604
54	0x3e1b5ca2	0.15172055
55	0xbc7d4964	-0.015459392
56	0x3c4ffdb1	0.012694762
57	0x3df1db54	0.11809412
58	0xbe2d8f93	-0.169493
59	0x3eaeae59	0.34117392
60	0xbc089a3c	-0.008337554
61	0xbd367514	-0.04454525
62	0x3c42793b	0.011869724
63	0xbda86ea0	-0.08224225
64	0xbe0e44fc	-0.13893503
65	0xbdcbe00f	-0.09954845
66	0xbebebc2a	-0.37252933
67	0xbe8b429c	-0.27199256
68	0xbdea51fb	-0.11441418
69	0x3d790c7e	0.06080293
70	0x3d2ef32a	0.042712368
71	0xbe287fcb	-0.16454999
72	0xbe44b16e	-0.19208309
73	0xbc987c14	-0.018613853
74	0x3c8649c3	0.016392594
75	0xbd727c8a	-0.0592008
76	0x3da8c839	0.082413144
77	0x3e27f9ca	0.1640388
78	0x3d16e196	0.03683623
79	0x3e3f756a	0.18697134
80	0x3e80083b	0.2500628
81	0x3c92b788	0.01790978
82	0xbcc7e085	-0.024399051
83	0xbd793b08	-0.060847312
84	0x3e66eff5	0.22552474
85	0xbdb0aea8	-0.08627063
86	0xbe1cceb1	-0.15313222
87	0x3e7af33f	0.24506854
88	0xbc96c631	-0.018405052
89	0xbd592171	-0.053010408
90	0xbd60bf5f	-0.054870006
91	0xbd9b2287	-0.07574945
92	0xbe949a5f	-0.29024026
93	0x3cc6775f	0.024226842
94	0xbe21d5fe	-0.15804288
95	0x3e1cc762	0.15310434
96	0xbd31c904	-0.043404594
97	0x3d0cec14	0.03440483
98	0xbe37895f	-0.17923497
99	0x3e62952e	0.2212722
100	0x3e19b2e4	0.15009648
101	0x3da18e08	0.078884184
102	0x3d44c52f	0.04803961
103	0xbd05ea55	-0.03269418
104	0xbb902014	-0.0043983553
105	0xbe42b06a	-0.19012609
106	0x3d136cc3	0.035992395
107	0xbe348315	-0.17628129
108	0xbdd2273b	-0.10261389
109	0xbe0d1a90	-0.13779664
110	0x3e00e24b	0.12586324
111	0xbddc70b0	-0.10763681
112	0xbe27b785	-0.16378601
113	0xbde0c676	-0.109753534
114	0xb968727b	-0.00022167891
115	0x3e58d3a9	0.21174492
116	0x3d6d2a3b	0.057901602
117	0x3e3c90eb	0.18414657
118	0x3e0ebd22	0.13939336
119	0x3e806a25	0.25080982
120	0x3e719454	0.23591739
121	0x3e734781	0.23757745
122	0x3ddb111c	0.10696623
123	0xbdedd2c1	-0.11612464
124	0x3e6ad772	0.22933748
125	0x3cc09e92	0.023513112
126	0x3dc86e64	0.0978668
127	0x3e2dc8a7	0.16971074
128	0xbe3de952	-0.18546036
129	0x3bf48ea1	0.0074632918
130	0xbe7aa938	-0.24478614
131	0x3d826384	0.06366637
132	0x3e8cad50	0.27475977
133	0xbdb374aa	-0.08762486
134	0xbe4d4762	-0.20046762
135	0x3dc9ed86	0.09859757
136	0xbdc98f07	-0.098417334
137	0x3de49c08	0.11162573
138	0xbe135724	-0.1438871
139	0xbdab9171	-0.0837735
140	0x3e35fae8	0.17771494
141	0x3c865502	0.016397957
142	0x3dae1372	0.08499803
143	0xbd73f035	-0.05955525
144	0xbdbf63f1	-0.09345234
145	0x3e8394cb	0.25699458
146	0x3e8a7bf3	0.2704769
147	0x3d1d6309	0.038424525
148	0x3e10d0b3	0.14142112
149	0xbdab3d65	-0.083613195
150	0xbd25f946	-0.04052093
151	0xbb947251	-0.004530229
152	0xbe4e39a5	-0.20139177
153	0x3d5eac4b	0.05436353
154	0x3d82c984	0.06386092
155	0x3e7a882c	0.24466008
156	0x3e709067	0.23492585
157	0xbda98d6f	-0.082789294
158	0xbdc96b19	-0.098348804
159	0xbc7f6f26	-0.015590465
160	0x3e4495d0	0.19197774
161	0xbe35e56f	-0.17763303
162	0x3cb13496	0.02163152
163	0xbe300b19	-0.17191733
164	0x3d94369d	0.07236979
165	0xbdd57641	-0.10422946
166	0xbd963930	-0.073351264
167	0x3d7ae3e2	0.061252482
168	0xbe597b26	-0.21238384
169	0x3df9efbc	0.12203929
170	0x3d7d535f	0.061847087
171	0x3d8a8d6f	0.067652576
172	0xbeaac311	-0.3335195
173	0xbe75c1f8	-0.23999774
174	0xbe39b5c8	-0.1813575
175	0xbdc4c606	-0.096080825
176	0x3e2601ac	0.16211575
177	0xbdaf9973	-0.0857419
178	0x3d1c8f7d	0.03822278
179	0xbe562844	-0.20913798
180	0xbdecb486	-0.115578696
181	0xbabac57d	-0.001424953
182	0xbb31003f	-0.0027008203
183	0xbdd741dc	-0.105106086
184	0x3e63bcd5	0.22240002
185	0xbe2362fd	-0.1595573
186	0xbe77f73f	-0.2421541
187	0xbe64916e	-0.22321102
188	0xbe2987d9	-0.16555728
189	0x3e795476	0.24348626
190	0x3e569d8c	0.20958537
191	0x3e151d6f	0.1456201
192	0x3ea83b1f	0.32857606
193	0x3d8c9ebe	0.06866215
194	0x3cda6419	0.026659058
195	0xbdcae6a3	-0.09907272
196	0xbc8ff9ee	-0.01757523
197	0x3e45e227	0.19324552
198	0xbe3cd45b	-0.18440382
199	0x3da0365b	0.078228675
200	0x3e25c7f6	0.1618956
201	0x3e2b3318	0.1671871
202	0xbe8c158a	-0.27360183
203	0xbe3a799c	-0.18210453
204	0x3e4e4785	0.2014447
205	0xbcde5784	-0.02714134
206	0xbe20e798	-0.15713346
207	0x3ccf9ab7	0.025342328
208	0xbb4f4900	-0.0031629205
209	0xbdd4136e	-0.103552684
210	0x3dd9b628	0.10630447
211	0xbde766bb	-0.11298891
212	0x3d2d5798	0.042319864
213	0xbdf0d510	-0.117593884
214	0xbe492a06	-0.19644937
215	0xbe00e3a5	-0.1258684
216	0xbe250804	-0.16116339
217	0xbda882f9	-0.08228106
218	0xbdd3b244	-0.10336736
219	0xbdcf1e84	-0.10113242
220	0x3c7a0c59	0.015261733
221	0x3e0d6e81	0.13811685
222	0x3d76c285	0.060244102
223	0x3e6ecba1	0.23319866
224	0x3daf6dc2	0.085658565
225	0xbdfc0e58	-0.12307423
226	0x3ddffaad	0.109364845
227	0x3e0d5d00	0.13805008
228	0xbdac1759	-0.08402891
229	0x3dd155e5	0.10221461
230	0xbdbb1125	-0.091341294
231	0xbe28c386	-0.16480836
232	0x3dd2bcf6	0.10289948
233	0xbe3e2bcd	-0.18571396
234	0xbe6e6c73	-0.23283558
235	0x3e4a998c	0.19785136
236	0xbc9c3dda	-0.019072462
237	0x3e2a5a19	0.16635932
238	0x3e81562f	0.25261065
239	0xbe33cf44	-0.17559534
240	0xbe2760a0	-0.16345453
241	0x3e63a72e	0.22231743
242	0x3cecac38	0.028890714
243	0xbe845a5d	-0.25850192
244	0x3e7a849e	0.24464652
245	0x3df88796	0.12135236
246	0xbe3439b0	-0.17600131
247	0xbe860898	-0.26178432
248	0xbd8e156f	-0.06937682
249	0xbd671092	-0.056412287
250	0x3cfb234d	0.030656481
251	0x3caccb1d	0.021092946
252	0x3e7d16b1	0.24715687
253	0x3d0796cf	0.033102807
254	0xbc3c7ad2	-0.011503892
255	0x3a39c169	0.00070860103

bneck.0.bn3.weight f4 [16]
0	0x3f75f1f3	0.9607231
1	0x3f6a492c	0.915179
2	0x3f7cd512	0.9876262
3	0x3f83bdd9	1.0292312
4	0x3f846484	1.0343175
5	0x3f84bf09	1.0370799
6	0x3f80a23a	1.0049508
7	0x3f82da29	1.0222827
8	0x3f89a379	1.0753013
9	0x3f8ae1de	1.0850179
10	0x3f7f5dce	0.9975251
11	0x3f71d9f1	0.9447318
12	0x3f87c86e	1.0608041
13	0x3f76094a	0.96107924
14	0x3f7c265e	0.98496044
15	0x3f765554	0.9622395

bneck.0.bn3.bias f4 [16]
0	0xbd0c96c4	-0.03432347
1	0xbd1357c2	-0.035972364
2	0xbe14a29a	-0.14515153
3	0x3be7effa	0.007078168
4	0x3e00bec3	0.1257277
5	0xbcfda2a3	-0.03096134
6	0x3c4f6871	0.012659178
7	0x3c33c828	0.010973014
8	0xbdaec195	-0.085330166
9	0x3d15e05c	0.03659092
10	0x3c1d8cef	0.009616121
11	0x3e03d7ea	0.12875333
12	0x3e0ba9d9	0.1363901
13	0xbda16bb0	-0.07881868
14	0xbcf272dc	-0.029595785
15	0x3cb91f9a	0.022598077

bneck.0.bn3.running_mean f4 [16]
0	0xbdd29416	-0.102821514
1	0x3ddf884e	0.1091467
2	0xbdc0c199	-0.09411926
3	0x3ed6f163	0.41981038
4	0xbeb32136	-0.34986275
5	0xbd318545	-0.043339986
6	0xbdbfec6e	-0.09371267
7	0x3f062003	0.52392596
8	0xbdd8151b	-0.105509005
9	0x3e9b0622	0.30278116
10	0xbea93a9e	-0.33052534
11	0xbdfeaa3b	-0.12434813
12	0x3d998b3c	0.0749726
13	0xbe2df184	-0.16986662
14	0x3d50f325	0.05101313
15	0xbc1cdb24	-0.009573732

bneck.0.bn3.running_var f4 [16]
0	0x3e018a47	0.12650405
1	0x3dbed52d	0.09318004
2	0x3d7f504e	0.062332444
3	0x3db6a5d7	0.0891835
4	0x3da56dd7	0.08077591
5	0x3dff872e	0.12476955
6	0x3d86f6de	0.06590055
7	0x3e8b3afe	0.27193445
8	0x3d7254df	0.05916297
9	0x3e134cf1	0.1438482
10	0x3e51c4f0	0.20485282
11	0x3e80b1df	0.25135705
12	0x3e878759	0.2647045
13	0x3db14431	0.086555846
14	0x3e7e166b	0.2481324
15	0x3e1e1afd	0.15439983

bneck.1.conv1.weight f4 [72, 16, 1, 1]
0	0xbe4d7fa6	-0.20068225
1	0x3e01099b	0.1260132
2	0x3d853041	0.06503344
3	0xbe312175	-0.17297919
4	0x3dbe0879	0.0927896
5	0xbe485f55	-0.19567616
6	0x3e6332c0	0.22187328
7	0x3de7ea9a	0.113240436
8	0x3e3b1c81	0.18272592
9	0xbcd06230	-0.025437444
10	0xbca67694	-0.020320214
11	0x3e29cb16	0.16581377
12	0x3c75872e	0.014985843
13	0xbe25fad9	-0.16208972
14	0xbdc00970	-0.093768
15	0x3c180123	0.009277615
16	0x3c78caf5	0.0151851075
17	0xbd6d913f	-0.057999846
18	0x3dfa53e1	0.1222303
19	0xbe523b71	-0.20530488
20	0xbe15dc78	-0.14634883
21	0x3e5fd9e2	0.2186046
22	0x3ca645a2	0.020296875
23	0xbe54a6d0	-0.20766759
24	0x3e3dc8a2	0.18533567
25	0xbe8d95df	-0.27653405
26	0x3db29d6a	0.087214306
27	0x3cca49e0	0.02469343
28	0x3e06f5e2	0.13179734
29	0x3dd3d928	0.10344154
30	0xbe7954de	-0.2434878
31	0x3e1fdfc8	0.1561271
32	0xbd8da78a	-0.06916721
33	0xbe4e2686	-0.20131883
34	0x3cc0a168	0.023514464
35	0x3c96fcc0	0.018431067
36	0xbcaaf69a	-0.020869542
37	0xbe819574	-0.25309336
38	0x3d79c9f6	0.06098362
39	0xbea5f81e	-0.3241586
40	0xbd8da6bc	-0.06916568
41	0x3da01e9e	0.0781834
42	0x3e80c058	0.25146747
43	0x3de65810	0.11247265
44	0xbc8f03c8	-0.017457858
45	0xbe1c2dcd	-0.15251847
46	0xbdde981f	-0.108688585
47	0x3ca2c8fd	0.01987123
48	0xbe73cfbf	-0.23809718
49	0xbe438e01	-0.19097139
50	0xbe1744fe	-0.14772412
51	0xbea20d77	-0.31650898
52	0x3e02fe9f	0.12792443
53	0x3e53a758	0.20669305
54	0x3e3a7a34	0.1821068
55	0xbe177c0a	-0.14793411
56	0x3e7e9485	0.24861343
57	0x3e37a4c8	0.17933953
58	0x3dc21014	0.09475723
59	0x3d1f235f	0.038852092
60	0x3e118f27	0.14214765
61	0x3e3f851b	0.1870312
62	0xbc248e18	-0.010043643
63	0xbcdf4dde	-0.02725881
64	0x3e183230	0.14862895
65	0xbe05a2b5	-0.13050349
66	0xbd772142	-0.06033445
67	0x3e2234bf	0.15840434
68	0x3c872e24	0.016501494
69	0x3e042eff	0.12908553
70	0xbe80b166	-0.25135344
71	0x3d1b2f0c	0.037886664
72	0xbdf47ab1	-0.11937464
73	0x3e4ac176	0.19800362
74	0xbd2f2007	-0.042755153
75	0xbd3c079f	-0.045905706
76	0x3e6dcf2b	0.2322356
77	0xbe2d7145	-0.1693774
78	0x3dabccbd	0.0838866
79	0x3e306678	0.17226589
80	0xbe752024	-0.23938042
81	0xbe146781	-0.14492609
82	0x3e3de561	0.18544532
83	0xbe2dff58	-0.16991937
84	0xbe87e542	-0.26542097
85	0x3d954126	0.07287817
86	0xbcca71d2	-0.024712477
87	0xbe35cef9	-0.17754735
88	0x3d73efe1	0.05955494
89	0x3e282c86	0.16423234
90	0x3e91680d	0.28399697
91	0x3e019546	0.126546
92	0xbe1d61ff	-0.15369414
93	0x3e060829	0.1308905
94	0x3e37f8f8	0.17966068
95	0x3d6cf8d9	0.057854507
96	0x3d0e675f	0.03476655
97	0x3dd7cfdd	0.10537694
98	0x3d2df4e7	0.042469885
99	0xbe3d7845	-0.1850291
100	0x3e826831	0.25470117
101	0x3e172d02	0.14763263
102	0x3e44d865	0.19223173
103	0xbe3b5b67	-0.18296586
104	0xbe191e3b	-0.14952938
105	0xbd9f39a6	-0.077746674
106	0x3cce1944	0.025158532
107	0x3daa35dd	0.08311055
108	0xbe046dba	-0.12932482
109	0x3e164281	0.14673807
110	0xbdc17298	-0.09445685
111	0x3e15196d	0.1456048
112	0x3e1fb05c	0.1559462
113	0xbe2aab81	-0.16666986
114	0xbdae41da	-0.08508654
115	0xbd553cee	-0.05206006
116	0x3dec06d1	0.115247376
117	0x3d62bed5	0.055357773
118	0xbc63dfe1	-0.013908357
119	0xbd3b1aa0	-0.04567969
120	0xbeb05f9a	-0.34447938
121	0xbd5ef27d	-0.054430474
122	0x3e947114	0.28992522
123	0xbe8193db	-0.25308117
124	0xbde1a52e	-0.11017834
125	0xbe53869f	-0.20656823
126	0xbd381814	-0.044944838
127	0x3dbd49b6	0.09242575
128	0xbda415fc	-0.08012006
129	0xbcb3c1ad	-0.021942938
130	0xbdee90be	-0.11648701
131	0xbe37ea06	-0.17960367
132	0x3e83a85c	0.25714386
133	0x3e50b242	0.203805
134	0x3e051baf	0.12998842
135	0x3d37e8f4	0.044899896
136	0x3d9da009	0.0769654
137	0xbe41c24f	-0.18921779
138	0xbcc92986	-0.024555933
139	0xbcc3e678	-0.023913607
140	0xbd737297	-0.059435453
141	0x3d8c8d82	0.06862928
142	0x3e1712c3	0.14753251
143	0x3de9eded	0.11422334
144	0x3e01a91a	0.12662163
145	0xbe552087	-0.2081319
146	0xbd078a03	-0.033090603
147	0x3e21235d	0.15736146
148	0xbda79b9f	-0.08183979
149	0xbe142dcc	-0.14470595
150	0x3d1e2001	0.03860474
151	0xbe8625ef	-0.26200816
152	0xbe1cc2ed	-0.15308733
153	0xbe49eeec	-0.19720048
154	0x3e25a65a	0.1617674
155	0xbcab0b16	-0.02087931
156	0xbe320797	-0.17385708
157	0xbd19cfbb	-0.037551623
158	0x3b3e5cc1	0.0029046985
159	0x3c36c1d9	0.011154615
160	0xbe01e8b1	-0.12686421
161	0xbe12244e	-0.14271662
162	0x3e1c85b5	0.1528538
163	0x3e08c528	0.13356459
164	0x3e0b64a0	0.13612604
165	0x3e2cb671	0.16866471
166	0xbb1a7e36	-0.0023573763
167	0x3de911f8	0.113803804
168	0xbe81d1e0	-0.25355434
169	0xbe86274c	-0.26201856
170	0xbc323f5b	-0.010879363
171	0x3e00a461	0.12562706
172	0xbe1a38f8	-0.15060794
173	0x3dfa859d	0.12232516
174	0x3c0c61f6	0.008568278
175	0x3c0455d7	0.008077106
176	0x3d5fc55f	0.054631587
177	0xbcd824b2	-0.026384685
178	0xbe0e503b	-0.13897793
179	0xbe0bac55	-0.13639958
180	0x3d9cc3b0	0.07654512
181	0xbca32ba0	-0.019918263
182	0xbe567ba4	-0.20945603
183	0xbdf54c9a	-0.11977501
184	0x3e336bf2	0.17521647
185	0xbe8cc2e7	-0.2749245
186	0x3dc6cb81	0.09706784
187	0x3e4e48c8	0.20144951
188	0x3e6eb83f	0.23312472
189	0x3b4f0b28	0.0031592343
190	0xbdbffb33	-0.09374084
191	0xbdfd9e96	-0.123837635
192	0xbd73b81c	-0.059501752
193	0xbdca1748	-0.09867722
194	0x3d680802	0.05664826
195	0xbe68a3b0	-0.22718692
196	0x3dc3bce6	0.09557514
197	0xbce551e1	-0.027993144
198	0xbe5faf08	-0.21844113
199	0xbd9b1fed	-0.07574449
200	0xbe1528bd	-0.14566322
201	0x3dbcb1ba	0.09213586
202	0x3cecdd0a	0.028913993
203	0xbe21e488	-0.15809834
204	0xbd610b09	-0.054942165
205	0xbc93eda3	-0.01805765
206	0xbdfac7f9	-0.12245173
207	0x3e512542	0.20424369
208	0x3df46d97	0.11934965
209	0x3df8d48f	0.12149917
210	0xbe70af61	-0.23504402
211	0xbe5871db	-0.21137182
212	0x3e93412a	0.28760654
213	0xbe145c5d	-0.14488359
214	0x3e2bd4f6	0.16780457
215	0x3e50809c	0.2036156
216	0xbe130435	-0.14357074
217	0xbcd93084	-0.026512392
218	0xbe3af1c4	-0.18256289
219	0xbdb1882b	-0.0866855
220	0xbdd3401d	-0.10314963
221	0xbdbf19e2	-0.09331109
222	0x3e0581d7	0.13037811
223	0xbc67f621	-0.014157803
224	0x3daf5263	0.08560636
225	0x3e19f396	0.15034327
226	0xbcb980e1	-0.022644462
227	0xbe828fe9	-0.2550042
228	0x3d46bc83	0.048519623
229	0xbcd7dcf1	-0.02635047
230	0xbe3bc366	-0.18336257
231	0x3e5a56e1	0.21322204
232	0xbd68d222	-0.056841023
233	0x3cd3d8c0	0.02586019
234	0x3dab8f73	0.0837697
235	0x3e60011c	0.21875423
236	0xbd1301b9	-0.035890315
237	0x3d1a3c31	0.03765506
238	0xbde3e74a	-0.11128099
239	0x3e55b51a	0.20869866
240	0xbd1fb08c	-0.038986728
241	0xbe6cadb5	-0.23113139
242	0x3e1fd4c1	0.15608503
243	0xbaa6ac71	-0.0012716186
244	0x3c49a0c5	0.012306397
245	0x3e32c7b8	0.17458999
246	0x3c7a5921	0.015280039
247	0x3e030f30	0.12798762
248	0xbda71be5	-0.08159617
249	0xbdb6f31c	-0.08933088
250	0xbd346463	-0.04404105
251	0xbe8a2bdd	-0.2698659
252	0xbe11faa6	-0.14255771
253	0x3dc3069a	0.095227435
254	0xbe4c42b7	-0.19947325
255	0xbd5b05c6	-0.053472303

bneck.1.bn1.weight f4 [72]
0	0x3f44b263	0.76834697
1	0x3f074c03	0.5285036
2	0x3f690ed1	0.91038233
3	0x3f537727	0.8260369
4	0x3f50c3a0	0.815485
5	0x3f4f71a4	0.81032777
6	0x3f48aa9f	0.7838535
7	0x3f5b2f5a	0.8561913
8	0x3f263ca0	0.64936256
9	0x3f4feecb	0.81223744
10	0x3f4a6763	0.79064006
11	0x3f2143b4	0.6299393
12	0x3f496d45	0.7868236
13	0x3f5a294e	0.85219276
14	0x3f5ff9d5	0.8749059
15	0x3f436c2d	0.7633694
16	0x3f2e8141	0.68165976
17	0x3f402464	0.7505553
18	0x3f35ddc8	0.71041536
19	0x3f4c6f59	0.79857403
20	0x3f29bcfb	0.66303986
21	0x3f46fba4	0.77727723
22	0x3f60bd06	0.87788427
23	0x3f6c996b	0.924216
24	0x3f3e8e6b	0.7443606
25	0x3f2255cd	0.6341217
26	0x3f5bd56a	0.8587252
27	0x3f43b403	0.7644655
28	0x3f511b61	0.816824
29	0x3f6ff5da	0.93734515
30	0x3f41aa2d	0.7565029
31	0x3f56f4ed	0.8396748
32	0x3f5a1244	0.8518412
33	0x3f34e9a6	0.7066902
34	0x3f46ee5c	0.7770746
35	0x3f486594	0.78279996
36	0x3f4de0b9	0.80421025
37	0x3f4cdb73	0.8002235
38	0x3f09c496	0.5381559
39	0x3f3ef470	0.7459173
40	0x3f3dbb09	0.7411352
41	0x3f50ead7	0.8160834
42	0x3f3f904d	0.7482956
43	0x3f6dfd07	0.92964214
44	0x3f36d0b3	0.714122
45	0x3f522368	0.82085276
46	0x3f5551e6	0.8332809
47	0x3f273f9f	0.65331453
48	0x3f411727	0.7542595
49	0x3f4200ba	0.7578236
50	0x3f41a793	0.7564632
51	0x3f5fb8ec	0.87391543
52	0x3f591fa3	0.848139
53	0x3f3e1229	0.7424646
54	0x3f2002b2	0.6250411
55	0x3f548b5c	0.83025146
56	0x3f333725	0.7000602
57	0x3f40aa1b	0.7525956
58	0x3f5d80c5	0.8652461
59	0x3f417499	0.7556854
60	0x3f4f427f	0.8096084
61	0x3f477eb7	0.77927727
62	0x3f5d7797	0.86510605
63	0x3f4473fa	0.76739466
64	0x3f4b1d40	0.79341507
65	0x3f348938	0.7052188
66	0x3f59972e	0.84996307
67	0x3f6356ad	0.8880413
68	0x3f444a75	0.7667611
69	0x3f4f1cf6	0.80903566
70	0x3f2d2de9	0.6764818
71	0x3f21b37c	0.63164496

bneck.1.bn1.bias f4 [72]
0	0x3cf3001c	0.029663138
1	0x3e892d43	0.26792344
2	0x3ca762f4	0.020432927
3	0x3cc94e16	0.024573367
4	0x3d883baf	0.06652009
5	0x3da7f5b5	0.08201162
6	0x3d715a05	0.05892374
7	0x3c4f244a	0.012642929
8	0x3e680e5e	0.2266173
9	0x3dfb781c	0.122787684
10	0x3da2cae1	0.07948852
11	0x3e10f514	0.1415599
12	0x3ceba587	0.028765453
13	0x3db7ebf6	0.08980553
14	0x3d2f664d	0.04282217
15	0x3d87dcbb	0.06633898
16	0x3e10e9e8	0.14151728
17	0xbd2df858	-0.042473167
18	0x3e60109f	0.2188134
19	0x3dee9f64	0.11651495
20	0xbdf7716a	-0.12082179
21	0x3e238a95	0.15970834
22	0x3d3ba82e	0.045814686
23	0xbd2a5702	-0.041586883
24	0x3d955e0d	0.072933294
25	0x3de18d48	0.110132754
26	0x3d90dfc8	0.07073933
27	0x3d1ec187	0.03875878
28	0x3d3e98d7	0.04653248
29	0x3c2869e1	0.01027915
30	0x3d0a70c2	0.03379894
31	0x3d9e1589	0.07718951
32	0x3b3f2890	0.0029168464
33	0x3e025144	0.12726313
34	0x3cc80abf	0.024419187
35	0xbc743ef9	-0.014907592
36	0x3d89df87	0.067320876
37	0xbb5d0f4d	-0.0033731044
38	0x3e93a980	0.28840256
39	0x3e02430b	0.12720887
40	0xbe22782f	-0.15866159
41	0xbd9e5902	-0.07731821
42	0x3dd9552d	0.10611949
43	0xbc392af6	-0.011301747
44	0x3d598719	0.053107355
45	0x3de24d5b	0.11049911
46	0x3ce51347	0.027963294
47	0x3d3f0457	0.046635
48	0xbd4066e3	-0.04697312
49	0xbcccb56c	-0.024988852
50	0xbdbed60b	-0.09318169
51	0xbaf86f61	-0.0018954092
52	0xbb1b6d9d	-0.0023716458
53	0x3e270bac	0.16313046
54	0x3d23b3bc	0.03996633
55	0x3cf411b4	0.029793598
56	0x3e3fd7fc	0.18734735
57	0x3d50d064	0.050979987
58	0x3d98bc0c	0.07457742
59	0xbd8f371d	-0.06992934
60	0x3da49479	0.080361314
61	0xbc574721	-0.013139517
62	0xbd36ebff	-0.044658657
63	0x3e181de0	0.14855146
64	0xbd5af105	-0.05345251
65	0x3df68e66	0.12038879
66	0x3c3372ec	0.0109526925
67	0x3c613e33	0.01374774
68	0xbd68606b	-0.056732576
69	0x3dd2a542	0.10285427
70	0x3e1e3ef3	0.154537
71	0x3d4ec4da	0.0504807

bneck.1.bn1.running_mean f4 [72]
0	0xbaa65ae9	-0.0012691888
1	0xbca88c48	-0.020574704
2	0x3cf14565	0.029452035
3	0x3c9d601f	0.019210873
4	0x3c9cece2	0.019155923
5	0xbba131ea	-0.0049192803
6	0x3c34146e	0.010991199
7	0xbad917a2	-0.0016562829
8	0x3ca9ec2e	0.020742502
9	0x3cbed7e4	0.023296304
10	0x3c5fff29	0.013671675
11	0x3d2079b6	0.039178573
12	0xbbfb216d	-0.007663897
13	0x3cce5d28	0.025190905
14	0x3b1511de	0.0022746245
15	0xbd4f0c3b	-0.050548773
16	0x3a0c8ac3	0.0005361253
17	0x3c90e0e7	0.017685367
18	0x3c36f5b7	0.011166981
19	0xbb6b0ba0	-0.0035865083
20	0xbd249e9f	-0.040190335
21	0x3c8c6add	0.0171408
22	0xbc9ca015	-0.019119302
23	0x3ca6c527	0.020357681
24	0xbbd6f454	-0.006559888
25	0xbc87b38b	-0.016565105
26	0xbb840941	-0.0040294235
27	0x3ac0cbf4	0.001470922
28	0x3cf125ed	0.02943703
29	0x3c0ae77b	0.008478041
30	0x3d52b1de	0.05143916
31	0xbb6ffc2c	-0.0036618812
32	0x3c331ed8	0.010932647
33	0x3ca85fa3	0.020553416
34	0x3d0a8f8f	0.033828314
35	0xbd0d535a	-0.03450332
36	0x3c66fe78	0.014098756
37	0xbc3ad493	-0.011403221
38	0x3b8e28a1	0.0043383394
39	0xbbc52271	-0.0060160686
40	0x3d0cebb0	0.034404457
41	0x3d205ca8	0.039150864
42	0xbd1fc37f	-0.0390048
43	0xbcd4b911	-0.025967153
44	0x3d39661d	0.0452634
45	0x3bb2b9b7	0.005454268
46	0xbcd9d4ea	-0.026590783
47	0x3c8923ee	0.016740765
48	0x3c6f255c	0.0145963095
49	0xbc8f5bd8	-0.01749985
50	0xbcabdcab	-0.020979246
51	0xbcd398f6	-0.025829773
52	0x3c8594d8	0.016306326
53	0x3c6dbb10	0.014509931
54	0x3d40de6d	0.04708712
55	0x3ca316cd	0.019908333
56	0x3c6a928f	0.014317169
57	0x3cc4f401	0.024042131
58	0x3d811d49	0.06304414
59	0x3a0de25d	0.0005412454
60	0x3b920739	0.0044564274
61	0xbc7654b5	-0.015034844
62	0x3b303eb7	0.002689285
63	0xbce744ee	-0.02823111
64	0xbd5b94e7	-0.0536088
65	0x3b3ee68f	0.0029129123
66	0x3bad5f88	0.005290929
67	0x3c9c4e5b	0.019080332
68	0xbcac8040	-0.021057248
69	0x3c8aceb5	0.016944269
70	0x3cdf5e10	0.027266532
71	0xbcae1870	-0.021251887

bneck.1.bn1.running_var f4 [72]
0	0x3d28edc3	0.041242372
1	0x3da72428	0.08161193
2	0x3de85c28	0.113457024
3	0x3d8e8365	0.06958655
4	0x3dc06534	0.09394303
5	0x3e1e0518	0.1543163
6	0x3df74a48	0.12074715
7	0x3e074e3b	0.13213436
8	0x3d93f67d	0.07224748
9	0x3ddb6312	0.107122555
10	0x3d9c9399	0.076453395
11	0x3e1fe24a	0.15613666
12	0x3d75df43	0.060027372
13	0x3de3a647	0.11115699
14	0x3db66d51	0.08907569
15	0x3dc40cca	0.09572752
16	0x3d81d597	0.06339567
17	0x3db9e13b	0.090761624
18	0x3d96e935	0.073686995
19	0x3d59e3f1	0.053195897
20	0x3caf5bc7	0.021406068
21	0x3e2be259	0.16785564
22	0x3d1a8201	0.037721638
23	0x3d472f62	0.048629172
24	0x3d9e83bb	0.07739969
25	0x3dc1194e	0.094286546
26	0x3d161bef	0.036647733
27	0x3d9d2098	0.076722324
28	0x3e7fb542	0.24971488
29	0x3d9fca2b	0.07802232
30	0x3dcf1888	0.10112101
31	0x3ddcf603	0.107891105
32	0x3dcd13f3	0.10013571
33	0x3e2af4b2	0.16694906
34	0x3d1e49e3	0.038644683
35	0x3d89ba3a	0.06724973
36	0x3db8f8dd	0.09031842
37	0x3e0ef4bb	0.13960545
38	0x3d692122	0.056916364
39	0x3d1592a4	0.0365168
40	0x3d32495f	0.043527003
41	0x3d9882e1	0.07446838
42	0x3d8598d7	0.065232925
43	0x3e871b5e	0.26388067
44	0x3e2b131f	0.16706513
45	0x3da2c386	0.079474494
46	0x3de0377a	0.10948081
47	0x3df4a3c3	0.119452976
48	0x3ce59264	0.028023906
49	0x3da7df1a	0.0819685
50	0x3e10475b	0.1408972
51	0x3d24270c	0.0400763
52	0x3e15fcac	0.14647168
53	0x3d8133bc	0.06308696
54	0x3d850b33	0.06496277
55	0x3e25c7c0	0.1618948
56	0x3d4959ff	0.049158093
57	0x3e002df6	0.12517533
58	0x3deeed27	0.11666327
59	0x3d8281c1	0.06372405
60	0x3e3bf1ca	0.18353954
61	0x3ce0d677	0.027446015
62	0x3cea51f2	0.028603528
63	0x3d7a6341	0.061129812
64	0x3d5e1b85	0.054225463
65	0x3dc196b8	0.094525754
66	0x3d96f0c3	0.073701404
67	0x3d8bc5b3	0.068248175
68	0x3d9c3a03	0.07628252
69	0x3dce8f0b	0.10085877
70	0x3dc36caa	0.095422104
71	0x3e2da148	0.16956055
