TX2/multicamerarl/torch_models/weights_15.pth (torch_old, 478682 bytes, 91 tensors)

conv1.weight f4 [16, 3, 3, 3]
000000 82 8e 04 bd d4 e0 dd bd 47 f5 57 3e bf fa 13 3e
       -0.03236247 -0.10833898 0.2108966 0.14451121
000010 7c 0f 15 be 54 a1 06 3e 29 78 2e 3c 07 e8 2b 3d
       -0.14556688 0.1314748 0.010648766 0.041969325
000020 97 a1 f9 bd f0 e4 60 bd e1 02 21 3e 53 26 d6 3a
       -0.12189024 -0.05490583 0.15723754 0.0016338326
000030 f4 27 97 3b ca 31 d3 bd 10 b4 f4 bd bc dd 59 be
       0.004612917 -0.10312231 -0.11948407 -0.21275991
000040 42 b0 46 be 9b 6a 33 bd d2 84 eb 3d b6 98 6f bd
       -0.19403175 -0.04380284 0.11499943 -0.058495246
000050 5e 8a 34 3e 9a 2d 15 be d9 4a 0f be 6e 62 21 3e
       0.17630908 -0.14568177 -0.13993396 0.15760204
000060 ca 51 43 be 23 c6 e2 3d 79 ca 19 bd 82 a2 c5 3d
       -0.19074169 0.11072948 -0.03754661 0.096501365
000070 f0 74 be bd 48 77 f4 3d d1 6d c8 3d 97 8a b9 3d
       -0.09299648 0.119368136 0.09786571 0.09059637
000080 20 bb a3 3d 07 de 51 be 41 f8 f0 bd 0c 72 1b bd
       0.07994676 -0.20494853 -0.11766101 -0.03795056
000090 fa 4f 57 3d 22 b2 5a 3e 55 a6 55 bc 91 31 34 3c
       0.052566506 0.21357015 -0.013040145 0.010998146
0000a0 56 5c 83 bd 0d b4 47 be b6 cb be 3d 2e ff 22 be
       -0.06414096 -0.19502278 0.093161985 -0.15917656
0000b0 84 94 ef bd f9 9e 57 bd 34 ae e6 bd 75 56 b0 3d
       -0.11698249 -0.052641843 -0.11263695 0.0861024
0000c0 09 36 91 3d f7 61 1c bd f9 37 a3 3d 91 33 06 be
       0.070903845 -0.038179364 0.0796966 -0.13105609
0000d0 b9 b9 e1 bd ae 08 b8 3d 21 1f 06 3d c8 40 2c be
       -0.11021752 0.089860305 0.03274453 -0.16821587
0000e0 92 35 3e bb ec 1c a9 bd ec d7 10 be 21 77 bf 3c
       -0.002902363 -0.082574695 -0.14144868 0.023372235
0000f0 07 5d b9 bd 84 7b 3e bd 1a e9 1d 3e c9 67 e7 bd
       -0.09050947 -0.046504512 0.15420952 -0.11299092
000100 8b 21 48 be 6b 35 a4 bd b3 3e 87 bd c1 5c 47 3d
       -0.19544046 -0.08018001 -0.06603756 0.04867244
000110 ae ef 8c bc b4 6b aa bd 9d 32 b6 bd 1a 4f 3e bd
       -0.017204132 -0.08321324 -0.088963725 -0.046462156
000120 75 ee c0 3c 37 05 36 bd 76 5d bf bd e4 94 5b bd
       0.023551205 -0.044438567 -0.09343998 -0.05360879
000130 b7 dd 0a be 72 7b 0e be c9 d0 ef bd 29 55 8f 3d
       -0.1356114 -0.13914278 -0.117097445 0.06998665
000140 87 6d 86 bd 63 55 69 3c 85 6b c3 bd b4 16 f9 3d
       -0.065638594 0.014241549 -0.09541992 0.121625334
000150 a3 d3 16 bd 81 39 26 be b6 f1 49 be 91 55 c2 3d
       -0.036822926 -0.16232873 -0.19721112 0.09488977
000160 c2 0a fe 3d 08 4f de 3d ac 44 19 3e 82 40 0c 3e
       0.12404396 0.10854918 0.14967602 0.13696483
000170 8f f3 15 3e 10 03 cb bd e9 52 c0 bd eb 26 92 3d
       0.14643691 -0.099126935 -0.09390814 0.07136329
000180 f1 43 74 bd ca 5f 16 be 90 99 93 3d 5e 98 47 3d
       -0.059635106 -0.14684978 0.07207024 0.048729293
000190 4c 17 00 3d 8d aa 14 be 7a db 64 3d 73 30 77 bd
       0.031272218 -0.14518185 0.05587337 -0.06034894
0001a0 0f ec cf 3c e1 a3 31 be 8b d3 0c 3e f7 a0 58 3c
       0.025381116 -0.17347671 0.13752572 0.013221971
0001b0 f8 68 ee 3d 17 39 1a be d0 48 a1 bd 7b 1a 68 3d
       0.11641115 -0.1506084 -0.07875216 0.05666588
0001c0 b4 f0 10 3e e5 f7 3b bd 34 11 e2 bc f3 03 28 3d
       0.14154321 -0.045890708 -0.027596094 0.04101939
0001d0 4f 23 97 ba 26 85 83 3d 38 f8 0d be ee 2e 15 be
       -0.0011530909 0.064218804 -0.13864219 -0.14568684
0001e0 79 8d 94 3c ba 8b 36 3e c9 fb a5 3c 0e a3 ee bd
       0.018133866 0.17826739 0.020261662 -0.11652194
0001f0 1e 0e 35 be 0c be 51 bd c4 32 10 3e 35 6f a4 bd
       -0.17681167 -0.051206633 0.14081866 -0.080290236
000200 78 65 b7 bc 3a 82 0f be 33 fb a8 bd b2 31 03 be
       -0.022387251 -0.14014521 -0.082510374 -0.12811926
000210 07 17 ac bd 26 b8 74 bd 2c ea 62 be 62 4b 14 be
       -0.084028296 -0.05974593 -0.22159642 -0.14481881
000220 65 d5 06 bd e2 76 9e 3b e9 f8 ce 3d a8 ee 15 be
       -0.032918353 0.0048359493 0.101060696 -0.14641821
000230 6c b9 a7 3d d8 23 d3 3d 93 cb 0e be b5 62 d3 3d
       0.08189663 0.10309571 -0.13944845 0.10321561
000240 74 36 2e be ca bb 44 be c7 9b eb 3d d5 45 a3 3c
       -0.1701296 -0.19212261 0.115043215 0.01993076
000250 d3 ba 1d 3e 84 0e 72 3d 6c c2 d9 bd d8 3c d0 bd
       0.15403299 0.059095874 -0.10632786 -0.10167855
000260 71 af 24 3d 04 9c ff 3d 5c 19 f4 bd 2b 52 d2 bd
       0.040206376 0.124809295 -0.119188994 -0.102695785
000270 6f 25 33 3c 33 04 05 3d 82 46 84 3c de 98 7b bd
       0.010934218 0.032474708 0.016146902 -0.061425082
000280 f7 79 01 3e 41 0a a7 3d 79 0d 6c 3d 16 64 04 3e
       0.12644182 0.08156253 0.057630036 0.12928805
000290 3e 2d 86 bc 8f 8b c8 3d 72 e9 37 bd 27 83 68 3e
       -0.016378995 0.09792244 -0.044900365 0.2270628
0002a0 21 be 07 bd ea 87 80 bd ad 15 f3 bd f3 63 ad 3d
       -0.033140305 -0.062759236 -0.11869369 0.084663294
0002b0 20 b7 fe 3d 47 b2 58 be 90 48 f3 3d e1 39 b4 bd
       0.12437272 -0.21161757 0.118790746 -0.08800102
0002c0 04 49 b1 3d 4a 1c 6c bc 0d 47 bd bc 50 b9 4b 3d
       0.08656505 -0.0144110415 -0.023105169 0.049737275
0002d0 eb ae 08 bd 5b 85 e1 3d 8f 8e cd 3d 57 6f 84 be
       -0.03336994 0.11011764 0.100369565 -0.25866196
0002e0 70 3b 59 bc 0c da 0a 3e bb fc 58 3c 2c b1 bb bd
       -0.0132588 0.13559741 0.013243849 -0.09164652
0002f0 54 34 62 be 18 70 bd bd fa 39 32 be df 8e 1e be
       -0.22090274 -0.09249896 -0.17404929 -0.15484188
000300 8f 80 33 3e 17 96 27 be 63 d7 d2 3d f4 a4 f2 bd
       0.1752951 -0.16365848 0.10294988 -0.118478686
000310 cb b7 09 be 31 ea 63 bc 80 2e 1e bc 2e 63 0e 3e
       -0.13449018 -0.013910816 -0.009654641 0.13905022
000320 2d 40 43 3e 62 9d 1a 3d 86 6e 0d 3e 01 76 23 be
       0.1906745 0.03774775 0.13811693 -0.15962984
000330 26 b3 f6 3d a4 42 b5 bd de 45 ff 3d 9f b6 1e be
       0.120458886 -0.08850601 0.12464498 -0.15499352
000340 06 0e 08 be 4b 5b 99 3d 11 72 a9 3d 54 30 1d 3e
       -0.132866 0.07488116 0.082737096 0.15350467
000350 c9 05 d8 b9 44 10 0c be 38 3f 7d 3c 40 78 6d 3d
       -0.0004120304 -0.1367808 0.015456967 0.057976007
000360 13 41 01 3e 40 16 e5 3d 25 8c 29 be bc 58 98 bd
       0.1262248 0.111858845 -0.16557367 -0.074388
000370 53 65 10 be 72 75 35 bb fe 16 86 3c 93 bb 23 3e
       -0.14101152 -0.002768841 0.016368385 0.15989523
000380 ff ce d7 bd de 6b 1a bd 1d bf 0e bd cc e4 29 be
       -0.10537528 -0.037700526 -0.03485023 -0.16591185
000390 ea 17 b1 bd 6c a6 3c bd ed de dc 3d e6 7b 9b bd
       -0.08647139 -0.04605715 0.10784707 -0.07591991
0003a0 9c 88 f2 3c 4e 4b ed 3d fb 73 4a 3e 67 00 9e 3d
       0.029606156 0.11586629 0.19770806 0.077149205
0003b0 8f 7f f2 bd 07 be 02 be 4e d7 10 3e fb 8c 07 be
       -0.11840736 -0.12767802 0.14144632 -0.13237374
0003c0 a0 79 1d 3d f8 5e 4d 3e 9e 14 04 be 6e 9a 28 3e
       0.03844607 0.20055759 -0.1289849 0.1646516
0003d0 cd ec 03 3e 2f be 15 3d 74 b3 0c be df f7 15 bd
       0.12883301 0.036558326 -0.13740331 -0.03661334
0003e0 4a 06 6a bc 6a ac fe bd a2 30 d2 3d c8 70 22 3e
       -0.014283726 -0.12435229 0.10263182 0.15863335
0003f0 8e e2 33 3e 34 fd 04 be 02 69 32 3e 7a f6 1a bd
       0.17566893 -0.12987214 0.1742287 -0.037832715

bn1.weight f4 [16]
000000 da 3b 7f 3f 87 3d 83 3f 48 fb 7d 3f 0c 41 82 3f
       0.997007 1.0253152 0.9921155 1.0176101
000010 cd d5 7f 3f d2 c6 80 3f 9c 1d 7e 3f 8e 56 84 3f
       0.9993561 1.0060675 0.9926393 1.0338914
000020 f3 2e 81 3f ae 4e 80 3f 41 2f 7e 3f b1 b2 7f 3f
       1.0092453 1.0024011 0.99290854 0.99882036
000030 97 79 7a 3f 95 4b 85 3f a3 5e 7c 3f 05 ff 83 3f
       0.9784178 1.0413691 0.98581904 1.0312201

bn1.bias f4 [16]
000000 f8 bc 3c 3c 80 4d f1 3c a3 27 c5 3a f8 a4 b8 3c
       0.011519663 0.0294559 0.001504172 0.0225396
000010 28 7f c8 bc 58 c3 8b bc 4d c0 2c 3c e9 a7 eb 3c
       -0.024474695 -0.01706092 0.010543895 0.02876659
000020 73 21 c0 bc 70 1c 2d bb a2 5b 42 bb 51 6e 8e 3c
       -0.02345345 -0.0026414655 -0.0029656668 0.017386587
000030 b8 45 d0 bc 7c 8f c5 bb d8 20 11 bd 3d db 5f 3d
       -0.02542387 -0.0060290676 -0.035431713 0.05465244

bn1.running_mean f4 [16]
000000 d0 09 57 be 35 9d f8 bd f6 03 2f bf ab 0a 08 3d
       -0.20999837 -0.1213936 -0.6836542 0.0332133
000010 1a 3c ec be b9 8a 81 bd 78 d8 74 3d 7a c0 01 bd
       -0.46139604 -0.06325287 0.059776753 -0.0316777
000020 70 cc 57 bd b4 0d af 3e 5a c5 1f 3e 1c 76 06 be
       -0.0526852 0.34190142 0.15602627 -0.13130993
000030 a8 a3 02 3f d1 55 34 3d e3 45 c8 bd 9e 17 28 3d
       0.5103097 0.044027153 -0.09778955 0.041038148

bn1.running_var f4 [16]
000000 7c b7 c2 3c cd d7 15 3c 09 bf 65 3e 8d a3 01 3b
       0.023769133 0.009145689 0.22436155 0.0019781322
000010 bc 1c cd 3d d6 8a 8b 3b c6 a6 a1 3b 95 42 24 3b
       0.10015246 0.004258494 0.004933211 0.00250641
000020 91 02 3b 3b a1 27 78 3d 33 72 52 3c 7f 29 54 3c
       0.0028535465 0.060584668 0.01284461 0.012949347
000030 79 13 02 3e 08 ed 9d 3b 9f 23 00 3c e7 b0 81 3b
       0.1270274 0.004819516 0.007820993 0.003957856

bneck.0.se.se.1.weight f4 [4, 16, 1, 1]
000000 a1 e6 f2 3d 32 00 23 be 00 96 d1 3c b0 6e f7 bd
       0.11860395 -0.15918043 0.02558422 -0.12081659
000010 f2 f1 1d be 5d 1e be bd 01 69 57 3e 4a 2f 10 bd
       -0.15424326 -0.09283135 0.2103615 -0.03520135
000020 15 62 19 3e e0 77 dd bd 44 66 7b 3e 12 8b 26 be
       0.14978822 -0.1081388 0.2455073 -0.16263989
000030 fd 42 a2 bc 13 74 ce bd e7 38 76 3e 9a f5 1d 3e
       -0.019807333 -0.10080733 0.24045144 0.15425721
000040 8a 68 0e 3e c0 02 47 bd cf c7 9c 3e 9f 42 8e 3d
       0.13907066 -0.048586607 0.30621192 0.06946301
000050 86 61 fc bb 6a ee b7 bd 51 2e 3f 3c 24 45 3f be
       -0.0077020554 -0.08981021 0.011668758 -0.18678719
000060 b4 ca 6d 3d ac 0e 1a be 52 c6 52 bd 30 09 5e 3e
       0.05805464 -0.1504466 -0.051458664 0.21683192
000070 4f 28 83 3d f4 18 7a 3e d1 3a 5b 3d e2 3c 1b be
       0.06404173 0.24423581 0.05352289 -0.15159944
000080 8d f4 0b be 35 40 11 3d 74 c2 86 bd 1b 9d 5d bd
       -0.13667507 0.035461623 -0.06580058 -0.054104906
000090 e9 96 08 bd 90 3f a5 3e 7f 8c 1a 3e f8 c2 41 be
       -0.033347044 0.32275057 0.15092658 -0.18922031
0000a0 a7 7a 83 bd 4b 0b 1f 3c fa 78 35 3e 3b 08 0a bc
       -0.064198785 0.009707282 0.1772193 -0.008424814
0000b0 42 bf 77 3e 9a b4 5a 3d f7 58 dd bc 1d b6 03 be
       0.24194053 0.05339489 -0.02701996 -0.1286244
0000c0 e0 68 b7 bd 77 34 22 bd f7 bf 1a 3c 7b 0d 01 be
       -0.0895555 -0.039600816 0.009445182 -0.12602799
0000d0 0c a1 b5 3c 94 2f 7a 3e b6 4e 0c bd eb ab b3 3d
       0.02217152 0.24432212 -0.034254752 0.08773025
0000e0 dc a2 fa bd 1c 98 4b 3e 28 6a 46 bd 47 68 e5 3d
       -0.12238094 0.19882244 -0.048441082 0.1120153
0000f0 3e c7 a0 3c 59 7f 42 3d 7e f0 6a be 2b ea 1a 3e
       0.019626256 0.04748473 -0.22943303 0.1512839

bneck.0.se.se.2.weight f4 [4]
000000 c5 73 83 3f 1b 38 83 3f 92 fe 80 3f 48 04 6e 3f
       1.0269705 1.0251497 1.0077689 0.9297528

bneck.0.se.se.2.bias f4 [4]
000000 7e da 87 3d 15 91 0d 3a 27 24 fc 3c 09 a4 f1 ba
       0.06633471 0.0005400342 0.030778958 -0.0018435727

bneck.0.se.se.2.running_mean f4 [4]
000000 30 80 e8 bb 34 55 07 bd 08 45 2f bb 17 64 05 3c
       -0.0070953593 -0.03304024 -0.0026744027 0.008141539

bneck.0.se.se.2.running_var f4 [4]
000000 9c 1a e0 3b a1 ee 88 3e a1 81 ac 3c 42 5c ab 3d
       0.0068391096 0.2674456 0.021057906 0.08367206

bneck.0.se.se.4.weight f4 [16, 4, 1, 1]
000000 3b 90 14 3e 0f 0a a7 3e 19 cb 6a 3e f5 60 82 3e
       0.14508145 0.32624862 0.22929038 0.25464597
000010 cf 9e 5a be 76 9e f3 be b2 3a 87 3c 7e 23 b7 3e
       -0.21349643 -0.47581834 0.01650748 0.35769266
000020 7e c0 78 bd 65 b7 83 3e 02 48 e5 3e f0 a0 82 be
       -0.06073045 0.25725856 0.447815 -0.2551341
000030 ff c1 92 3e 15 1a 31 be 25 40 c9 be 75 67 54 be
       0.28663632 -0.17295106 -0.3930675 -0.2074259
000040 60 19 b9 3e c4 7e 0b 3e db c8 3e 3e 85 91 a5 bc
       0.36152172 0.13622576 0.18631308 -0.02021099
000050 c6 cc 14 3f 7d a2 b0 3e 1d 96 a3 be f9 59 00 bd
       0.5812496 0.3449897 -0.31950465 -0.031335805
000060 f6 ee ab be a5 d0 89 3e 1e 1f b6 3e 6e d7 74 3e
       -0.3358075 0.26916996 0.35570616 0.23910305
000070 08 16 c6 3e 40 a0 d8 3d 09 bf a2 be 60 67 8a be
       0.38688684 0.1057744 -0.31786373 -0.27031994
000080 2c 38 02 3f 78 54 de 3d 9e 31 73 be 81 81 e4 3d
       0.5086696 0.10855955 -0.23749396 0.111575134
000090 19 8e a1 bd 6a 1f 5a 3e b7 3d a5 3e 72 e9 d2 be
       -0.07888431 0.21301046 0.32273647 -0.4119373
0000a0 20 9d cc be ba d1 02 bd cb d7 87 be 5f 34 e2 bd
       -0.39963627 -0.031938292 -0.26531824 -0.11045145
0000b0 de 3f d7 bd 7d 86 ab 3e 58 49 bb 3e 3b a0 6d 3e
       -0.105102286 0.33501044 0.36579394 0.23205654
0000c0 22 d1 90 3e 84 84 d0 3e a8 c9 f9 3e 01 75 93 3e
       0.28284556 0.407261 0.48786664 0.28800204
0000d0 ee 59 84 3e 5a 44 56 3e e3 3f 70 be b8 9e 3a be
       0.2584986 0.20924512 -0.23461871 -0.18224609
0000e0 91 3a fd 3e ed 7e 35 3e 77 cf 09 3e 00 61 cc be
       0.49458745 0.177242 0.13458048 -0.39917755
0000f0 8e 4a 85 be e9 2b 6b bd 3e 40 05 3e a9 6c 6d 3e
       -0.26033443 -0.057414923 0.13012788 0.23185982

bneck.0.se.se.5.weight f4 [16]
000000 98 9c 7c 3f 97 a6 72 3f 21 8a 88 3f cf 7d 70 3f
       0.98676443 0.94785446 1.0667154 0.9394197
000010 5b d1 8c 3f d4 45 7a 3f 0a 8e 70 3f 8e 27 6d 3f
       1.100139 0.977628 0.93966734 0.9263848
000020 a8 df 7e 3f e9 b5 85 3f ea 40 60 3f 27 be 75 3f
       0.9956002 1.044614 0.8759905 0.95993274
000030 0d 6f 85 3f ee b9 7c 3f dc 70 79 3f d1 34 6e 3f
       1.0424515 0.98721206 0.97437835 0.9304934

bneck.0.se.se.5.bias f4 [16]
000000 44 b5 9a bc 42 1f ba bb bd fb 13 bd d7 eb fb 3c
       -0.018885262 -0.0056799958 -0.03612875 0.030752106
000010 ab 5e b5 bc a5 ef 52 3c 7f 4e c8 3c 7e 67 b9 3c
       -0.022139868 0.0128745185 0.024451492 0.022632357
000020 2e bd 67 3d 76 26 a2 3d 70 1e 8d 3d 4a 32 95 bc
       0.0565769 0.07917492 0.06890571 -0.018212456
000030 e8 aa e4 3c 1b f7 7d bc c4 84 e3 bc 43 49 fc 3b
       0.027913526 -0.015500809 -0.027773269 0.007699163

bneck.0.se.se.5.running_mean f4 [16]
000000 2d 03 cb 3e 13 3d 21 be 5a 5f 1f 3e 5e 37 3e be
       0.3965086 -0.15745954 0.15563717 -0.18575808
000010 4f 91 91 3e b9 a8 8b 3e 7e 58 4c 3e b2 0a 36 bc
       0.28431174 0.27277163 0.19955632 -0.011110948
000020 c2 6c 65 3e 40 52 84 3c da e5 ac be b4 71 a9 3e
       0.22404769 0.016152501 -0.33769113 0.3309456
000030 da 6e 1b 3f 0a a4 3b 3d 62 7a 46 3e 03 62 27 3b
       0.6071602 0.045810737 0.19382623 0.0025540597

bneck.0.se.se.5.running_var f4 [16]
000000 81 4c 76 3d 20 ee 79 3e 99 50 c7 3d 62 f6 70 3d
       0.060131554 0.24407244 0.0973217 0.05882872
000010 68 62 b6 3d ff 29 85 3e 55 f5 5a 3d d0 c9 10 3e
       0.08905488 0.26008603 0.053456623 0.14139485
000020 e2 e0 c9 3d 75 ac ba 3d 82 66 b3 3d 8c 2d 4f 3d
       0.09857346 0.09114925 0.08759786 0.050580546
000030 09 29 36 3e a1 1a da 3d 7c fe 77 3e 6c fc 7d 3d
       0.17789091 0.1064961 0.24218172 0.062008306

bneck.0.conv1.weight f4 [16, 16, 1, 1]
000000 2c 85 f9 bd 7c 88 2b be 58 7f 54 3e 04 5b 1f bd
       -0.12183604 -0.16751283 0.20751703 -0.03890516
000010 4c 8c 8f bd e1 82 0b be 87 05 51 bd ad 1a b4 ba
       -0.070091814 -0.13624145 -0.051030662 -0.001374086
000020 76 04 81 bd f5 9c 7c 3c d2 08 78 bb 6e be 0a 3d
       -0.06299679 0.015418281 -0.0037847054 0.033873014
000030 d2 48 14 3e 69 af 70 bd e9 d8 13 ba e0 14 54 be
       0.14480904 -0.058761034 -0.0005639927 -0.20711088
000040 fc ca 27 be 58 bd 94 bd ad 7d 1a 3e 90 75 c3 3d
       -0.16386026 -0.07262677 0.15087004 0.09543908
000050 15 35 ae 3d 29 48 68 3e 5f b4 2a 3d 26 54 2a 3e
       0.08506218 0.22683777 0.04167592 0.16633663
000060 f9 30 17 3e 64 d1 4f be 6a d3 ac bd 34 91 29 3e
       0.14764775 -0.2029472 -0.084387615 0.16559297
000070 12 d7 e6 3c d0 21 68 be c5 e6 60 be 78 11 30 bc
       0.028178725 -0.22669148 -0.21963032 -0.010746352
000080 e1 39 17 3e a8 51 5b be 1d 21 13 3e 1e 0e cc 3d
       0.14768173 -0.21417868 0.143681 0.0996363
000090 84 a3 20 be 5c 48 3e 3e 4a 94 df 3c ac c3 af 3b
       -0.15687376 0.1858229 0.02729239 0.005363902
0000a0 a5 e8 d2 bd 24 78 59 bd f2 4f 40 3e 5c cb 46 3e
       -0.1029828 -0.05309309 0.18780497 0.19413513
0000b0 ef 04 20 be 3c 56 23 3e 7d be db 3d 32 06 98 3d
       -0.15626882 0.15950865 0.10729692 0.07423057
0000c0 40 43 4f 3e bb c3 32 be 87 94 d8 bd fc ff 9e 3e
       0.20240498 -0.17457478 -0.10575204 0.31054676
0000d0 ca 43 5d 3e f4 e1 9f bd 0a 0e 6d 3d 1c a9 de 3b
       0.2160789 -0.07806769 0.057874717 0.0067950618
0000e0 68 5c 68 3e be b1 ff 3d 06 c1 61 bc 21 8a 40 bc
       0.226915 0.124850735 -0.0137789305 -0.0117516825
0000f0 da 52 ee 3c f5 a3 d1 3d a7 79 1e be 30 72 51 3a
       0.029092241 0.102363504 -0.15476094 0.00079897325
000100 24 1d b1 bd fa 29 7f be 1c d4 54 be 9e 10 19 bd
       -0.08648136 -0.24918357 -0.20784038 -0.037369363
000110 5e da 3a be 97 c0 9c bc 58 38 39 bd 5f 32 86 3d
       -0.18247363 -0.019134803 -0.04521975 0.06552576
000120 46 6b 38 3e ef d9 04 be 4e c6 7b 3e 3f b7 09 be
       0.18009672 -0.1297376 0.24587366 -0.13448809
000130 57 92 c5 3d 60 6c 24 be 11 e6 9c bd b3 09 8f 3b
       0.09647053 -0.16056967 -0.07661069 0.00436517
000140 7f e9 2c ba 4a 13 f7 bd 74 e1 1d be 45 69 7d 3d
       -0.0006596073 -0.12064226 -0.15418035 0.06186797
000150 a2 84 b8 bb 79 48 1a be ed 12 7c 3e 0b d0 99 bd
       -0.0056310454 -0.15066709 0.24616595 -0.07510384
000160 ba 76 88 be 9e 9b 46 3e f5 70 61 be 56 aa 71 3d
       -0.2665308 0.19395301 -0.22015746 0.059000336
000170 53 aa 55 3e e1 b2 56 be 2f 7f 9e bc 87 35 e4 bc
       0.20865755 -0.20966674 -0.019347755 -0.027857555
000180 78 4b 47 bd e3 b1 b1 bd 94 3e 8f bd 83 5e cb bc
       -0.048655957 -0.08676507 -0.06994358 -0.02482534
000190 17 29 5a be 56 79 40 be b5 d2 9e 3c bf 94 a6 3d
       -0.21304737 -0.18796286 0.019387582 0.0813384
0001a0 86 df 41 be 1b 1b bc 3d 12 0c 08 be 9c 1d 13 3e
       -0.18932924 0.091848575 -0.13285854 0.14366764
0001b0 0e 79 a4 bc 3c 13 5c bc fe 07 4e bd 84 c3 29 bd
       -0.020077255 -0.01343232 -0.05030059 -0.041446224
0001c0 8d bf 07 be 66 fb 49 3e fb 9a 2a 3e 79 fb a4 3d
       -0.13256665 0.19724807 0.16660683 0.08055777
0001d0 86 ba 7a bd 65 56 2a be d3 44 51 3e 8d 3d 87 3e
       -0.06121304 -0.1663452 0.2043641 0.26414147
0001e0 f0 e0 39 be 31 73 8c bd bb bd 59 be 6f af aa bd
       -0.18152213 -0.068579085 -0.21263783 -0.083342426
0001f0 c7 3c 9a bd 60 a9 42 3d 84 b5 51 3e 13 48 27 3e
       -0.075311236 0.04752481 0.20479399 0.16336088
000200 42 7a 48 bd 00 cc 8b 3e fe f9 52 3d fa 65 0b bd
       -0.04894472 0.27304077 0.051507942 -0.0340328
000210 0b a2 97 bb 30 d9 9d bd 05 da 7d be 77 5b 3d 3d
       -0.0046274713 -0.07707441 -0.24790199 0.046229806
000220 f0 c2 47 3d 81 15 3d be 29 f5 66 3d 45 d6 e8 3d
       0.04876989 -0.18465234 0.056386147 0.11368994
000230 08 f4 13 be 59 d7 1b 3d 7b 1b 53 3d 5a 2d 12 3e
       -0.1444856 0.03804717 0.05153988 0.14275113
000240 ef 35 af bd 46 df a0 be f6 38 00 3e 88 d3 90 3c
       -0.08555209 -0.31420344 0.12521729 0.017678991
000250 1f 4d 12 3e 14 d8 29 be 6d bd 1a 3e bc dc 3b bd
       0.14287232 -0.16586334 0.15111323 -0.045864806
000260 e2 08 73 bd 99 10 18 3e 93 1e 25 3d 33 eb c9 bd
       -0.059334643 0.14850082 0.04031236 -0.09859314
000270 03 c2 e6 3d 71 78 23 3d b9 24 9b 3d 74 80 25 3e
       0.112674735 0.039909784 0.07575364 0.16162282
000280 dc ab c5 3d de 99 2c 3e a4 b3 e6 bd 44 b1 80 be
       0.0965192 0.1685557 -0.112647325 -0.25135243
000290 a3 de 4c be 09 ee 20 bd da 4f 9a bd 46 4c 0b 3e
       -0.20006804 -0.039289508 -0.07534762 0.13603315
0002a0 bf 52 23 3e ef 79 6e 3e 70 6f 78 3e fd 82 c0 bd
       0.15949534 0.23288701 0.2426126 -0.09399984
0002b0 15 f5 56 3e ae ff 2f be 71 03 96 3c 94 aa 80 bc
       0.20991929 -0.17187378 0.018312188 -0.015706338
0002c0 6a c4 b7 3d f7 c3 f9 3c af 39 07 3e 36 57 03 be
       0.0897301 0.030488951 0.13205598 -0.12826237
0002d0 13 e2 9f be ee 0e 8a bb 88 bd 0c be 5f cb cf bd
       -0.31227168 -0.0042132055 -0.13744175 -0.10146212
0002e0 03 bf 97 3e 20 c1 b4 3d aa 07 67 bd 70 35 4d 3e
       0.29637918 0.08825898 -0.056403793 0.20039916
0002f0 9a 25 39 3b cf fa 11 3e f6 07 a7 bd 30 0d 2f 3e
       0.0028251172 0.14255832 -0.08155815 0.17094874
000300 e5 ea 71 3e 6b f1 2c 3e 7b b9 71 be 2b 49 93 bd
       0.23624761 0.16888969 -0.23605911 -0.0719169
000310 64 19 25 3e f7 15 00 be 80 2f 99 3d 48 d9 dc bc
       0.16122967 -0.12508379 0.07479763 -0.026959077
000320 8b 1d 9f 3c 62 58 92 bd 2f 73 d8 bd 61 c4 30 be
       0.019423267 -0.07145764 -0.105688445 -0.17262413
000330 82 ab 1b bb e7 3d 29 3e 84 ad b2 bd 91 a7 09 be
       -0.002375335 0.1652752 -0.08724502 -0.13442828
000340 2d 46 0b be 79 44 13 be bc 2c c8 3c b6 e4 98 bd
       -0.13600989 -0.14381589 0.024435394 -0.07465498
000350 c2 b2 99 3d 4a 40 de bc a3 3c 0d 3d 07 e0 9c bd
       0.075047985 -0.027130265 0.034481656 -0.07659917
000360 cb ef 27 be 8c 93 c7 bd 17 00 a1 3c 58 63 10 be
       -0.16400068 -0.09744939 0.019653363 -0.14100397
000370 dd 89 87 3d c5 2b 5a 3e 41 f8 a0 bb 91 a9 15 be
       0.06618092 0.21305759 -0.0049124067 -0.14615466
000380 69 a9 8e 3e 22 97 92 3e 68 8d 9f 3d 9b 32 a0 bd
       0.27863625 0.2863093 0.07790643 -0.07822152
000390 47 b8 c9 3d cf 96 c2 3d 5b ba 77 be 95 22 8c bd
       0.09849601 0.09501421 -0.24192183 -0.068425335
0003a0 24 5a d1 3d 8a 4e cc bd 61 6e 4a bd d9 27 a6 3d
       0.10222271 -0.09975918 -0.04942167 0.08113069
0003b0 64 30 44 3d 59 b9 e0 3d 17 0d 6c be 79 b6 05 3e
       0.04789771 0.10972852 -0.23051868 0.13057889
0003c0 37 22 4d 3e fb 61 6a 3e c5 56 2c 3c d9 a1 52 be
       0.20032583 0.22888939 0.010518734 -0.20569552
0003d0 64 d8 38 be 31 f1 99 bc 21 74 ee 3d 90 4d 0b 3c
       -0.18051296 -0.018791767 0.116432436 0.008502379
0003e0 ae f8 fe bd 0d c3 be bc dd 32 41 3d 1d b7 8a bd
       -0.12449776 -0.023286367 0.047167648 -0.06773207
0003f0 b4 b5 1e 3e dd 7c 68 be 2a 74 36 be 6f 7c 5c be
       0.15499002 -0.22703882 -0.1781775 -0.21531843

bneck.0.bn1.weight f4 [16]
000000 a1 97 60 3f b5 80 6b 3f 51 35 76 3f c7 dc 5d 3f
       0.8773137 0.91993266 0.96175104 0.86665004
000010 70 2c 65 3f 88 e9 75 3f 66 82 75 3f 24 7f 6d 3f
       0.8952093 0.96059465 0.959021 0.92772126
000020 68 3a 6d 3f 82 4f 59 3f 82 44 6d 3f 96 2b 72 3f
       0.92667246 0.84886944 0.9268266 0.94597757
000030 39 1b 75 3f 21 56 59 3f 59 80 74 3f 4a 65 70 3f
       0.95744663 0.8489705 0.95508343 0.93904555

bneck.0.bn1.bias f4 [16]
000000 4b f1 cc 3d 59 db 2e 3d 04 b5 05 bd 2c bf 1a 3d
       0.100069605 0.042689655 -0.032643333 0.037779972
000010 9e 0b 42 3d 76 c0 f2 3b eb 55 3e ba 24 45 2d bd
       0.04737436 0.007408197 -0.00072607276 -0.042302266
000020 cf 1e d8 3c 9e ae 78 3d cf db 4d 3c b0 81 d8 bc
       0.026381878 0.060713403 0.0125646135 -0.026429027
000030 44 ec 01 bd 86 18 f0 3d 8c 30 9b 3c dc 3a 5c 3d
       -0.03171946 0.117234275 0.018944047 0.05376707

bneck.0.bn1.running_mean f4 [16]
000000 71 ac b9 bd d9 5e c0 3c 81 e4 cf 3d 68 b9 e7 3d
       -0.09066094 0.023482727 0.101510055 0.1131466
000010 54 41 01 be 33 6a 9a bd fd 51 df bd 3e 94 84 3d
       -0.12622577 -0.07539787 -0.1090431 0.064735875
000020 fe e1 bc 3c 13 1f 0b 3d 3b c1 65 3d 96 a5 7a 3d
       0.02305698 0.03396518 0.056092482 0.06119307
000030 2d ca 0d bd fe 5a d7 bd 0d 94 c8 3d 8a 9c 7d bd
       -0.034616638 -0.10515402 0.097938634 -0.061916865

bneck.0.bn1.running_var f4 [16]
000000 72 e2 6b 3d f4 36 0a 3e 98 1c c5 3d 63 1e 98 3d
       0.057589002 0.13497525 0.096245944 0.07427671
000010 51 12 2b 3e 5e e6 81 3e 34 a6 4e 3d 66 4f a8 3d
       0.16706206 0.2537107 0.050451472 0.08218269
000020 c6 69 37 3e 99 a9 33 3e fc 57 a1 3d 7b 6c b9 3d
       0.17911443 0.17545165 0.0787811 0.09053894
000030 58 78 62 3d 60 12 95 3d f7 f4 4b 3e 9e b6 44 3e
       0.05529055 0.072788954 0.19917665 0.19210288

bneck.0.conv2.weight f4 [16, 1, 3, 3]
000000 01 83 bf 3c a2 7a b2 bd d5 5d c6 be 98 f6 fc bd
       0.023377897 -0.087147966 -0.38743463 -0.123517215
000010 99 4e d5 bd 13 d2 4f 3d be 45 87 3d e6 dd 9d 3e
       -0.10415382 0.05073745 0.06605099 0.30833358
000020 7d a9 5c be 02 50 dd 3d 64 b8 bf be 5c 5d 83 3d
       -0.2154903 0.10806276 -0.37445366 0.06414291
000030 cb c9 a5 be e1 b1 9f be 98 fe 53 3e fe 41 07 3e
       -0.32380518 -0.31190398 0.20702589 0.13208768
000040 9f 7b e4 bd 49 a9 de 3d 24 7b 80 3e ad 30 35 be
       -0.11156391 0.10872132 0.2509395 -0.1769435
000050 2a 0e 10 be 95 ea d9 be 62 9f cd be 64 a8 bc 3d
       -0.14067903 -0.42561784 -0.40160662 0.092118055
000060 2d e5 aa be 08 eb 9e be 65 c1 56 be 00 22 8e 3c
       -0.33377972 -0.3103869 -0.20972212 0.017350197
000070 ec 17 ab bd 57 8c c2 be 3f 10 88 be df fe 8f be
       -0.08354172 -0.37997696 -0.26574895 -0.2812414
000080 31 dc 33 be d0 52 0c be e5 39 74 3b 46 13 a7 3d
       -0.17564465 -0.13703465 0.0037265953 0.08157973
000090 31 bb a6 3e 14 14 9e 3e 30 24 08 3e cd 93 23 3e
       0.3256469 0.30874693 0.13295054 0.1597435
0000a0 11 92 3a be 06 c3 89 3e 5e ca 42 3e 76 62 a1 3e
       -0.18219782 0.26906604 0.1902251 0.31520432
0000b0 2c 6e bf bc 13 30 54 3e 7d d4 14 be 9c 78 58 3c
       -0.023367964 0.20721464 -0.14534183 0.013212349
0000c0 3f b8 9b bd 41 03 46 3e 27 38 ce bc 3d e2 1b be
       -0.076035015 0.19337179 -0.02517326 -0.15223022
0000d0 27 1a 9d be f0 37 5c 3d a2 79 71 3e 68 64 48 3e
       -0.30684015 0.053764284 0.23581555 0.19569552
0000e0 3e f4 01 be 0b 3b af 3d 80 ee 69 3d b6 9d 99 3e
       -0.12690827 0.085561834 0.057112217 0.30003136
0000f0 f1 c6 63 be 76 f9 8f bd ea e9 86 3e 07 2f 53 3e
       -0.22243859 -0.07030003 0.26350337 0.20623408
000100 2c 55 d7 3d e8 94 01 bc bc e1 4e 3e 74 ce 37 3e
       0.10514292 -0.007909037 0.20203298 0.1794985
000110 2f 70 9a 3d 81 de 00 3e 0a cb 62 3e 37 a6 df bd
       0.075409286 0.12584879 0.22147766 -0.10920375
000120 c6 de aa 3d 88 cb 99 be 8a b5 c4 be f3 52 6b 3d
       0.08343272 -0.30038095 -0.38419753 0.057452153
000130 11 f5 5b 3e 6c 09 81 be a6 12 a3 3e fc 91 40 be
       0.21480204 -0.252025 0.31850165 -0.18805689
000140 b8 96 00 3e 9f 49 82 3e 00 66 66 3e 78 51 a0 be
       0.12557495 0.25446793 0.22499847 -0.31312156
000150 c7 a7 82 3e 2f 6f d9 3d 0a 1b 9b 3d 17 1a 8f be
       0.2551863 0.1061691 0.07573517 -0.27949592
000160 54 9f a7 3c 40 d6 92 be 60 cd f7 bd c3 e5 52 3e
       0.020461716 -0.28679085 -0.12099719 0.2059546
000170 2c 41 1a 3e 67 c5 b1 3e 21 bc c8 3d 34 ac ec bc
       0.15063924 0.3472092 0.09801508 -0.028890707
000180 fc 34 8c 3e 25 a0 6c be 20 47 3a 3e a2 02 70 bd
       0.27384174 -0.23107965 0.18191195 -0.05859626
000190 51 f6 a0 be 89 52 36 be 7a 8d d1 be 2c 60 ab be
       -0.31437925 -0.17804922 -0.4092825 -0.3347181
0001a0 f2 93 57 be 15 c5 3b be 3f cb 9f bd b7 b2 15 3e
       -0.2105253 -0.183369 -0.07802438 0.14618956
0001b0 b1 1e 4e 3e bd 54 73 be 40 d4 7d 3e f0 07 74 3e
       0.20128895 -0.23762794 0.24787998 0.23831153
0001c0 14 fd ad 3e e6 d5 c7 bc 5a dc 3f 3e 36 74 dc 3e
       0.33982146 -0.024393987 0.18736401 0.43057412
0001d0 47 44 57 bd 8b 9f 68 3e af ef 31 be d2 f9 70 be
       -0.05255535 0.22717111 -0.17376588 -0.23532799
0001e0 95 fc dc 3d 4b 84 7e bd 95 cc b2 be d2 a9 83 3e
       0.10790364 -0.062137883 -0.3492171 0.257155
0001f0 88 31 39 3c 0c c9 f0 bb e7 f6 4b 3e cf fb af bd
       0.011303313 -0.0073481854 0.19918405 -0.085929506
000200 dc 29 57 3e 74 e2 2f 3b 8b 10 85 3e db 1a 99 3d
       0.21012062 0.0026837857 0.25989184 0.074758254
000210 eb e8 11 bd 96 04 ab 3c d1 1b d6 3c 49 83 d1 3d
       -0.03562252 0.02087621 0.02613631 0.10230119
000220 dd f4 3a 3e 7b 70 8f bd 3a b5 54 3e 31 0c 48 3c
       0.1825747 -0.07003876 0.20772257 0.012209938
000230 3f e2 3c 3a 7c e0 c0 be d0 51 cc bd 88 ec 10 3e
       0.0007205344 -0.37671268 -0.09976542 0.1415273

bneck.0.bn2.weight f4 [16]
000000 e2 78 75 3f ab e0 73 3f 40 40 8c 3f 16 fb 7d 3f
       0.9588758 0.9526469 1.0957108 0.9921125
000010 d0 2b 7f 3f a6 46 79 3f 1f c5 7d 3f 86 60 80 3f
       0.9967623 0.97373426 0.9912891 1.0029457
000020 16 d1 77 3f 3c a2 79 3f 4b 69 78 3f aa 15 86 3f
       0.96803415 0.97513175 0.97035664 1.0475361
000030 79 f2 8b 3f 13 a3 6b 3f 7f cd 7c 3f 6c 79 84 3f
       1.0933372 0.92045707 0.9875106 1.0349555

bneck.0.bn2.bias f4 [16]
000000 b5 cd f1 3c a9 6d 16 bd 0b 94 d6 3d 30 79 34 bc
       0.029517034 -0.036725674 0.10477456 -0.0110152215
000010 c0 8e 48 ba cc 73 a8 3b c4 e0 56 bc d1 a1 48 bc
       -0.0007650666 0.005140757 -0.013115112 -0.012245611
000020 27 e7 76 3c b9 6b 04 3d e6 58 ec bc 68 0d 86 3d
       0.015069759 0.032329295 -0.028850984 0.06545526
000030 03 59 b2 3d fa f0 f6 bc b8 0d 3f bc ca 46 42 bc
       0.08708384 -0.030144203 -0.011660986 -0.011857698

bneck.0.bn2.running_mean f4 [16]
000000 be a8 11 be 67 a0 50 be 48 04 b0 be d9 fd c9 be
       -0.14224526 -0.20373689 -0.34378266 -0.39451483
000010 46 d0 1a 3f 4c 53 c6 bd c2 16 91 3e d6 77 8f 3e
       0.6047405 -0.09683856 0.28337675 0.28021115
000020 fe b0 01 be af 8a 40 3c b8 01 9f 3e 7d 50 d5 be
       -0.12665173 0.011751815 0.31056 -0.4166297
000030 4b 9b c2 3e fe 5b b8 bd 50 43 8d 3e df 7f c0 3c
       0.38009104 -0.09001921 0.27590418 0.023498474

bneck.0.bn2.running_var f4 [16]
000000 e2 04 03 3d 1a 23 a5 3d 95 88 5a 3f 1e 0b d0 3e
       0.03198708 0.08063336 0.8536466 0.40633482
000010 ee a9 fb 3e c5 b5 ee 3c 18 99 c9 3d 01 b9 80 3e
       0.49153084 0.029139409 0.098436534 0.25141147
000020 e1 dd 6e 3d cb 46 b3 3c 56 d1 66 3e ba 55 36 3f
       0.05831707 0.021884343 0.22540793 0.7122456
000030 b3 f0 5a 3e c3 ab 0b 3d 3a 37 d7 3d fb 7d e3 3c
       0.21380882 0.03409935 0.105085805 0.027770033

bneck.0.conv3.weight f4 [16, 16, 1, 1]
000000 24 76 2e be 83 8f 2b 3e 5e 94 1b 3e 5c ae 69 be
       -0.17037255 0.16753964 0.15193316 -0.22820419
000010 94 5c ce bd eb 59 66 3c e5 a1 19 be 82 f8 0f 3e
       -0.100762516 0.014059524 -0.15003164 0.14059642
000020 06 3d 24 be c1 3e 54 be 7d c8 07 be 62 94 5c bd
       -0.16038904 -0.20727064 -0.13260074 -0.053852446
000030 87 f3 52 3e cd 6f 31 3e 8d 3b 08 bd ab 80 c1 3c
       0.20600711 0.17327805 -0.033259917 0.023620924
000040 2e ac 48 bd f7 03 0e be d2 ee 4b bc 46 33 09 be
       -0.04899233 -0.138687 -0.012447076 -0.13398466
000050 6f e0 14 be ff 32 89 3e be 99 42 bd d4 1f 47 be
       -0.1453874 0.2679672 -0.0475099 -0.19445735
000060 39 7b 8b 3d 7f 7f 15 3d 24 38 15 3e da c2 46 3e
       0.06810612 0.036498543 0.14572197 0.19410267
000070 cf 1f cb bc d4 f0 99 bd ff 71 58 3e 01 00 57 3e
       -0.024795441 -0.075166374 0.21137236 0.20996095
000080 99 b2 17 3e 4a c4 62 3d 71 c8 bf 3d c5 47 1d be
       0.14814223 0.055362977 0.09364403 -0.15359409
000090 01 fc 13 be 92 f4 05 bd 7b e6 b2 3d 83 50 04 bd
       -0.144516 -0.032703944 0.08735367 -0.032303344
0000a0 2e c6 a7 bd b2 3a 2d be 6c 89 14 3e 48 f3 12 be
       -0.08192097 -0.16916922 0.14505547 -0.14350617
0000b0 26 17 39 3d 10 ae dd 3d bb 9b 03 bd 91 66 89 be
       0.04518809 0.108242154 -0.032130938 -0.26836064
0000c0 10 9e 3c bd c4 24 b7 3d bc c4 16 3e 84 12 48 3e
       -0.046049178 0.08942559 0.14723486 0.19538313
0000d0 78 82 78 3e 1e 3a 4d 3e 6b 47 1d 3e 35 4a 10 bb
       0.2426852 0.20041701 0.15359275 -0.0022016887
0000e0 67 eb d4 bb 9a 1c 27 3e 65 49 34 be 42 c3 9b 3e
       -0.0064977887 0.16319504 -0.17606123 0.30422407
0000f0 34 f6 0d bb 8c bb b7 bd 40 ad 17 3d 50 0c ca bd
       -0.002166164 -0.089713186 0.03703046 -0.0986563
000100 0e 2c 31 be 62 3b 80 bd cf 07 b0 be 3b 02 59 be
       -0.17301962 -0.062613264 -0.34380957 -0.21192257
000110 99 88 14 be 4b 2b 94 3d 4c 48 6d 3d 82 06 3c be
       -0.14505233 0.0723482 0.057930276 -0.18361858
000120 07 30 4a be c3 e9 a6 3c 6f f1 5a 3c 29 90 81 bd
       -0.19744883 0.020375138 0.013363226 -0.063263245
000130 55 9f ce 3d 78 55 28 3e 5f da 0a 3d 91 22 30 3e
       0.10088984 0.16438854 0.03389966 0.17200686
000140 7e 2a 80 3e 0f 50 97 3d b2 63 36 3d 5e b0 ab bc
       0.2503242 0.07388317 0.04452867 -0.020958122
000150 8f 3f 60 3e cc f8 e6 bd 18 a5 23 be 07 65 70 3e
       0.21899246 -0.11277923 -0.15980947 0.23476039
000160 9c ba c0 bc 1e a5 7c bd d4 ed 59 bd d0 04 36 bc
       -0.023526482 -0.061680906 -0.053205326 -0.011109546
000170 97 66 94 be af 3c a3 bb 79 f0 19 be b5 21 3a 3e
       -0.2898452 -0.0049815993 -0.1503314 0.1817692
000180 c7 de d2 3b 15 04 80 3d 75 be 35 be f5 9e 5a 3e
       0.0064352485 0.062507786 -0.17748435 0.213497
000190 17 9a 26 3e 0e 53 d1 3d db 14 bc 3d 21 54 92 bc
       0.16269718 0.102209195 0.09183665 -0.017862381
0001a0 4e 06 93 bb b2 bd 31 be f0 96 a3 3c cb fc f0 bd
       -0.0044868356 -0.1735752 0.019969434 -0.117669664
0001b0 02 f9 c3 bd e1 33 fd bd 33 e8 09 3e fd fa 96 bd
       -0.09568979 -0.12363411 0.13467483 -0.07372091
0001c0 0b a1 50 be 9f c1 ab bd 79 94 69 3c ed 53 65 3e
       -0.20373933 -0.0838654 0.01425659 0.22395296
0001d0 0b fc 77 3d 0c 12 60 3e 9d 9e 0f 3e 61 fa 5e 3e
       0.0605431 0.21881884 0.1402535 0.217752
0001e0 ec 40 7a 3e d0 a0 5e 3e e1 1a e5 3d 14 2f 23 be
       0.24438828 0.21741033 0.11186767 -0.15935928
0001f0 24 62 5a 3e e2 13 26 bd b4 0a 9b 3d 05 a6 15 3e
       0.213265 -0.040546305 0.07570401 0.14614113
000200 67 b1 5c be a2 dd fb bb 75 62 45 be 00 17 13 3e
       -0.21552049 -0.007686333 -0.1927584 0.14364243
000210 9a c3 8b 3e 1d 3f 9c bd 70 71 40 be d4 fd ae 3d
       0.2729767 -0.076292254 -0.18793273 0.085445076
000220 2d ae ea bd e7 9e cf 3d 3c 30 1c be ce 76 ba bd
       -0.11459003 0.1013773 -0.15252775 -0.091046914
000230 c9 b1 25 3e 3a 33 0e 3d e2 70 74 3d b3 fe e6 bc
       0.16181101 0.034716822 0.059677966 -0.028197622
000240 ba f0 18 be 55 45 4c 3e a7 b6 6d 3e b2 dc e2 bb
       -0.1493558 0.19948323 0.23214208 -0.0069232816
000250 74 30 2e 3e c5 9a 90 bd fb fe 86 bd f2 41 af 3b
       0.17010671 -0.0706077 -0.065916024 0.0053484375
000260 2b 19 5b be 67 78 a0 3d 0b 93 21 3d 8e fb 5e 3e
       -0.2139632 0.07835465 0.03944687 0.21775648
000270 8d cd 50 3e be 9d 00 be ea 90 cb bd e8 ff bc bd
       0.20390911 -0.12560174 -0.099397495 -0.09228498
000280 22 2d 40 3e 91 68 3f be 4b ff d6 bc 47 f7 3c be
       0.18767217 -0.18692233 -0.02624478 -0.18453704
000290 55 be ac 3d f8 3e ac bd a6 98 c1 bd 13 ac 35 3d
       0.084347405 -0.08410448 -0.094529435 0.044353556
0002a0 af 74 4c be 25 29 bb 3d b1 2a 4d 3d e3 7e fb 3d
       -0.19966386 0.09138707 0.05008954 0.12280061
0002b0 c6 f0 a9 be 80 e0 6e be f8 e9 30 be dc 01 e8 bd
       -0.33191508 -0.23327827 -0.17276752 -0.1132848
0002c0 62 bf 3d 3e 6a a2 5d bd e2 5e 38 3d 2d b8 4c be
       0.18530038 -0.05410997 0.045012362 -0.19992132
0002d0 cd 60 0b be 32 47 2d bd 4d dc c5 3c d7 4c c5 bd
       -0.13611145 -0.042304225 0.0241529 -0.09633797
0002e0 1b 26 70 3e 18 f9 11 be 31 18 5e be 21 02 42 be
       0.23452036 -0.14255178 -0.21688916 -0.18946125
0002f0 ca b7 16 be 34 89 66 3e 97 ce 64 3e 2f 7d 31 3e
       -0.14718547 0.22513276 0.22344433 0.1733291
000300 c8 36 94 3e d4 03 5d 3d 4b f1 e1 3d fd 4f 84 bd
       0.28948045 0.05395873 0.11032351 -0.06460569
000310 26 f2 85 bc 85 c1 54 3e 8b 09 7b be 83 d2 93 3d
       -0.016350817 0.20776947 -0.24515359 0.07217886
000320 d6 c7 57 3e f2 a0 f3 3d 97 f5 73 be de 49 3c be
       0.21072325 0.11895932 -0.23824154 -0.18387553
000330 08 0e 58 3e a1 d3 2c bd 46 af 25 be 91 96 3f 3d
       0.21099102 -0.042194013 -0.16180143 0.04677445
000340 0a bb 0f bd 6e d8 99 bd 6f f8 88 3d 8e 83 26 bd
       -0.035090484 -0.07511984 0.0668801 -0.040652804
000350 07 a1 a2 3c e0 bf d2 bd 29 f5 53 be fc 81 f8 bd
       0.019852174 -0.102905035 -0.2069899 -0.121341676
000360 2a de 3e be c7 7b be bd a3 fd e2 bd 0c 01 10 bd
       -0.18639436 -0.093009524 -0.110835336 -0.03515725
000370 e2 4d ed 3b 11 39 39 3e bb 00 7d 3d c6 da 6c 3e
       0.0072419504 0.18088175 0.061768275 0.2313033
000380 46 63 64 3d 19 99 30 be 8c 30 15 3e 2a 2d cc 3d
       0.055758737 -0.17245902 0.145693 0.09969552
000390 40 f7 aa bd b5 d1 c5 3d 81 f6 84 bd 47 57 48 be
       -0.083479404 0.09659139 -0.064923294 -0.19564544
0003a0 67 87 c5 3d 8a 0c 50 be f8 3d 6c be 63 01 3c 3e
       0.096449666 -0.20317283 -0.23070514 0.18359904
0003b0 f7 16 b5 bc 9b 03 52 3e b7 57 70 3e 04 fd 13 be
       -0.022105677 0.20509188 0.2347096 -0.14451987
0003c0 0f 57 46 be 02 a3 4f 3e ac 98 ab bc de cc 75 be
       -0.19369148 0.20277026 -0.020946823 -0.24003932
0003d0 51 a5 78 3e de 0f 11 3e 0c 9a 2f be 3a 83 85 be
       0.24281813 0.14166209 -0.17148608 -0.2607668
0003e0 43 15 ae bd 1d f7 ac bd 4c eb 21 3a 03 80 79 3c
       -0.08500149 -0.084455706 0.00061767246 0.015228274
0003f0 bf 6d 77 3e c3 6b 6c 3d fe bc d9 bc f1 73 bc bc
       0.24162959 0.057719957 -0.026579376 -0.023004504

bneck.0.bn3.weight f4 [16]
000000 03 ea 79 3f 96 71 76 3f c2 1c 7d 3f fc 85 80 3f
       0.976227 0.9626707 0.98872006 1.0040889
000010 78 f4 81 3f 96 7c 83 3f 97 9c 7e 3f c8 f0 81 3f
       1.0152731 1.0272396 0.9945769 1.0151606
000020 f6 a2 85 3f 8e 14 88 3f 0f 62 80 3f 1e 42 75 3f
       1.0440357 1.0631273 1.0029925 0.9580401
000030 ae 8c 85 3f 73 fa 79 3f fb 55 80 3f 9d 55 79 3f
       1.0433557 0.9764778 1.0026239 0.9739626

bneck.0.bn3.bias f4 [16]
000000 ed 6c 50 bb 43 2f 11 bd 95 77 9e bd a4 60 e4 3c
       -0.0031803206 -0.035445463 -0.07737652 0.027878113
000010 e9 a2 15 3d aa f0 13 bd 8d bb 40 ba 53 67 5a 3c
       0.036532316 -0.036118187 -0.0007352166 0.0133302985
000020 3a 05 8a bd 2c 5c 3c 3c 43 30 a7 3c aa ba 1a 3d
       -0.06739278 0.011496585 0.020408755 0.037775673
000030 6d c3 ec 3c a4 14 56 bd 01 e1 43 bc 61 15 d6 3c
       0.02890178 -0.05226578 -0.011955501 0.026133241

bneck.0.bn3.running_mean f4 [16]
000000 26 9c 17 be e7 09 d2 3d 32 6b b2 bd fb 6b d7 3e
       -0.1480566 0.10255795 -0.08711852 0.4207457
000010 a8 5f 95 be 68 96 a2 3c 8f ba 82 3d b2 e5 fb 3e
       -0.29174542 0.01984711 0.063832395 0.4919868
000020 ab 7c ac bd b4 da eb 3d ae 91 c7 be 94 66 2d bd
       -0.08422216 0.11516324 -0.38978332 -0.042334154
000030 63 50 f3 3d ed 17 3b be b0 dc 02 3d ce da 49 bd
       0.11880567 -0.18270846 0.031948745 -0.049280934

bneck.0.bn3.running_var f4 [16]
000000 02 d2 06 3e 25 b1 a0 3d 38 f4 28 3d ba 23 6c 3d
       0.13166049 0.07846288 0.04124853 0.05765126
000010 03 aa 84 3d 62 98 d0 3d 0e b6 40 3d 5d 44 48 3e
       0.0647774 0.10185315 0.04704862 0.19557329
000020 ba 75 30 3d f3 6f f7 3d e9 bb 22 3e cb 61 34 3e
       0.043081023 0.120818995 0.15891995 0.1761543
000030 7c 45 61 3e 51 01 cb 3d 2c 5a 87 3e 28 ee f3 3d
       0.21999162 0.099123605 0.26435983 0.11910659

bneck.1.conv1.weight f4 [72, 16, 1, 1]
000000 c9 e1 60 be 4f f3 2e 3e d2 17 84 3d 6b 9e 21 be
       -0.2196113 0.17085002 0.06449856 -0.15783088
000010 8a 0a a9 3d e1 7e 55 be c3 d3 4d 3e c3 2b ce 3d
       0.08253963 -0.20849182 0.20100312 0.10066941
000020 3e 87 03 3e 14 a6 0d bd ad a2 a0 bb f4 c9 2b 3e
       0.1284456 -0.034582213 -0.004902205 0.16776258
000030 e5 52 98 3c 65 df 1e be cc 1d be bd 26 33 ef bb
       0.018594215 -0.15514906 -0.09283027 -0.0072997985
000040 be 2f 8a 3d d5 4f 8d bd ee 64 da 3d a9 89 60 be
       0.06747387 -0.068999924 0.10663782 -0.21927513
000050 ab 59 14 be 0d 77 84 3e 8a 39 94 bc 19 24 2c be
       -0.1448733 0.2587208 -0.018093843 -0.16810645
000060 a0 34 3b 3e b3 b9 5c be f5 58 e8 3d 49 8f ce 3c
       0.18281794 -0.21555214 0.11345092 0.025214808
000070 42 34 ad 3d 2a b5 d1 3d 9b f8 97 be aa 84 2c 3e
       0.08457233 0.102396324 -0.29681858 0.16847482
000080 50 3a 9e bd d1 d9 78 be 85 8f 05 3c 58 c0 88 3d
       -0.07725966 -0.2430184 0.0081518935 0.06677312
000090 7d f7 e4 bc 6b 82 34 be 55 8f a6 3d 17 0c 8f be
       -0.027950043 -0.17627876 0.08132807 -0.2793891
0000a0 4d d6 9f 3c ad fa 10 3d 6f 52 6a 3e d7 a3 f2 3d
       0.019511366 0.035395313 0.22883008 0.11847656
0000b0 4c 24 e1 38 77 bc 37 be e1 c4 04 be fe dc 03 3d
       0.00010735597 -0.17942987 -0.12965728 0.032193176
0000c0 e0 fd 6e be 77 37 4a be 9c 9a 37 be 35 fc 87 be
       -0.23339033 -0.1974772 -0.17930073 -0.26559606
0000d0 15 8e 03 3e f9 e2 34 3e b2 d2 51 3e 40 c5 43 be
       0.12847169 0.17664708 0.2049053 -0.19118214
0000e0 b5 45 7e 3e d8 48 54 3e 97 3a c4 3d ea de ea 3c
       0.24831279 0.20730913 0.095814876 0.028670747
0000f0 55 75 03 3e ad 11 4b 3e 41 30 11 3a 1b dc d9 3c
       0.12837727 0.19830962 0.00055385014 0.026594212
000100 45 16 3c 3e 59 4a 45 be d3 a3 97 bb 73 0a 14 3e
       0.1836787 -0.19266643 -0.0046276837 0.14457111
000110 9a 3a 0d bd 54 0a 1c 3e 97 0c 31 be 55 ac f4 3c
       -0.034479715 0.15238315 -0.17289959 0.02986733
000120 14 c7 01 be 9a 7b 26 3e 55 af 85 bd 2b 2c 03 bd
       -0.12673599 0.16258088 -0.065275826 -0.032024544
000130 13 92 5e 3e d2 cb 3e be 7e 20 af 3d c9 6b 43 3e
       0.2173541 -0.18632439 0.08551119 0.19084086
000140 5b bc 61 be ac 19 da bd e3 53 39 3e 27 0b 65 be
       -0.22044508 -0.10649428 0.18098406 -0.22367536
000150 29 14 43 be 15 5c 17 3e 83 6e 8f bc e2 02 3b be
       -0.19050659 0.1478122 -0.01750875 -0.18262818
000160 7b a4 42 3d e8 49 0f 3e 1d 43 89 3e a4 a0 15 3e
       0.047520142 0.13993037 0.26809016 0.14612061
000170 f0 83 28 be 9a 68 24 3e 42 87 41 3e 92 72 44 3d
       -0.1645658 0.16055527 0.18899253 0.047960825
000180 ba 93 17 3d da a6 1a 3e 99 93 c8 3c 16 e3 34 be
       0.037006117 0.15102711 0.024484443 -0.17664751
000190 85 45 43 3e da d7 27 3e 79 9d ec 3d 5b 10 5c be
       0.19069488 0.16390935 0.11553473 -0.21490614
0001a0 4c 74 7f be fa e2 8e bd 9e cd 6a 3c c8 0e 66 3d
       -0.24946707 -0.06976886 0.0143312495 0.05616644
0001b0 55 1a 05 be 09 92 1d 3e a1 ee cb bd b2 cd ea 3d
       -0.12998326 0.15387739 -0.09957624 0.114650145
0001c0 25 83 49 3e 60 89 4a be fb ac 94 bd 48 e2 90 bd
       0.19678934 -0.19778967 -0.07259556 -0.0707441
0001d0 35 09 22 3e b8 91 97 3d a5 f5 2f bd cf c5 87 bd
       0.15823825 0.074008405 -0.042958874 -0.06629526
0001e0 e6 a0 8d be d3 2d 9a bd 73 c9 83 3e 2b 79 80 be
       -0.27661818 -0.075282715 0.2573963 -0.25092444
0001f0 44 fc 87 bd bd 32 46 be 83 ed 38 bb c5 ed d6 3d
       -0.06639913 -0.19355293 -0.002821774 0.1049457
000200 6b 1e ed bd 6a 71 be bb aa e1 20 be 9e 3b c9 bd
       -0.115780674 -0.00581186 -0.15711084 -0.09825824
000210 0d 82 62 3e 95 b5 50 3e af 26 d4 3d 03 ca 5f 3d
       0.22119923 0.20381768 0.10358941 0.054636013
000220 62 67 e1 3d 1b cb 3a be c6 1e 8a bb 14 71 10 bd
       0.11006047 -0.18241541 -0.0042150943 -0.03526409
000230 61 5b c0 bd 16 7c c2 3d 35 54 18 3e 0c 14 97 3d
       -0.09392429 0.09496324 0.14875872 0.073768705
000240 05 60 0b 3e 85 40 63 be fc 2e e9 bc 93 62 37 3e
       0.13610847 -0.22192581 -0.028464787 0.17908697
000250 5c da a9 bc c7 13 35 be 09 02 0f bd 4e 90 4f be
       -0.020734005 -0.17683326 -0.03491405 -0.20269892
000260 e8 17 26 be b7 9b 38 be 5b b6 23 3e 5b 8c 0c bc
       -0.16220057 -0.1802815 0.15987532 -0.008578385
000270 d6 39 09 be 92 d2 24 bd 32 f8 ad 3c d3 a1 c1 bd
       -0.13400969 -0.040239878 0.021236513 -0.09454694
000280 58 e4 04 be c1 30 01 be 0d 63 3c 3e bd 2c 0e 3e
       -0.12977731 -0.12616254 0.1839716 0.13884254
000290 5d c8 1a 3e 89 b8 0f 3e 67 77 cd 3b f9 cd 13 3e
       0.15115495 0.14035238 0.0062703374 0.14434041
0002a0 c0 87 66 be 7b 8a 83 be 10 75 39 bd 40 e6 04 3e
       -0.22512722 -0.2569159 -0.045277655 0.12978458
0002b0 38 64 18 be a7 d1 ee 3d fa c5 89 3b a6 05 8c 3c
       -0.1488198 0.11661082 0.004204509 0.017092537
0002c0 70 1c 38 3c fe de b9 bd 9b ab db bd 0f ac 18 be
       0.011237249 -0.090757355 -0.107260905 -0.14909385
0002d0 d2 5e a0 3d 2d cc 2c bd 24 d2 42 be 05 4c 31 be
       0.078305855 -0.042186905 -0.19025475 -0.17314155
0002e0 bc e9 97 3d 5e fc 87 be 3e 9e 60 3e b6 94 36 3e
       0.07417628 -0.26559728 0.21935365 0.17830166
0002f0 a4 75 e8 3d 30 37 fa 3b 31 e8 d0 bd 12 aa 0c be
       0.11350563 0.0076359734 -0.10200537 -0.13736752
000300 88 15 3f bd 02 6c c0 bd 44 1f 63 3b 89 92 55 be
       -0.046651393 -0.09395601 0.0034656087 -0.2085668
000310 37 2d 58 3d 8b 60 94 bc b1 b8 78 be 52 ec b1 bd
       0.052777495 -0.018112442 -0.24289204 -0.08687653
000320 97 ac 0f be f5 29 03 3e 8e 09 54 3c ba 93 2b be
       -0.14030682 0.12808974 0.012941731 -0.16755572
000330 72 3f 5a bd d3 ff af bc dd a2 e8 bd 39 fe 4a 3e
       -0.053283162 -0.021484291 -0.11359189 0.19823541
000340 5e 57 e1 3d 5f 8c 0e 3e a3 88 80 be be c5 52 be
       0.11002992 0.13920735 -0.25104246 -0.20583245
000350 ef cc 80 3e 76 64 3b be 35 2e c9 3d ec 72 40 3e
       0.25156352 -0.18300042 0.098232664 0.18793839
000360 1b c4 23 be aa 06 de bc 48 4d 42 be 3f 3d 98 bd
       -0.15992777 -0.027102787 -0.18974793 -0.07433557
000370 c3 bd 02 be 82 74 0c be 7e a2 00 3e 26 11 14 bd
       -0.12767701 -0.13716319 0.12561986 -0.036149167
000380 e2 6e 3c 3d a3 30 23 3e 61 30 e5 bb b4 36 84 be
       0.046004184 0.15936522 -0.0069942926 -0.25822985
000390 8e 2d 09 3d fb c4 f6 bc c3 32 1d be 8e d7 73 3e
       0.03349071 -0.030123224 -0.15351395 0.23812696
0003a0 72 1c 77 bd 37 9a 53 3b 38 98 cd 3d ac f7 5a 3e
       -0.060329862 0.0032287964 0.10038799 0.21383542
0003b0 b6 d8 46 bd e5 0e d7 3a 80 e3 fe bd 33 75 3e 3e
       -0.048546515 0.0016407637 -0.12445736 0.18599395
0003c0 f4 33 9e bd c5 3a 87 be 49 d4 fb 3d 1a da c9 ba
       -0.07724753 -0.26412025 0.122963496 -0.0015400082
0003d0 34 31 5b 3d 89 02 51 3e 46 02 9f 3c 9d 80 c4 3d
       0.05351372 0.20411123 0.019410264 0.095948435
0003e0 77 6b 67 bd 51 4a 0e be 43 02 84 bd 31 fa 71 be
       -0.05649897 -0.13895537 -0.06445744 -0.23630597
0003f0 a6 1d ce bd 97 8b ff 3d a5 b4 4b be 20 68 57 bc
       -0.10064249 0.124777965 -0.19893129 -0.013147384

bneck.1.bn1.weight f4 [72]
000000 02 63 62 3f 9e 82 44 3f ba aa 6e 3f 65 17 61 3f
       0.88432324 0.76761806 0.9322926 0.8792632
000010 3e fb 68 3f 59 b9 62 3f 53 4a 66 3f 33 e0 63 3f
       0.91008365 0.8856407 0.8995716 0.89013976
000020 bd 12 52 3f cf 98 63 3f 25 9f 60 3f a2 62 62 3f
       0.8205984 0.8890504 0.87742835 0.8843175
000030 71 0e 59 3f fe 73 62 3f 39 0d 74 3f c4 7d 55 3f
       0.8478766 0.8845824 0.95332676 0.8339503
000040 15 74 6d 3f 35 c5 56 3f 74 79 50 3f 6d 30 5f 3f
       0.9275525 0.83894664 0.8143532 0.87183267
000050 42 d8 4b 3f d4 85 51 3f d9 d3 65 3f c9 30 70 3f
       0.7962686 0.8184483 0.8977638 0.9382444
000060 1b 5d 65 3f 01 f2 53 3f 86 eb 62 3f 73 ea 64 3f
       0.8959519 0.82791144 0.8864063 0.8942024
000070 82 c2 5c 3f 18 29 74 3f 03 a4 54 3f b0 40 6a 3f
       0.86234295 0.95375204 0.8306276 0.91504955
000080 c7 68 55 3f 77 c4 4c 3f 4e b6 67 3f ca 91 5d 3f
       0.83363 0.7998728 0.9051255 0.8655058
000090 cd d0 5a 3f 36 03 6a 3f 0e 9d 59 3f d6 34 5d 3f
       0.85474855 0.9141115 0.8500527 0.86408746
0000a0 a9 b4 5b 3f 68 48 58 3f 59 7d 63 3f 65 c5 6d 3f
       0.8582254 0.84485483 0.8886314 0.92879325
0000b0 05 94 5a 3f 3a ce 5a 3f 37 ef 6c 3f 3f 35 61 3f
       0.8538211 0.85470927 0.9255251 0.8797187
0000c0 02 4b 63 3f 72 ac 60 3f 78 fa 5b 3f 35 85 6e 3f
       0.8878633 0.8776313 0.8592906 0.9317201
0000d0 2c 50 57 3f f4 a6 5d 3f ff 46 57 3f 56 05 66 3f
       0.8410671 0.86582875 0.84092706 0.8985189
0000e0 f2 e4 4d 3f 61 6c 65 3f 00 4c 5e 3f 87 ab 5d 3f
       0.8042747 0.896185 0.86834717 0.86589855
0000f0 2a ac 55 3f 5e 24 68 3f 0f d6 73 3f 8b e3 55 3f
       0.83465827 0.9068049 0.952485 0.8355033
000100 22 38 56 3f cb ff 6d 3f d9 b2 6d 3f a3 76 5f 3f
       0.836794 0.92968434 0.92851025 0.872904
000110 6b 6a 69 3f 62 12 5f 3f 15 b5 54 3f d0 02 5d 3f
       0.91178006 0.87137425 0.8308881 0.86332417

bneck.1.bn1.bias f4 [72]
000000 2b 63 17 3c e6 df e6 3d 6c 4a 1e 3d bc 43 c0 3c
       0.009239952 0.11273174 0.038645193 0.023469798
000010 a3 0f 10 3d 84 52 36 3d 6f 9f c4 3c 41 68 f1 3c
       0.035171162 0.044512287 0.024001805 0.029468657
000020 72 5f d8 3d 00 df 9a 3d 94 d5 d7 3c af b8 a0 3c
       0.1056508 0.07562065 0.02634696 0.019619314
000030 55 0e 2d 3c 23 57 a7 3d 31 2d 66 3c dc 40 1e 3d
       0.010562499 0.08170917 0.01404886 0.038636073
000040 1c 47 b3 3c ee ef 70 bc 62 2b 19 3e 52 10 a6 3d
       0.021884494 -0.014705641 0.14957955 0.081085816
000050 31 08 16 bd 4b 3a 07 3e 15 b1 3f 3d d3 22 11 bd
       -0.036628906 0.13205831 0.046799738 -0.0354336
000060 82 40 e8 bc 09 7e d8 3c 64 e0 8b 3d cd f3 43 bc
       -0.028351072 0.026427286 0.068299085 -0.011959982
000070 f1 bc 27 3d d7 b7 78 bc 30 7d d2 3c 6d 74 3b 3d
       0.040951673 -0.01518055 0.02569446 0.04576533
000080 21 25 1d bd fd d7 aa 3d be d9 91 3c 8b ea 45 bc
       -0.038365487 0.08341978 0.017804023 -0.012079845
000090 9b 41 2b 3d 38 0d 4b bb 21 1d cb 3d 1b 89 49 3d
       0.041810613 -0.003098322 0.09917665 0.04920302
0000a0 a5 ea 9e bd 71 d5 a6 bd 21 49 17 3d f6 c8 1a bd
       -0.07759599 -0.081461795 0.036934976 -0.037789308
0000b0 d3 19 0a 3c 36 f8 bb 3d c0 7f ae bb 34 87 bc bb
       0.008429009 0.09178202 -0.0053252876 -0.005753422
0000c0 10 65 a7 bb 76 8e 42 bc 0b f7 0f bd 38 ca ee bb
       -0.005108483 -0.011874786 -0.035147708 -0.00728729
0000d0 d1 2b 88 bd e5 4e a9 3d 32 fd 5a bc 6f 47 8a 3c
       -0.06648982 0.08267001 -0.0133660305 0.016879765
0000e0 46 81 f0 3d f5 ab be 3c 9e f7 b4 3d d2 40 fb bc
       0.11743407 0.023275355 0.08836292 -0.030670557
0000f0 47 cb a4 3d 71 fb 84 bb 1a 05 a4 3b 8b 9f d2 3d
       0.080465846 -0.0040582945 0.005005491 0.10284337
000100 4e f8 30 bd 22 ba 7c 3b c6 43 ac bb c4 72 87 3d
       -0.04320555 0.0038563092 -0.0052571027 0.06613687
000110 8f f5 2d bc 6d 90 95 3d 9b fc 5e 3d 99 c2 47 bb
       -0.010617628 0.07302938 0.054440122 -0.003048098
