TX2/multicamerarl/torch_models/weights_75.pth (torch_old, 478682 bytes, 91 tensors)

conv1.weight f4 [16, 3, 3, 3]
0	0x3b0eeb30	0.0021807663
1	0xbdbda20d	-0.09259424
2	0x3e65d37c	0.22443956
3	0x3dfc7688	0.123272955
4	0xbe208748	-0.15676606
5	0x3ddd71b3	0.10812702
6	0xbcb9c974	-0.022679068
7	0x3a74d96b	0.0009340259
8	0xbe23e5c8	-0.16005623
9	0xbd9592d2	-0.073033944
10	0x3e096e64	0.13421017
11	0xbc2bf547	-0.01049549
12	0xbcfff5ea	-0.03124519
13	0xbdefb030	-0.11703527
14	0xbe0c70aa	-0.13714853
15	0xbe4a4f20	-0.19756746
16	0xbe39c01d	-0.18139692
17	0xbd00e7be	-0.031471007
18	0x3dbbfa07	0.09178548
19	0xbda956bd	-0.08268497
20	0x3e2701cb	0.16309278
21	0xbe438517	-0.19093738
22	0xbe262872	-0.16226366
23	0x3e0a87fc	0.13528436
24	0xbe40d739	-0.18832101
25	0x3df6a355	0.12042872
26	0xbcbfdfa3	-0.023422068
27	0x3dda9117	0.10672205
28	0xbd976f9b	-0.07394334
29	0x3e069ee0	0.13146544
30	0x3db4db08	0.088308394
31	0x3dbf7ddf	0.0935018
32	0x3d8327f2	0.06404103
33	0xbe5fac0e	-0.21842977
34	0xbe2ae9ce	-0.16690752
35	0xbdae8b32	-0.08522643
36	0x3d18c0d9	0.03729329
37	0x3e57bd1e	0.21068236
38	0xbc6ffb82	-0.0146473665
39	0x39c5c5b3	0.00037722065
40	0xbd4eb219	-0.050462816
41	0xbe42154e	-0.1895344
42	0x3dca8763	0.09889104
43	0xbe293cba	-0.16527072
44	0xbde58041	-0.11206103
45	0xbd6c46f3	-0.05768485
46	0xbdd4a2eb	-0.10382637
47	0x3dc1787b	0.09446808
48	0x3d5717a7	0.05251279
49	0xbd00d548	-0.0314534
50	0x3da5b566	0.0809124
51	0xbdfa915c	-0.12234756
52	0xbddc6dbc	-0.10763118
53	0x3ddd2377	0.1079778
54	0x3b5c5e6f	0.0033625623
55	0xbe7b041f	-0.24513291
56	0xbd8a843d	-0.06763504
57	0xbd997ef3	-0.07494917
58	0xbe0ad8b9	-0.13559236
59	0x3db3a700	0.08772087
60	0xbd926048	-0.071472704
61	0x3c357af3	0.011076677
62	0x3e56946f	0.2095506
63	0xbcd64603	-0.026156431
64	0xbe454fb5	-0.19268687
65	0xbd75dfb1	-0.060027782
66	0xbd1a6169	-0.037690554
67	0x3d65750f	0.05601984
68	0x3d4d925f	0.05018842
69	0xbd55a989	-0.052163634
70	0xbcc4a54e	-0.024004605
71	0x3c7d4872	0.015459167
72	0x3d59877b	0.05310772
73	0xbdaa9496	-0.08329122
74	0xbdcb8e7d	-0.09939287
75	0x3d2a6d34	0.04160805
76	0xbd604070	-0.054748952
77	0xbc3d60d6	-0.011558732
78	0xbd34d1dc	-0.04414545
79	0x3e340135	0.17578585
80	0x3cd41fcf	0.025894074
81	0x3cb8cc21	0.022558274
82	0xbdc52d93	-0.09627833
83	0x3df514e4	0.11966875
84	0xbd0f721c	-0.035020933
85	0xbe2d1b6f	-0.16904996
86	0xbe3be96b	-0.1835076
87	0x3dc8028c	0.09766111
88	0x3e040958	0.1289419
89	0x3dfe8915	0.1242849
90	0x3e25c9ea	0.16190305
91	0x3e0f51c6	0.13996038
92	0x3e160579	0.14650525
93	0xbdc0eb5c	-0.09419891
94	0xbddb794f	-0.10716497
95	0x3d94c3fc	0.072639436
96	0xbd839504	-0.06424907
97	0xbe23c234	-0.15992051
98	0x3d7cebee	0.061748438
99	0x3d40c17a	0.047059514
100	0x3cb38822	0.0219155
101	0xbe207678	-0.15670192
102	0x3d7d1a2c	0.061792538
103	0xbd934b99	-0.071921535
104	0x3cddfe8a	0.027098913
105	0xbe32afa1	-0.1744981
106	0x3dfbc046	0.122925326
107	0xba92a292	-0.0011187366
108	0x3e0c25e9	0.13686337
109	0xbdbe2631	-0.09284628
110	0xbc23dc88	-0.010001309
111	0x3d9b9938	0.075975835
112	0x3e0310ab	0.12799327
113	0xbd5fd0b3	-0.05464239
114	0xbc3ba320	-0.011452466
115	0x3b8f7317	0.0043777335
116	0xbc4eabca	-0.0126142
117	0x3dbc6054	0.09198061
118	0xbd9169bb	-0.071002446
119	0xbd9a399c	-0.07530519
120	0x3d1e1473	0.03859372
121	0x3e336222	0.17517903
122	0x3c490c28	0.012270965
123	0xbdb6690f	-0.08906757
124	0xbe496ac8	-0.1966964
125	0xbd23c310	-0.039980948
126	0x3e6e16ef	0.23250936
127	0x3d8e5875	0.069504656
128	0x3e009c9f	0.12559746
129	0xbddfaa2e	-0.10921131
130	0xbdcb830b	-0.09937104
131	0xbe2bbace	-0.16770479
132	0xbd8f5988	-0.069994986
133	0xbe261e75	-0.16222556
134	0xbe86e6eb	-0.2634805
135	0xbe1460e8	-0.14490092
136	0xbd43c858	-0.047798485
137	0x3c04a465	0.008095835
138	0x3dc7ca58	0.09755391
139	0xbe151a06	-0.14560708
140	0x3db65d86	0.08904557
141	0x3dad161a	0.08451481
142	0xbe1a11e8	-0.15045893
143	0x3dc9ef4a	0.09860094
144	0xbe231819	-0.15927161
145	0xbe43eba2	-0.19132856
146	0x3e0aab07	0.13541804
147	0x3cf191e8	0.029488519
148	0x3e281ad7	0.16416489
149	0x3d93dd48	0.072199404
150	0xbdd75941	-0.10515071
151	0xbdca90d8	-0.09890908
152	0x3d31d836	0.043419085
153	0x3de5699e	0.112017855
154	0xbe0c8849	-0.13723864
155	0xbdcc2b69	-0.09969217
156	0x3c43c81e	0.011949567
157	0x3d1e9ad1	0.038721863
158	0x3cd92a6e	0.02650949
159	0xbd86f1f4	-0.06589118
160	0x3e0078d1	0.12546088
161	0x3da64619	0.08118839
162	0x3db251d9	0.087070175
163	0x3e26e243	0.1629725
164	0x3cf0328b	0.029320976
165	0x3dd36407	0.10321813
166	0xbc059439	-0.008153015
167	0x3e715b7d	0.23570056
168	0xbcff8e14	-0.031195678
169	0xbd804cc3	-0.06264641
170	0xbdea6a96	-0.11446111
171	0x3d6a0799	0.057136152
172	0x3dc3feee	0.09570108
173	0xbe6ab8d3	-0.22922067
174	0x3dcc0841	0.09962512
175	0xbd9b649d	-0.0758755
176	0x3d91bd0c	0.07116136
177	0xbc2eda72	-0.010672199
178	0xbcaa2af0	-0.020772427
179	0x3d66b33b	0.05632327
180	0xbd318206	-0.04333689
181	0x3db807ff	0.089859
182	0x3db1367a	0.08652969
183	0xbe95c177	-0.29249164
184	0xbccbcd88	-0.024878278
185	0x3dc29f6c	0.095030636
186	0xba88e663	-0.0010444637
187	0xbde03aa3	-0.10948684
188	0xbe70e30f	-0.23524116
189	0xbdd91e5d	-0.106014945
190	0xbe3fc164	-0.18726116
191	0xbe36f9be	-0.17868707
192	0x3e071c16	0.13194308
193	0xbe5524e2	-0.20814851
194	0x3d81a01c	0.063293666
195	0xbdda0c32	-0.10646857
196	0xbe0eb4cf	-0.1393616
197	0xbcfc5b65	-0.030805299
198	0x3ce9a83a	0.0285226
199	0x3e345013	0.17608671
200	0x3e5b2288	0.21399891
201	0x3d305b7f	0.043056007
202	0x3e111c37	0.1417092
203	0xbe1b105b	-0.15142958
204	0x3e115645	0.14193065
205	0xbda38bd9	-0.07985658
206	0x3dfcda8c	0.12346372
207	0xbe04a9e2	-0.1295543
208	0xbde1e470	-0.11029899
209	0x3dadd239	0.084873624
210	0x3d9edb3a	0.07756658
211	0x3e151cd5	0.1456178
212	0xbb7dabd5	-0.0038707156
213	0xbdfdcd70	-0.123927
214	0x3c726e17	0.014796755
215	0x3d3dc64f	0.0463317
216	0x3e118777	0.14211832
217	0x3de9f7ac	0.11424193
218	0xbe30aa1a	-0.17252389
219	0xbda0eaea	-0.07857306
220	0xbe1e8689	-0.15481009
221	0xbc15396f	-0.0091079315
222	0x3b9b2315	0.0047344067
223	0x3e1d630b	0.15369813
224	0xbde6241a	-0.112373546
225	0xbbeb4969	-0.007180382
226	0xbc781218	-0.015141033
227	0xbe2279f0	-0.15866828
228	0xbd9c5d49	-0.0763498
229	0xbd46ecd4	-0.0485657
230	0x3ddf83f1	0.10913838
231	0xbd811e37	-0.06304591
232	0x3d2a7368	0.041613966
233	0x3dff0367	0.12451821
234	0x3e4d1940	0.20029163
235	0x3d8f3271	0.06992043
236	0xbe0ca943	-0.13736443
237	0xbe05eb55	-0.13078053
238	0x3e00ba15	0.12570985
239	0xbe163a00	-0.14670563
240	0x3d2d662c	0.042333767
241	0x3e4c7023	0.19964652
242	0xbe0836c6	-0.13302144
243	0x3e2cd706	0.168789
244	0x3da39feb	0.07989486
245	0x3dccda03	0.1000252
246	0xbdf4760e	-0.1193658
247	0x3c83569c	0.01603251
248	0x3df4d205	0.119541205
249	0xbd59f601	-0.053213123
250	0x3def4217	0.116825275
251	0x3e82c240	0.25538826
252	0x3d8b32e3	0.06796815
253	0xbeabb5ed	-0.33537236
254	0x3dc1b2b7	0.09457915
255	0xbdb9dc60	-0.09075236

bn1.weight f4 [16]
0	0x3f80595d	1.0027272
1	0x3f878ae2	1.0589259
2	0x3f7b57c9	0.98180825
3	0x3f76b3e9	0.9636827
4	0x3f7f4317	0.99711746
5	0x3f8205d2	1.0158026
6	0x3f83c3c9	1.0294124
7	0x3f9914a0	1.1959419
8	0x3f8522e7	1.0401276
9	0x3f78c159	0.97170025
10	0x3f808d09	1.004304
11	0x3f7db338	0.9910159
12	0x3f7bff45	0.98436385
13	0x3f825992	1.0183585
14	0x3f7660d6	0.9624151
15	0x3f8a824d	1.0821015

bn1.bias f4 [16]
0	0x3b31cb93	0.0027129396
1	0x3d103751	0.035209004
2	0x3bbe6987	0.0058109197
3	0x3d5d94e1	0.05409706
4	0xbcb4ecd6	-0.022085588
5	0xbd098f50	-0.03358394
6	0x3c05dddb	0.00817057
7	0x3d351b4d	0.04421549
8	0xbd046ffd	-0.032333363
9	0xbac0b17a	-0.001470133
10	0xbc587d89	-0.013213524
11	0x3d12d21f	0.03584492
12	0xbd228da6	-0.039685868
13	0xbb8b34cc	-0.0042482372
14	0xbd4d54f3	-0.050129842
15	0x3de061ae	0.10956131

bn1.running_mean f4 [16]
0	0xbead7693	-0.33879527
1	0xbe1ca61b	-0.15297739
2	0xbe733a8e	-0.23752806
3	0x3c981758	0.018565819
4	0xbe54eed7	-0.20794235
5	0xbd4643a4	-0.04840435
6	0xbbeb9538	-0.007189419
7	0xbd0895ed	-0.033346105
8	0xbd554908	-0.0520716
9	0x3e0ced17	0.13762318
10	0x3e19013b	0.14941876
11	0xbe10545e	-0.14094684
12	0x3e8086fb	0.25102982
13	0x3d94f4e9	0.072732754
14	0xbe16fd5a	-0.14745083
15	0x3b38c6a3	0.0028194569

bn1.running_var f4 [16]
0	0x3d6ffdbd	0.058591593
1	0x3c66cbd8	0.014086686
2	0x3d07896d	0.033090044
3	0x3adf4bad	0.0017036103
4	0x3cc94dc8	0.024573222
5	0x3b6c71ed	0.0036078647
6	0x3b5e4ea9	0.0033921397
7	0x3b3b3a0d	0.0028568537
8	0x3b40f5f2	0.002944347
9	0x3c60c748	0.013719387
10	0x3c4d9058	0.012546621
11	0x3c714f73	0.014728415
12	0x3d089051	0.033340756
13	0x3bd8113a	0.0065938504
14	0x3c804312	0.015656982
15	0x3b80a31e	0.003925695

bneck.0.se.se.1.weight f4 [4, 16, 1, 1]
0	0x3de9e068	0.11419755
1	0xbdfff23e	-0.12497376
2	0x3d5b76a9	0.05357996
3	0xbd99b446	-0.075050876
4	0xbe2b526c	-0.1673066
5	0xbdeb84ce	-0.1149994
6	0x3e62a6e1	0.22133972
7	0xbd1d29b6	-0.038369857
8	0x3e0e9109	0.13922514
9	0xbd9ae81a	-0.07563801
10	0x3e7f12ad	0.24909468
11	0xbe2e7433	-0.17036514
12	0xbd8ec4e9	-0.069711514
13	0xbdcef0c8	-0.10104519
14	0x3e797e77	0.24364649
15	0x3e339aa7	0.17539464
16	0x3d90740c	0.07053384
17	0xbb1e37a7	-0.0024142058
18	0x3edfdbfc	0.43722522
19	0x3e497c16	0.19676241
20	0xbdd33ff2	-0.10314931
21	0xbcd89161	-0.02643651
22	0x3cbc3697	0.02297525
23	0xbe0243f7	-0.12721239
24	0x3d3ddecb	0.04635505
25	0x3cf02ef3	0.029319262
26	0xbd22082c	-0.039558575
27	0x3e70d79b	0.23519747
28	0x3b3ed8bd	0.0029120885
29	0x3e1b85b5	0.15187724
30	0xbd9fc78b	-0.07801732
31	0xbdc8e798	-0.09809798
32	0xbe037cff	-0.12840651
33	0xbc5a8dd4	-0.0133394785
34	0xbd248fa3	-0.040176045
35	0xbd64794c	-0.05577974
36	0x3d39ee68	0.045393378
37	0x3ea82d79	0.32847193
38	0x3df18571	0.1179303
39	0xbe577e0f	-0.21044181
40	0xbddf4502	-0.10901834
41	0x3cd2f936	0.025753599
42	0x3e2e4dca	0.17021862
43	0x3c0e86c7	0.008699126
44	0x3e7fc97c	0.24979204
45	0x3d7b0de5	0.061292548
46	0xbd4c0f98	-0.04981956
47	0xbd82b1e2	-0.06381585
48	0xbdb78965	-0.08961753
49	0xbd55de77	-0.052214112
50	0x3dc5051f	0.096201174
51	0xbe33e7f1	-0.17568947
52	0x3d6c8810	0.057746947
53	0x3e3bddf8	0.18346393
54	0xbd85771a	-0.065168574
55	0x3d94ec8b	0.072716795
56	0xbe63f8ef	-0.2226293
57	0x3e1d3f07	0.15356074
58	0xbd897d06	-0.067132995
59	0x3e186e6d	0.14885874
60	0x3d011d29	0.03152195
61	0x3cf7eabd	0.0302633
62	0xbe37483a	-0.17898646
63	0x3e00fb36	0.1259583

bneck.0.se.se.2.weight f4 [4]
0	0x3f72e904	0.94886804
1	0x3f939534	1.1529908
2	0x3f7a6f11	0.97825724
3	0x3f5544fb	0.8330838

bneck.0.se.se.2.bias f4 [4]
0	0x3e832711	0.25615743
1	0x3e12f158	0.14349878
2	0x3dbfd461	0.0936668
3	0xbe27eb88	-0.16398442

bneck.0.se.se.2.running_mean f4 [4]
0	0xbd90571c	-0.07047865
1	0xbdb9bddc	-0.09069416
2	0x3db28bb1	0.0871805
3	0x3d855927	0.06511145

bneck.0.se.se.2.running_var f4 [4]
0	0x3c5b802e	0.01339726
1	0x3cca97a1	0.024730505
2	0x3c8bfe90	0.017089158
3	0x3ce78165	0.028259942

bneck.0.se.se.4.weight f4 [16, 4, 1, 1]
0	0x3e4d8841	0.20071508
1	0x3eba3bb8	0.36373687
2	0x3e5695bb	0.20955555
3	0x3e3bf32f	0.18354486
4	0xbe7a7032	-0.24456862
5	0xbed646b8	-0.4185083
6	0xbd69a3f6	-0.05704113
7	0x3ebfe58f	0.37479827
8	0xbd2b92c7	-0.041888025
9	0x3ef2c67e	0.47417063
10	0x3e9ff89f	0.3124437
11	0xbdb05e2c	-0.08611712
12	0x3eb22c0f	0.3479924
13	0xbdebed73	-0.11519899
14	0xbebe23f1	-0.37136796
15	0xbe1b8356	-0.1518682
16	0x3eef850a	0.46781188
17	0x3e0156fb	0.12630837
18	0x3d9f05b4	0.0776476
19	0x3da3387c	0.07969758
20	0x3f18b881	0.5965653
21	0x3ef523e8	0.47878957
22	0xbe5d1757	-0.21590935
23	0xbcbe5b58	-0.023236915
24	0xbe809006	-0.2510988
25	0x3e8928e7	0.2678902
26	0x3efa6eb1	0.48912576
27	0x3e6aa9a8	0.22916281
28	0x3ee9c4c2	0.45657927
29	0x3e99dd46	0.3005163
30	0xbe4a29c4	-0.19742495
31	0xbe1b833b	-0.15186779
32	0x3f0ec71f	0.55772585
33	0x3e828668	0.2549317
34	0xbe105590	-0.1409514
35	0x3d165c98	0.036709398
36	0x3da4366d	0.080181934
37	0x3e92e00c	0.2868656
38	0x3eaf87cd	0.34283295
39	0xbeb088e9	-0.34479454
40	0xbe6e1f3c	-0.23254102
41	0x3d8f0ac4	0.06984475
42	0xbece18b4	-0.40253222
43	0xbe1b39dc	-0.1515879
44	0xbb3e5daa	-0.0029047527
45	0x3ea5bb48	0.32369447
46	0x3ed09695	0.40739885
47	0x3e70beda	0.23510304
48	0x3e953105	0.2913896
49	0x3ef5e149	0.4802344
50	0x3eef469a	0.46733552
51	0x3e61bb1c	0.22044033
52	0x3e556409	0.20838942
53	0x3ea61451	0.32437375
54	0xbe1cf60a	-0.15328231
55	0xbe43c451	-0.19117858
56	0x3ee9bccd	0.45651856
57	0x3e7de4ff	0.24794386
58	0x3e203ade	0.15647456
59	0xbec1e69e	-0.3787126
60	0xbd1df942	-0.03856779
61	0xbc796fea	-0.015224436
62	0x3e669c9e	0.22520682
63	0x3e99cf6b	0.3004106

bneck.0.se.se.5.weight f4 [16]
0	0x3f85b7b2	1.0446684
1	0x3f597381	0.8494187
2	0x3f9d761b	1.2301668
3	0x3f54ecc6	0.8317379
4	0x3f9d4585	1.2286841
5	0x3f7819d9	0.9691444
6	0x3f6237a9	0.8836618
7	0x3f695dd4	0.91158795
8	0x3f66c44a	0.90143263
9	0x3f6e425d	0.9307001
10	0x3f43331e	0.76249874
11	0x3f5de173	0.86672133
12	0x3f89e757	1.0773724
13	0x3f81cffd	1.0141598
14	0x3f751f3f	0.957508
15	0x3f3f0f92	0.74633133

bneck.0.se.se.5.bias f4 [16]
0	0xbd9a3871	-0.075302966
1	0x3ab226dc	0.0013591903
2	0xbdbcea6b	-0.09224399
3	0x3db6b894	0.08921924
4	0xbd9488df	-0.072526686
5	0x3d0560ad	0.0325629
6	0x3db8b1b7	0.090182714
7	0x3d17353c	0.036916003
8	0x3e014ff1	0.12628151
9	0x3e189ddf	0.14903973
10	0x3daa11ff	0.08304214
11	0x39ced21d	0.00039447928
12	0x3ce9bc7b	0.028532257
13	0xbd6acd01	-0.057324413
14	0xbda06322	-0.07831408
15	0x3d40eb27	0.04709926

bneck.0.se.se.5.running_mean f4 [16]
0	0x3ee2cb99	0.44295958
1	0xbe8e5468	-0.27798772
2	0x3eaf8cea	0.34287196
3	0xbd99aaac	-0.07503256
4	0x3ebfafe1	0.37438872
5	0x3ef64861	0.48102096
6	0x3e8f0dbd	0.2794017
7	0x3e8ff452	0.2811609
8	0x3ec57ff2	0.38574177
9	0x3e7de77a	0.24795333
10	0xbe9a0c4b	-0.30087504
11	0x3ed1db4c	0.40987623
12	0x3f2c919f	0.674097
13	0x3e2c4f55	0.16827138
14	0x3eae83da	0.3408497
15	0x3e137c0e	0.14402792

bneck.0.se.se.5.running_var f4 [16]
0	0x3e0e9689	0.13924612
1	0x3e956ec1	0.2918606
2	0x3e1c4cdb	0.15263693
3	0x3d9ca9ea	0.07649596
4	0x3e0087bb	0.12551777
5	0x3f04b719	0.51841885
6	0x3dbc2e3f	0.09188508
7	0x3e9264dd	0.28592578
8	0x3e86eb85	0.26351562
9	0x3e14ad38	0.14519203
10	0x3d83af09	0.0642987
11	0x3dc89404	0.09793857
12	0x3e968b7b	0.2940329
13	0x3e35e141	0.17761709
14	0x3e90e9c0	0.28303337
15	0x3d2e472e	0.04254835

bneck.0.conv1.weight f4 [16, 16, 1, 1]
0	0xbdc92d81	-0.09823132
1	0xbe1f2c55	-0.15544255
2	0x3e5c8f2c	0.2153899
3	0xbda037e1	-0.07823158
4	0xbd464673	-0.04840703
5	0xbdd39d8c	-0.10332784
6	0xbd8a9238	-0.0676617
7	0xbb827312	-0.0039810026
8	0xbd44af12	-0.048018523
9	0x3b3fcbd6	0.0029265783
10	0xbbcfc0cb	-0.0063401214
11	0x3c8755ff	0.016520498
12	0x3e045092	0.1292136
13	0xbdaf22ad	-0.08551536
14	0xbc896fa2	-0.016776863
15	0xbe846871	-0.25860932
16	0xbe6b876a	-0.23000875
17	0xbdc58075	-0.09643642
18	0x3dafce1f	0.08584236
19	0x3e236d79	0.15959729
20	0x3cd0413a	0.025421727
21	0x3dce1033	0.100616835
22	0xbd6a9c50	-0.057277977
23	0x3e9aff86	0.30273074
24	0x3dc15a88	0.094410956
25	0xbe3f94a2	-0.18709043
26	0xbc99cec7	-0.018775357
27	0x3dff2640	0.124584675
28	0x3d89016f	0.066897266
29	0xbe84e08a	-0.2595256
30	0xbe57299a	-0.21011963
31	0x3da7f7af	0.08201539
32	0x3e163c38	0.14671409
33	0xbe58e6c2	-0.21181777
34	0x3e187390	0.14887834
35	0x3dd01b9b	0.10161515
36	0xbe1fb3aa	-0.1559588
37	0x3e48b5f7	0.19600664
38	0xbc4e5d66	-0.01259551
39	0xbd06c826	-0.03290572
40	0xbda34dfd	-0.079738595
41	0xbd244792	-0.040107317
42	0x3e555192	0.20831898
43	0x3e518b64	0.2046333
44	0xbe1b849d	-0.15187307
45	0x3e0c9f60	0.13732672
46	0x3df618ea	0.12016471
47	0x3d350e18	0.044202894
48	0x3e301979	0.17197217
49	0xbe5125d4	-0.20424587
50	0xbdcd1875	-0.100144304
51	0x3e65850c	0.22414035
52	0x3e57a61a	0.21059456
53	0xbe2737a0	-0.16329813
54	0x3c8c0c81	0.017095806
55	0xbd9dfcd9	-0.077142425
56	0x3ea8c1c3	0.32960328
57	0x3d8c4cc8	0.06850582
58	0xbd6731e1	-0.056444053
59	0x3d1e0231	0.03857631
60	0xbb87f3b4	-0.0041489247
61	0x3d6272fe	0.055285446
62	0xbdd9d321	-0.10635973
63	0x3d2b8ae6	0.04188051
64	0xbd686ceb	-0.056744497
65	0xbdd1ae80	-0.10238361
66	0xbe5bdd97	-0.21471249
67	0xbd528111	-0.05139262
68	0xbe41fb14	-0.18943435
69	0xbd8514ea	-0.0649813
70	0xbda9f676	-0.08298962
71	0x3d67f966	0.05663433
72	0x3e25abab	0.16178767
73	0xbe07f83f	-0.13278292
74	0x3e6cb494	0.2311576
75	0xbe1beec0	-0.15227795
76	0x3dd33ea0	0.10314679
77	0xbe42e5bf	-0.19032954
78	0xbe07a7c4	-0.13247591
79	0xbaacc151	-0.0013180171
80	0xbd309589	-0.043111358
81	0xbe2fe973	-0.17178898
82	0xbdfdc771	-0.12391556
83	0x3d0a8828	0.033821255
84	0x3d44fe79	0.048094247
85	0xbe0006fd	-0.12502666
86	0x3e8adf6d	0.27123585
87	0x3ced2896	0.028950017
88	0xbe8d830f	-0.27639052
89	0x3e5b71b4	0.21430093
90	0xbe899507	-0.2687151
91	0x3dcfa8d2	0.10139622
92	0x3e3be12a	0.18347612
93	0xbde18497	-0.11011618
94	0x3d95ca5e	0.07313989
95	0xbbac0a01	-0.005250216
96	0x3a23abed	0.00062435755
97	0xbd963b69	-0.0733555
98	0xbd22c4af	-0.039738353
99	0x3c41facc	0.01183958
100	0xbe16f23d	-0.14740844
101	0xbe8fa0be	-0.28052324
102	0x3bf8f83d	0.0075979517
103	0x3ddacf61	0.10684086
104	0xbe5c0a7f	-0.21488379
105	0x3da90a81	0.082539566
106	0xbdf8acdb	-0.121423446
107	0x3df6db51	0.1205355
108	0xbd0831e6	-0.03325071
109	0xbc998e73	-0.018744683
110	0xbd319937	-0.043359008
111	0xbd11bf29	-0.035582695
112	0xbe234d4d	-0.15947457
113	0x3e28542e	0.16438362
114	0x3e2c29f4	0.16812879
115	0x3d9b256c	0.07575497
116	0xbdb9048b	-0.0903407
117	0xbdf75408	-0.120765746
118	0x3e1862f3	0.14881496
119	0x3e9100cd	0.28320923
120	0xbe283afa	-0.16428748
121	0xbd9d3ef2	-0.076780215
122	0xbe5284cb	-0.20558469
123	0xbd6f1914	-0.058373526
124	0xbd76fdb0	-0.06030053
125	0x3da5d18c	0.080966085
126	0x3e619e54	0.22033054
127	0x3e65a3f1	0.2242582
128	0xbc34f826	-0.011045491
129	0x3e993804	0.2992555
130	0x3d39a4d1	0.045323197
131	0x3cd61c61	0.026136579
132	0xbcb6d0d0	-0.022316366
133	0xbcdb146d	-0.026743138
134	0xbe97a637	-0.29619
135	0xbc22c3e5	-0.0099344
136	0x3d23ae2f	0.039961036
137	0xbe2a88ec	-0.16653794
138	0x3d861915	0.06547753
139	0x3d7df998	0.06200561
140	0xbe26c98e	-0.16287825
141	0xbc932928	-0.01796396
142	0x3d6aff9f	0.057372686
143	0x3e046515	0.12929185
144	0xbd745210	-0.059648573
145	0xbea152a2	-0.31508356
146	0x3d973017	0.07382219
147	0xbcfce006	-0.030868541
148	0x3df2a597	0.1184799
149	0xbda7a6cc	-0.08186111
150	0x3dceb4ce	0.100930795
151	0x3bc1fc93	0.005920002
152	0xbd0af2c8	-0.03392294
153	0x3e3cd242	0.18439582
154	0x3e530fe2	0.20611528
155	0xbdfcecad	-0.1234983
156	0x3e67e94d	0.22647591
157	0x3e1c8742	0.15285972
158	0x3cdee7d7	0.02721016
159	0x3d807387	0.06272035
160	0x3e00712d	0.12543173
161	0x3e34a027	0.17639218
162	0xbcd35502	-0.02579737
163	0xbe845900	-0.25849152
164	0xbe3bc2a6	-0.18335971
165	0x3acabda4	0.0015467894
166	0xbda485b6	-0.08033316
167	0x3e1f82b4	0.15577203
168	0x3e210fe1	0.15728714
169	0x3e67ed86	0.22649202
170	0x3e885443	0.26626787
171	0xbb6c1692	-0.0036024195
172	0x3e574343	0.21021752
173	0xbe2190ef	-0.15777944
174	0x3d927957	0.0715205
175	0xbdb4a5d3	-0.08820691
176	0x3d6f0d1b	0.058362108
177	0xbc34c271	-0.011032687
178	0x3dfeaadd	0.12434933
179	0xbde8b15a	-0.11361952
180	0xbeac37b3	-0.33636245
181	0xba01f8b7	-0.0004958021
182	0xbe4ec82b	-0.20193546
183	0xbdf7183e	-0.12065171
184	0x3e89104a	0.2677024
185	0x3daea43c	0.08527419
186	0xbd7475d9	-0.0596827
187	0x3e55381e	0.20822188
188	0x3c109980	0.00882566
189	0x3ddda5c7	0.10822635
190	0xbd959f7b	-0.07305809
191	0x3e302121	0.17200138
192	0x3e7bcd20	0.24589968
193	0x3e3dce22	0.18535665
194	0xbe720344	-0.23634058
195	0xbd93b0e7	-0.07211476
196	0x3e25cf63	0.16192393
197	0xbddc60aa	-0.10760625
198	0x3daa8b62	0.083273664
199	0xbc966815	-0.018360177
200	0x3cf93c10	0.030424148
201	0xbd56ebee	-0.052471094
202	0xbd8357a1	-0.06413198
203	0xbe3695db	-0.17830603
204	0x3c894502	0.016756538
205	0x3e25b8e1	0.16183807
206	0xbda8b728	-0.08238059
207	0xbe19a242	-0.15003303
208	0xbe0323e3	-0.12806658
209	0xbe53a262	-0.20667413
210	0x3dd3c216	0.10339753
211	0xbd89c3a1	-0.067267664
212	0x3e039e4c	0.12853354
213	0xbd3b64dc	-0.045750484
214	0x3d6f5f50	0.058440506
215	0xbd94d828	-0.07267791
216	0xbc824942	-0.015904073
217	0xbe38bf3d	-0.18041702
218	0xbd690be5	-0.05689611
219	0xbc5e6c7a	-0.0135756675
220	0x3d206ed7	0.039168205
221	0x3e5c9433	0.21540909
222	0x3d00297c	0.031289563
223	0xbe015a98	-0.12632215
224	0x3eabb6ed	0.33538
225	0x3ea0510a	0.31311828
226	0x3dc6e492	0.09711565
227	0x3cad7337	0.021173103
228	0x3dff8d3d	0.12478111
229	0x3d6a901c	0.05726634
230	0xbe2bdbb6	-0.16783032
231	0xbe27c907	-0.1638528
232	0x3de7cf4d	0.11318836
233	0xbd46a8d6	-0.04850086
234	0x3d85f74f	0.06541311
235	0x3dbaa63c	0.09113738
236	0x3d33f012	0.04393012
237	0x3d48fb7a	0.04906795
238	0xbe3df099	-0.18548812
239	0x3e07f259	0.13276042
240	0x3e4e811d	0.2016644
241	0x3e73165b	0.23738997
242	0x3c850741	0.01623881
243	0xbe3a512f	-0.18195032
244	0xbe220f80	-0.15826225
245	0xbbac032d	-0.005249402
246	0x3e0bfce9	0.13670696
247	0xbc6bcf66	-0.014392709
248	0xbde2a318	-0.11066264
249	0xbcbbe5a3	-0.022936648
250	0x3d4cb906	0.04998114
251	0xbda52dc2	-0.08065368
252	0x3e269f14	0.16271621
253	0xbe667346	-0.22504911
254	0xbe30c369	-0.17262043
255	0xbe8c7db1	-0.27439645

bneck.0.bn1.weight f4 [16]
0	0x3f35313d	0.70778257
1	0x3f313858	0.692266
2	0x3f6d948a	0.9280478
3	0x3f526a17	0.8219313
4	0x3f11fcba	0.57026255
5	0x3f22a19c	0.63527846
6	0x3f348207	0.70510906
7	0x3f6d9ba6	0.92815626
8	0x3f6668a2	0.90003407
9	0x3f0178fa	0.5057522
10	0x3f5e5d1c	0.86860824
11	0x3f7348e3	0.9503309
12	0x3f65c2ca	0.8975035
13	0x3f0ec7a1	0.5577336
14	0x3f650d0b	0.89473027
15	0x3f7201ab	0.94533795

bneck.0.bn1.bias f4 [16]
0	0x3e697e0f	0.22801994
1	0x3e51b76b	0.20480125
2	0xbd7da219	-0.061922166
3	0x3d8111ff	0.063022606
4	0x3e5dd6d3	0.2166398
5	0x3de72c4d	0.112877466
6	0x3dd16fe8	0.102264225
7	0xbc3544ad	-0.011063737
8	0x3cb90bb9	0.022588598
9	0x3e8f9657	0.28044388
10	0x3c5ded8a	0.013545403
11	0x3caa15c4	0.020762332
12	0xbd9daa83	-0.07698538
13	0x3e9cd7bc	0.30633342
14	0x3cb4ccb9	0.022070276
15	0xbd285b9f	-0.041103

bneck.0.bn1.running_mean f4 [16]
0	0xbde534eb	-0.11191734
1	0x3cc7d898	0.024395272
2	0x3db9c10e	0.090700254
3	0x3d7837f2	0.06060023
4	0xbe012da9	-0.12615074
5	0xbd0b22e8	-0.033968836
6	0xbdbab0ca	-0.09115751
7	0x3dd514f0	0.10404384
8	0x3cc1c147	0.023651732
9	0x3d842862	0.06453015
10	0x3dddfb3b	0.10838934
11	0x3ccb85e1	0.024844112
12	0xbc510a8b	-0.012758861
13	0xbd9cc8d7	-0.07655495
14	0x3e1f76f2	0.15572718
15	0xbd8ae358	-0.06781644

bneck.0.bn1.running_var f4 [16]
0	0x3d94cf39	0.07266087
1	0x3df35dd1	0.118831284
2	0x3dc830d4	0.09774938
3	0x3d985af3	0.07439222
4	0x3e2005f3	0.1562727
5	0x3dc85de4	0.09783533
6	0x3d54502b	0.051834267
7	0x3e234ebc	0.15948004
8	0x3e2018b0	0.15634418
9	0x3e9c178d	0.30486718
10	0x3d628496	0.055302225
11	0x3e0aad36	0.13542637
12	0x3dbe0fe7	0.09280377
13	0x3ce6112a	0.028084356
14	0x3dfc0150	0.12304938
15	0x3e43e04f	0.19128536

bneck.0.conv2.weight f4 [16, 1, 3, 3]
0	0xbdc6a54c	-0.096994966
1	0xbe6ea6fd	-0.23305888
2	0xbee44835	-0.4458634
3	0xbd95131c	-0.072790354
4	0xbd8eb326	-0.069677636
5	0x3d7c58a9	0.06160799
6	0x3d979f01	0.074033745
7	0x3e9d02b4	0.30666125
8	0xbe0388f6	-0.12845215
9	0xbd16b8d8	-0.036797374
10	0xbe90adf0	-0.28257704
11	0x3cde5aa9	0.02714284
12	0xbed378aa	-0.41302997
13	0xbedadeeb	-0.42748198
14	0x3dab4e1a	0.08364506
15	0x3de1f967	0.11033898
16	0xbdf89ea2	-0.12139632
17	0x3dbe5a2b	0.09294542
18	0x3dea9ad9	0.11455316
19	0xbdc7e3f5	-0.09760276
20	0xbd902d76	-0.07039921
21	0xbed56d4d	-0.41684952
22	0xbf16f91a	-0.5897385
23	0xbe269ac3	-0.16269974
24	0xbe98041c	-0.29690635
25	0xbf0f42fb	-0.5596158
26	0xbe960e9c	-0.2930802
27	0x3bb6e67f	0.0055816765
28	0xbe652352	-0.22376755
29	0xbe1a7d7e	-0.15086934
30	0xbeb9dea9	-0.3630269
31	0xbe963540	-0.29337502
32	0xbe3ecb0a	-0.18632141
33	0xbe20ffe3	-0.15722613
34	0xbcb5685d	-0.02214449
35	0x3c230b09	0.009951361
36	0x3ed0a4e6	0.40750808
37	0x3e96af84	0.29430783
38	0x3e3f591d	0.18686338
39	0x3dadeb58	0.08492154
40	0xbe267657	-0.1625608
41	0x3e917cc6	0.28415507
42	0x3e327561	0.17427589
43	0x3e7f2e59	0.24920024
44	0xbd34e9ed	-0.0441684
45	0x3e253239	0.1613244
46	0xbd6f73eb	-0.058460157
47	0x3d6c66ef	0.057715353
48	0xbd595718	-0.053061575
49	0x3e656668	0.22402346
50	0x3d08a4a9	0.033360157
51	0xbe11b0fa	-0.14227667
52	0xbebce017	-0.36889717
53	0x3d82e8ec	0.063920826
54	0x3e31a63e	0.17348573
55	0x3e4de9f0	0.20108771
56	0xbc1cfe6e	-0.009582145
57	0x3d5f09ee	0.05445283
58	0x3e7cc064	0.24682766
59	0x3eaafa31	0.33394006
60	0xbe1a7bbe	-0.15086266
61	0x3c25e2dc	0.010124888
62	0x3e915114	0.2838217
63	0x3e4189b2	0.18900183
64	0x3dd2effd	0.102996804
65	0x3b343d96	0.0027502528
66	0x3e45e3f6	0.19325241
67	0x3e60c6ce	0.21950838
68	0x3e2c0b3e	0.16801164
69	0x3df236b7	0.11826842
70	0x3e3b8b76	0.18314919
71	0xbdc7328e	-0.097264394
72	0x3d8d1320	0.068884134
73	0xbe9b5d64	-0.3034469
74	0xbebc1103	-0.3673173
75	0x3e0af1e0	0.1356883
76	0x3e5b802f	0.21435617
77	0xbe79f18f	-0.24408554
78	0x3ea89e98	0.32933497
79	0xbd63739e	-0.055530183
80	0x3e541ead	0.20714827
81	0x3e8188b8	0.2529962
82	0x3e80b0ad	0.25134793
83	0xbe89ebfb	-0.2693785
84	0x3e81953f	0.25309178
85	0x3dd7f3c8	0.105445445
86	0x3d87c381	0.06629086
87	0xbe9d4cdc	-0.30722702
88	0xbc56f49b	-0.013119842
89	0xbe972dab	-0.2952703
90	0x3dab15bf	0.08353757
91	0x3e7029d5	0.23453458
92	0x3e21999b	0.15781252
93	0x3ec39805	0.3820192
94	0x3e7ed54f	0.24886058
95	0x3ddbdb39	0.10735173
96	0x3e56d202	0.20978549
97	0xbe6c8856	-0.23098883
98	0x3d6066f2	0.054785676
99	0xbe1546b1	-0.14577748
100	0xbeeb3342	-0.45937544
101	0xbe19c52a	-0.15016618
102	0xbe824a90	-0.25447512
103	0xbed7786b	-0.4208406
104	0xbda00713	-0.07813849
105	0xbd9af780	-0.07566738
106	0xbe00417a	-0.12524977
107	0x3d620e93	0.05518968
108	0x3e044558	0.12917078
109	0xbd3c76e7	-0.04601183
110	0x3e2686f1	0.16262414
111	0x3e359e31	0.17736126
112	0x3ece53f3	0.40298423
113	0x3d875e95	0.06609837
114	0x3e9b5fdd	0.30346575
115	0x3f09d789	0.53844506
116	0xbd4d6e49	-0.050154004
117	0x3e828d9b	0.2549866
118	0xbdd3f6e4	-0.10349825
119	0xbe4890e2	-0.19586518
120	0x3e004697	0.12526928
121	0xbda4f564	-0.08054617
122	0xbec6e08b	-0.38843188
123	0x3e6e7faf	0.23290895
124	0x3d155d4f	0.03646594
125	0xba9d9046	-0.0012021146
126	0x3e197581	0.1498623
127	0xbd983cc1	-0.07433463
128	0x3e4d5d2b	0.20055072
129	0x3df65cc1	0.1202941
130	0x3e7ad8ce	0.24496767
131	0x3e330733	0.17483215
132	0xbd539d91	-0.05166394
133	0x3c035cb2	0.008017706
134	0x3d44c83a	0.048042513
135	0x3dcd3183	0.10019209
136	0x3de7fef5	0.11327926
137	0xbd111d82	-0.03542853
138	0x3e197114	0.14984542
139	0x3d50bd51	0.050961796
140	0x3d1b58da	0.037926532
141	0xbed4b235	-0.4154221
142	0xbd43820a	-0.047731437
143	0x3e4b0bc6	0.1982871

bneck.0.bn2.weight f4 [16]
0	0x3f6917df	0.9105205
1	0x3f80af50	1.0053501
2	0x3f8abe8d	1.0839401
3	0x3f8b70f3	1.0893844
4	0x3f703a90	0.9383936
5	0x3f5fc4fe	0.8740996
6	0x3f70f505	0.9412387
7	0x3f83c43c	1.0294261
8	0x3f64d605	0.8938907
9	0x3f6c357e	0.9226912
10	0x3f79fe9e	0.9765414
11	0x3f95030c	1.1641555
12	0x3f8a7aeb	1.0818762
13	0x3f6c6f41	0.9235726
14	0x3f80f3d9	1.0074416
15	0x3f82c704	1.0216985

bneck.0.bn2.bias f4 [16]
0	0x3da2cc1d	0.07949088
1	0x3d8c0202	0.068363205
2	0x3e933261	0.28749374
3	0x3d89d76f	0.06730544
4	0xbc1a46cb	-0.009416292
5	0x3cd81820	0.026378691
6	0xbd0515e0	-0.032491565
7	0x3db49d2b	0.0881904
8	0x3e320684	0.17385298
9	0x3e58383f	0.21115206
10	0x3cb81a5f	0.022473512
11	0x3ce715a1	0.028208556
12	0x3e2c8971	0.16849305
13	0x3d801524	0.06254032
14	0x3825131f	3.9356873e-05
15	0x3c2be3e8	0.010491349

bneck.0.bn2.running_mean f4 [16]
0	0xbe57971c	-0.21053737
1	0xbeace2d0	-0.33766794
2	0xbef75bdd	-0.48312274
3	0xbeaa34b7	-0.33243343
4	0x3f03d674	0.51499104
5	0xbce59e2e	-0.028029528
6	0x3eb6a031	0.3566909
7	0x3eab4fe4	0.3345939
8	0xbc128567	-0.008942938
9	0x3c2d4028	0.010574378
10	0x3ec15a34	0.37764132
11	0xbecf127b	-0.40443787
12	0x3ea9ffd5	0.33202997
13	0xbd654bec	-0.055980608
14	0x3ea19274	0.31557047
15	0x3cfd798a	0.030941743

bneck.0.bn2.running_var f4 [16]
0	0x3d411cca	0.047146596
1	0x3e7369ce	0.2377083
2	0x3fd48b26	1.6604965
3	0x3ea6e197	0.32593986
4	0x3e937c25	0.28805652
5	0x3cbe9274	0.023263194
6	0x3dfed1f4	0.12442389
7	0x3ea5a316	0.32350987
8	0x3d346918	0.044045538
9	0x3c2cf228	0.010555781
10	0x3eb940be	0.36182207
11	0x3f16debf	0.58933634
12	0x3e6cc818	0.23123205
13	0x3d364e6d	0.044508386
14	0x3e2ad622	0.16683248
15	0x3c8adafb	0.016950121

bneck.0.conv3.weight f4 [16, 16, 1, 1]
0	0xbe420696	-0.18947825
1	0x3e390e62	0.18071893
2	0x3e4bfb74	0.1992014
3	0xbe45b542	-0.19307426
4	0xbde0fb5c	-0.10985443
5	0xbd85e969	-0.0653866
6	0xbe4abb42	-0.19797996
7	0x3e15e310	0.14637399
8	0xbe1959c0	-0.14975643
9	0xbe328417	-0.17433201
10	0xbdf0cce3	-0.11757829
11	0x3affcf46	0.0019516728
12	0x3e2f4ac3	0.17118363
13	0x3e6e8aea	0.23295179
14	0x3a427e31	0.00074193167
15	0x3d2e1aec	0.042506143
16	0xbcb69f2f	-0.022292702
17	0xbdcc4721	-0.09974504
18	0xbd2ab98a	-0.04168085
19	0xbe1a3846	-0.15060529
20	0xbdf31fb5	-0.11871282
21	0x3e56d8b6	0.20981106
22	0xbd5297f0	-0.05141443
23	0xbe569382	-0.20954707
24	0x3e076e3e	0.13225648
25	0x3d0fa253	0.035066914
26	0x3e177773	0.1479166
27	0x3e844c96	0.2583968
28	0xbd72be9a	-0.059263803
29	0xbd32b85d	-0.043632854
30	0x3e7a5be4	0.24449116
31	0x3e2ec9a8	0.17069113
32	0x3e260206	0.1621171
33	0x3da45825	0.08024625
34	0x3cf45d0c	0.029829524
35	0xbc561723	-0.01306704
36	0xbe1f81b7	-0.15576826
37	0xbdc873d8	-0.097877204
38	0x3da99c02	0.08281709
39	0xbc1e139c	-0.00964823
40	0xbdf99d71	-0.12188233
41	0xbdadb644	-0.0848203
42	0x3e2465fd	0.1605453
43	0xbe38b217	-0.18036686
44	0x3c8c9e9c	0.017165475
45	0x3e07e712	0.1327174
46	0xbc904eed	-0.01761576
47	0xbe96ef18	-0.2947929
48	0xbdfd0ddd	-0.1235616
49	0x3e12697f	0.14298056
50	0x3e2d99b0	0.16953158
51	0x3e883c91	0.26608709
52	0x3e55a6b5	0.20864375
53	0x3dfdfb7e	0.12401484
54	0x3e134a26	0.14383754
55	0xbcb21043	-0.02173627
56	0x3cd3ae74	0.025840022
57	0x3df6b62e	0.12046467
58	0xbe21ac21	-0.15788318
59	0x3eb4416b	0.3520616
60	0xbce04eb2	-0.027381275
61	0xbcc2ef90	-0.023795873
62	0x3c19ac9d	0.009379533
63	0xbd9eaf36	-0.077482626
64	0xbdfb7a69	-0.12279207
65	0xbde9c3dc	-0.1141431
66	0xbeb89217	-0.36048958
67	0xbe9e1f99	-0.30883482
68	0xbdbd03b3	-0.09229221
69	0x3d65b8a9	0.05608431
70	0x3d02fedc	0.031981334
71	0xbe304eea	-0.17217603
72	0xbe2ed376	-0.17072853
73	0xbd2eec36	-0.042705737
74	0x3cc96495	0.024584094
75	0xbd2cdbd8	-0.042201847
76	0x3d9f78fb	0.07786747
77	0x3e37bcc4	0.17943102
78	0x3d14bfa3	0.03631557
79	0x3e4a02bf	0.1972761
80	0x3e6fb133	0.2340744
81	0xbba8c168	-0.005150009
82	0xbd063608	-0.032766372
83	0xbd9e3695	-0.077252544
84	0x3e6c77d1	0.23092581
85	0xbd90e197	-0.07074278
86	0xbe102cfa	-0.14079657
87	0x3e7fac4b	0.24968068
88	0xbc54538d	-0.012959373
89	0xbd831b7e	-0.06401728
90	0xbd5f9a4e	-0.054590516
91	0xbdc9b2a6	-0.098485276
92	0xbe90a2ca	-0.28249198
93	0x3d274dbb	0.040845614
94	0xbe30f1fd	-0.17279811
95	0x3e14de1d	0.14537854
96	0xbda19944	-0.07890561
97	0x3d115139	0.03547785
98	0xbe452c0a	-0.19255081
99	0x3e68a169	0.22717823
100	0x3e0b468f	0.13601135
101	0x3cb027be	0.021503326
102	0x3cccdc3d	0.025007362
103	0xbd1d669b	-0.03842793
104	0xbc4460c3	-0.01198596
105	0xbe41c3fd	-0.1892242
106	0x3d3e61c2	0.046479948
107	0xbe63211a	-0.22180596
108	0xbdbd05f1	-0.09229649
109	0xbe16b2c3	-0.1471663
110	0x3df25548	0.11832672
111	0xbdd2d851	-0.10295165
112	0xbe22fbbe	-0.15916345
113	0xbdfa1727	-0.12211447
114	0xbcbaf31f	-0.022821007
115	0x3e6ae38c	0.22938365
116	0x3d48d4be	0.04903101
117	0x3e2413bb	0.16023152
118	0x3e0516ab	0.12996928
119	0x3e8292ef	0.25502726
120	0x3e86df09	0.26342037
121	0x3e78b077	0.24286066
122	0x3deb910f	0.11502277
123	0xbdbe0ce9	-0.09279806
124	0x3e6a3de6	0.22875175
125	0x3d0dd4b4	0.034626678
126	0x3dca7200	0.09885025
127	0x3e180240	0.14844608
128	0xbe482aed	-0.19547625
129	0x3cccf958	0.02502124
130	0xbe869d0f	-0.262917
131	0x3d62e99a	0.05539856
132	0x3e864c5e	0.2623014
133	0xbdab9760	-0.08378482
134	0xbe509bf1	-0.20371987
135	0x3de4c8c3	0.11171105
136	0xbdda9857	-0.10673588
137	0x3df162a6	0.11786394
138	0xbe0a89e7	-0.13529168
139	0xbd8602d0	-0.06543505
140	0x3e457e1a	0.19286385
141	0x3c074c29	0.008257904
142	0x3dafee47	0.0859037
143	0xbd6d143c	-0.057880625
144	0xbdabfee1	-0.08398224
145	0x3e966f71	0.29381898
146	0x3e9288bd	0.28619948
147	0x3d52d8f9	0.051476452
148	0x3e024a08	0.12723553
149	0xbdd57103	-0.10421946
150	0xbd05c206	-0.03265574
151	0xbcc0285c	-0.023456745
152	0xbe4110f4	-0.18854123
153	0x3d530de4	0.05152692
154	0x3d88c0b5	0.06677381
155	0x3e781416	0.24226412
156	0x3e76cfc2	0.24102691
157	0xbdd11767	-0.10209542
158	0xbda55fb0	-0.080748916
159	0x3c421573	0.011845934
160	0x3e2e7c4b	0.17039602
161	0xbe4533d5	-0.19258054
162	0x3d87f2a0	0.06638074
163	0xbe23f244	-0.16010386
164	0x3d93812c	0.07202372
165	0xbdcf109c	-0.1011059
166	0xbd6c2a08	-0.05765727
167	0x3d9c7f46	0.07641463
168	0xbe5af1dd	-0.21381326
169	0x3dee6825	0.11640958
170	0x3d6641ff	0.056215283
171	0x3ccae551	0.02476755
172	0xbeac392b	-0.33637366
173	0xbe82cc19	-0.2554634
174	0xbe411c1a	-0.18858376
175	0xbdb9477e	-0.09046839
176	0x3e1dec5e	0.15422198
177	0xbdd416b0	-0.1035589
178	0x3c1d4bf7	0.009600631
179	0xbe66a693	-0.2252448
180	0xbdcb90c1	-0.09939719
181	0x3c88ae21	0.016684594
182	0xbb0fe18b	-0.0021954502
183	0xbdc6a9f3	-0.09700384
184	0x3e65b007	0.2243043
185	0xbe3b6cc2	-0.18303207
186	0xbe828b96	-0.2549712
187	0xbe6fe4d3	-0.23427133
188	0xbe2592c8	-0.16169274
189	0x3e7abdf3	0.24486522
190	0x3e4e89b7	0.20169722
191	0x3e0ccbbf	0.13749598
192	0x3eba1031	0.36340478
193	0x3db0e719	0.086378284
194	0xbcfe3de6	-0.031035375
195	0xbddb6f5b	-0.10714599
196	0xbc719c8a	-0.0147467945
197	0x3e6264c1	0.22108747
198	0xbe0de809	-0.13858046
199	0x3d95ec17	0.07320421
200	0x3ddd399f	0.10802006
201	0x3e31e534	0.1737259
202	0xbe95a995	-0.29230943
203	0xbe3469f8	-0.17618549
204	0x3e52c2f6	0.20582184
205	0xbd86de18	-0.0658533
206	0xbe0eeb7b	-0.13957016
207	0x3cb8f9a4	0.022579975
208	0x3c65fc30	0.014037177
209	0xbda3e829	-0.080032654
210	0x3e1d8ee6	0.15386543
211	0xbe07a07e	-0.13244817
212	0x3d340a74	0.04395528
213	0xbde92406	-0.11383824
214	0xbe384de2	-0.1799846
215	0xbe00ed5a	-0.12590542
216	0xbe2976ad	-0.16549177
217	0xbd403390	-0.046924174
218	0xbdbd218f	-0.092349164
219	0xbe11a23d	-0.14222045
220	0x3c0e432b	0.008683006
221	0x3df6b3a1	0.1204598
222	0x3da01d21	0.07818056
223	0x3e680a56	0.22660193
224	0x3d77ae65	0.06046905
225	0xbdd3a0d7	-0.10333412
226	0x3da8ccfa	0.08242221
227	0x3db0f5d6	0.086406395
228	0xbd8134cc	-0.06308898
229	0x3e155b69	0.14585651
230	0xbdc1c488	-0.094613135
231	0xbe18ef84	-0.14935118
232	0x3df60887	0.12013345
233	0xbe317440	-0.17329502
234	0xbe6ead3a	-0.23308268
235	0x3e737693	0.23775701
236	0xbd4380c7	-0.047730234
237	0x3e1d2555	0.15346272
238	0x3e817ea7	0.2529194
239	0xbe5b7e99	-0.21435012
240	0xbe14ffcc	-0.14550704
241	0x3e7efb31	0.2490051
242	0x3d52f2c1	0.05150104
243	0xbe8ae949	-0.27131107
244	0x3e74811b	0.23877375
245	0x3ddb0e80	0.10696125
246	0xbe45df05	-0.19323356
247	0xbe8b0228	-0.27150083
248	0xbd5d5acf	-0.05404168
249	0xbd162d73	-0.036664438
250	0x3d0ca204	0.034334198
251	0x3cbf91d9	0.023384975
252	0x3e5ffe7d	0.21874423
253	0x3cb525e4	0.022112794
254	0xbb4832bf	-0.0030547825
255	0x3c35adde	0.011088816

bneck.0.bn3.weight f4 [16]
0	0x3f74022c	0.95315814
1	0x3f654b2b	0.8956782
2	0x3f80bc08	1.0057383
3	0x3f827325	1.0191389
4	0x3f8573a7	1.0425919
5	0x3f856922	1.0422709
6	0x3f811045	1.008309
7	0x3f83db57	1.0301312
8	0x3f8b2912	1.0871909
9	0x3f8bf5db	1.0934404
10	0x3f7c58d7	0.9857306
11	0x3f6faf91	0.9362727
12	0x3f8b35b5	1.0875765
13	0x3f732ec2	0.9499322
14	0x3f78952a	0.97102606
15	0x3f731547	0.9495434

bneck.0.bn3.bias f4 [16]
0	0xbd01b79f	-0.031669255
1	0xbd07425c	-0.03302227
2	0xbe383cc2	-0.17991927
3	0xbd4a357e	-0.04936742
4	0x3e4c7ef2	0.19970301
5	0x3ba6c6be	0.00508961
6	0x3d414405	0.04718401
7	0x3d4b747a	0.049671628
8	0xbda11feb	-0.07867416
9	0x3d5d5e3f	0.05404496
10	0x3d8ed82c	0.06974825
11	0x3e23cda2	0.15996411
12	0x3e4691b6	0.19391522
13	0xbd9cea91	-0.076619275
14	0xbd293416	-0.04130944
15	0x3c17ff6c	0.009277206

bneck.0.bn3.running_mean f4 [16]
0	0xbda16e8c	-0.07882413
1	0x3de9fe2f	0.11425435
2	0xbda47a6d	-0.08031163
3	0x3ee261c6	0.4421522
4	0xbec926d1	-0.39287427
5	0xbd6a4d72	-0.057202764
6	0xbe3b95b1	-0.18318821
7	0x3f0add38	0.54243803
8	0xbde3e231	-0.11127127
9	0x3eb634f0	0.35587263
10	0xbea9cbfd	-0.33163443
11	0xbe2aa6e1	-0.16665222
12	0x3db68ad7	0.089132
13	0xbe0f2884	-0.13980299
14	0x3ce603cf	0.028077988
15	0xbba9803b	-0.005172757

bneck.0.bn3.running_var f4 [16]
0	0x3de07ebe	0.10961674
1	0x3dcdfabd	0.1005759
2	0x3d8fc02e	0.07019077
3	0x3dd50b78	0.10402578
4	0x3dc02294	0.09381595
5	0x3e0f832c	0.14014882
6	0x3d9312f3	0.07181349
7	0x3e8f64bc	0.28006542
8	0x3d907130	0.07052839
9	0x3e29bfe3	0.16577105
10	0x3e5e3324	0.21699196
11	0x3e895ed6	0.26830167
12	0x3e8dd059	0.2769802
13	0x3da800fc	0.08203313
14	0x3e571e6f	0.21007703
15	0x3e400478	0.18751705

bneck.1.conv1.weight f4 [72, 16, 1, 1]
0	0xbe3bcc5f	-0.1833968
1	0x3df0f8f2	0.117662326
2	0x3d13eace	0.0361126
3	0xbe444b22	-0.19169286
4	0x3dd2714b	0.10275515
5	0xbe384d7b	-0.17998306
6	0x3e6f4f50	0.23370099
7	0x3e110a21	0.1416402
8	0x3e49b15f	0.19696568
9	0xbc6e967a	-0.014562244
10	0xbcd30996	-0.025761407
11	0x3e2a8b4c	0.166547
12	0x3a06544e	0.0005124257
13	0xbe3188f2	-0.17337397
14	0xbdcd1a10	-0.10014737
15	0xbc5fbce6	-0.013655877
16	0xbca8a24c	-0.020585202
17	0xbda07931	-0.078356154
18	0x3e0d8175	0.13818915
19	0xbe2a0f14	-0.16607314
20	0xbe139b7f	-0.14414786
21	0x3e442e32	0.19158247
22	0x3d876340	0.06610727
23	0xbe56904d	-0.20953484
24	0x3e45ea16	0.19327578
25	0xbe9db4fe	-0.3080215
26	0x3df60a8f	0.12013733
27	0x3cf3637d	0.029710526
28	0x3df1372b	0.117781006
29	0x3deaf1d8	0.11471909
30	0xbe5be2fb	-0.21473305
31	0x3e13b744	0.14425379
32	0xbda2a63c	-0.07941863
33	0xbe461434	-0.19343644
34	0x3cf7703d	0.030204887
35	0x3a7011f2	0.00091579475
36	0xbd07249e	-0.032993905
37	0xbe7ec8ce	-0.24881288
38	0x3d60146d	0.05470698
39	0xbea85049	-0.32873753
40	0xbdaaaf03	-0.08334162
41	0x3db1c7d8	0.08680695
42	0x3e913bf6	0.2836606
43	0x3dd1a0a8	0.10235721
44	0xbd0aa8c7	-0.033852365
45	0xbe074100	-0.1320839
46	0xbdd51f7f	-0.10406398
47	0x3ca7882e	0.020450678
48	0xbe6aa6be	-0.2291517
49	0xbe52b121	-0.20575382
50	0xbdadeb1b	-0.084921084
51	0xbeb046c7	-0.34429
52	0x3deb0660	0.11475825
53	0x3e55eda2	0.20891431
54	0x3e2ccb7d	0.168745
55	0xbe0d0670	-0.13771987
56	0x3e82a24c	0.25514448
57	0x3e2d2e91	0.16912295
58	0x3dcda7ca	0.10041769
59	0x3d234163	0.03985728
60	0x3e21fc4e	0.15818903
61	0x3e3344ca	0.1750671
62	0xbc491120	-0.012272149
63	0xbd45f712	-0.048331328
64	0x3e422a4d	0.18961449
65	0xbdd4d7a1	-0.103926904
66	0xbde3d704	-0.11124995
67	0x3df927cb	0.12165793
68	0x3cfa26dc	0.030536108
69	0x3df628e8	0.12019521
70	0xbe77b850	-0.24191403
71	0x3a2da65a	0.00066242146
72	0xbe0bdf3f	-0.1365938
73	0x3e3f1887	0.186617
74	0xbd4a1360	-0.049334884
75	0x3caa4517	0.020784898
76	0x3e863b24	0.26216996
77	0xbdc0ec14	-0.09420028
78	0x3e13533c	0.1438722
79	0x3e243d70	0.16039062
80	0xbe848f5b	-0.25890622
81	0xbe12ed3b	-0.14348309
82	0x3e24a3a5	0.1607805
83	0xbe070820	-0.13186693
84	0xbe96897f	-0.29401776
85	0x3c9b78a0	0.018978417
86	0xbd0eac35	-0.0348322
87	0xbe3b3559	-0.1828207
88	0x3d87f71d	0.0663893
89	0x3e33959a	0.17537537
90	0x3e98ee1f	0.29869172
91	0x3ddb2761	0.1070087
92	0xbe22134f	-0.15827678
93	0x3e00f75d	0.12594362
94	0x3e284efc	0.1643638
95	0x3da2127a	0.079136804
96	0x3c8a9a64	0.016919322
97	0x3dbf4784	0.093398124
98	0xbc05edaa	-0.008174339
99	0xbe39c73e	-0.18142411
100	0x3e879db6	0.2648751
101	0x3e152f3b	0.14568798
102	0x3e6bc3b9	0.23023881
103	0xbe298d95	-0.16557916
104	0xbddfa36b	-0.109198414
105	0xbdb0bda7	-0.08629923
106	0x3c87c912	0.01657537
107	0x3dc11b94	0.09429088
108	0xbe039a8e	-0.12851927
109	0x3e17d723	0.14828162
110	0xbd9fac5a	-0.07796545
111	0x3e248077	0.1606463
112	0x3e14db4b	0.14536779
113	0xbe1de7aa	-0.15420404
114	0xbdcdaff2	-0.100433245
115	0xbd24bbc2	-0.040218122
116	0x3d1afd3e	0.037839167
117	0x3d5079a7	0.050897267
118	0xbc817cf4	-0.015806653
119	0xbcdafb96	-0.026731294
120	0xbebd123c	-0.36927974
121	0xbd2e1880	-0.042503834
122	0x3e928ef9	0.28624704
123	0xbe847c08	-0.25875878
124	0xbe0631e4	-0.1310497
125	0xbe56f411	-0.20991541
126	0xbda07279	-0.07834334
127	0x3d9a3ca3	0.07531097
128	0xbd5cc234	-0.053896144
129	0xbc760bac	-0.015017431
130	0xbdcaebcc	-0.09908256
131	0xbe45aaf5	-0.19303496
132	0x3e749efb	0.23888771
133	0x3e5edc60	0.21763754
134	0x3e0cfef9	0.1376914
135	0x3d38ccef	0.045117315
136	0x3d772f8f	0.06034809
137	0xbe46d90b	-0.19418733
138	0xbce068bd	-0.027393693
139	0xbca2fe55	-0.019896666
140	0xbda3c52c	-0.07996592
141	0x3d14cc66	0.036327742
142	0x3e1e81d3	0.15479212
143	0x3e019cb3	0.12657432
144	0x3e0aa0c3	0.13537888
145	0xbe37c3e8	-0.17945826
146	0xbd3c6a26	-0.04599967
147	0x3e08cc2b	0.13359134
148	0xbe0b576b	-0.13607566
149	0xbe0209de	-0.12699077
150	0x3dd73ad0	0.105092645
151	0xbe75024f	-0.23926662
152	0xbe05466a	-0.13015142
153	0xbe5c1a52	-0.21494415
154	0x3e3181f4	0.1733473
155	0xbb918bb1	-0.0044417013
156	0xbe45e4a1	-0.19325496
157	0xbce83969	-0.028347688
158	0xbc71f2da	-0.014767373
159	0x3bc792c0	0.006090492
160	0xbdff6cf1	-0.12471951
161	0xbe1aa15f	-0.1510062
162	0x3e052b77	0.13004862
163	0x3e207a35	0.15671618
164	0x3df83034	0.12118569
165	0x3e382bd1	0.17985465
166	0x3b66b413	0.0035202547
167	0x3dd75929	0.10515053
168	0xbe871b77	-0.26388142
169	0xbe8486c9	-0.25884083
170	0xbc33a50a	-0.010964641
171	0x3e070e57	0.13189064
172	0xbe157369	-0.14594807
173	0x3df920f2	0.12164487
174	0x3c420d24	0.011843953
175	0x3b277775	0.002555338
176	0x3d55a617	0.05216035
177	0x3cc05eb7	0.023482664
178	0xbdf8763c	-0.121319264
179	0xbe003e02	-0.12523654
180	0x3da9b7ad	0.082869865
181	0xbca5087d	-0.02014565
182	0xbe3e4716	-0.18581805
183	0xbdbeda76	-0.09319012
184	0x3e702c8e	0.23454496
185	0xbe958695	-0.2920424
186	0x3d31fc27	0.04345336
187	0x3e455acb	0.19272916
188	0x3e95b752	0.29241425
189	0xbcca8ee3	-0.024726337
190	0xbdb5ea0c	-0.088825315
191	0xbdcca887	-0.099930815
192	0xbd645dc3	-0.05575348
193	0xbdd81e72	-0.10552682
194	0x3dbbfbfc	0.091789216
195	0xbe80f545	-0.25187126
196	0x3dfa5c5e	0.12224649
197	0x3be0b74b	0.0068577877
198	0xbe5393cd	-0.2066185
199	0xbd8a24b4	-0.06745282
200	0xbe0f7a33	-0.14011459
201	0x3d2794ec	0.040913507
202	0x3d74dca1	0.05978072
203	0xbe1f5c88	-0.15562642
204	0xbd6d70df	-0.05796897
205	0xbb8d9db1	-0.004321777
206	0xbddde6e7	-0.10835057
207	0x3e3c8a27	0.18412076
208	0x3ded37ad	0.11582885
209	0x3e08c776	0.13357338
210	0xbe6c6674	-0.23085958
211	0xbe4e102a	-0.20123354
212	0x3ea3465e	0.31889623
213	0xbe12486a	-0.14285436
214	0x3e3b4efa	0.18291846
215	0x3e343633	0.175988
216	0xbe22cb50	-0.1589787
217	0xbd2e9f05	-0.04263212
218	0xbe386a68	-0.18009341
219	0xbd878a31	-0.06618155
220	0xbd998cf8	-0.07497591
221	0xbd422358	-0.047396988
222	0x3e1ff5b5	0.15621074
223	0xbb0f5e23	-0.0021876178
224	0x3dcc698e	0.099810705
225	0x3e19e4a1	0.15028621
226	0xbd3df2ca	-0.04637412
227	0xbe78d752	-0.24300888
228	0x3d6a188c	0.057152316
229	0xbd12e700	-0.03586483
230	0xbe471630	-0.19442058
231	0x3e546c86	0.20744523
232	0xbd59f651	-0.05321342
233	0x3d1bac6a	0.038006224
234	0x3d8035a2	0.0626023
235	0x3e63d5fb	0.22249596
236	0xbce68236	-0.028138261
237	0x3d720452	0.05908615
238	0xbdcfcafa	-0.101461366
239	0x3e5a3314	0.21308547
240	0xbceeddf4	-0.02915857
241	0xbe2a4921	-0.16629459
242	0x3e351eb1	0.17687489
243	0xbca38c65	-0.019964406
244	0xbc9fc450	-0.019502789
245	0x3e08ec6d	0.1337144
246	0xbd39af3f	-0.045333143
247	0x3e2f24f9	0.17103948
248	0xbdf6444e	-0.12024747
249	0xbcf23a2e	-0.029568758
250	0xbd940810	-0.072281
251	0xbe97b537	-0.29630443
252	0xbe11f461	-0.1425338
253	0x3da46061	0.08026195
254	0xbe563e97	-0.20922314
255	0xbd7e07b8	-0.06201908

bneck.1.bn1.weight f4 [72]
0	0x3f421a13	0.75821036
1	0x3ee80b88	0.45321298
2	0x3f60db17	0.87834305
3	0x3f4929ee	0.78579605
4	0x3f24ecd5	0.64423877
5	0x3f3a9497	0.7288298
6	0x3f308d71	0.6896582
7	0x3f4df492	0.8045131
8	0x3f11c1fe	0.56936634
9	0x3f4dc9a7	0.8038582
10	0x3f4339bb	0.76259965
11	0x3f0f66d8	0.560163
12	0x3f41b005	0.7565921
13	0x3f52762f	0.82211584
14	0x3f5586a2	0.8340856
15	0x3f441771	0.7659827
16	0x3f11083c	0.5665319
17	0x3f3967d6	0.72424066
18	0x3f32b452	0.69806397
19	0x3f468382	0.77544415
20	0x3f08ac76	0.53388155
21	0x3f448846	0.76770437
22	0x3f5f82cf	0.87308973
23	0x3f6b0301	0.9180146
24	0x3ee92710	0.45537615
25	0x3ef7e403	0.48416147
26	0x3f557e45	0.83395797
27	0x3f25248f	0.6450891
28	0x3f4d40ba	0.8017689
29	0x3f6a29cd	0.9147003
30	0x3f38e604	0.72225976
31	0x3f477d11	0.7792521
32	0x3f552236	0.83255327
33	0x3f1f0497	0.6211638
34	0x3f20a6fc	0.627548
35	0x3f35c49e	0.7100314
36	0x3f4c9359	0.79912335
37	0x3f36a265	0.71341544
38	0x3ecdc77b	0.40191254
39	0x3f404bb5	0.7511552
40	0x3f3d3e41	0.73923117
41	0x3f542c5a	0.82880175
42	0x3f291ec9	0.660626
43	0x3f674ed5	0.90354663
44	0x3f2bf0ed	0.671645
45	0x3f39637e	0.7241744
46	0x3f40985c	0.7523248
47	0x3f034317	0.51274246
48	0x3f3fe50f	0.7495889
49	0x3f287cc7	0.65815395
50	0x3f3b614e	0.7319535
51	0x3f4b3794	0.7938168
52	0x3f4ccb8a	0.79998076
53	0x3f2e69f1	0.68130404
54	0x3ee561a3	0.44801053
55	0x3f43a755	0.76427203
56	0x3f27c612	0.65536606
57	0x3f3afd49	0.7304273
58	0x3f5b39b9	0.8563495
59	0x3f4487c8	0.76769686
60	0x3f435d32	0.7631408
61	0x3f388cc7	0.7208981
62	0x3f5c18b2	0.8597518
63	0x3f3270b7	0.6970324
64	0x3f49106c	0.7854068
65	0x3f239430	0.6389799
66	0x3f429e0d	0.76022416
67	0x3f584590	0.84481144
68	0x3f2ff0e8	0.6872697
69	0x3f34f64d	0.70688325
70	0x3f1f1869	0.6214662
71	0x3f07ff61	0.5312405

bneck.1.bn1.bias f4 [72]
0	0x3c319fdf	0.010841339
1	0x3ea1cb90	0.31600618
2	0xbb3d0653	-0.002884288
3	0x3c5dd3ab	0.013539235
4	0x3e18aa7d	0.14908786
5	0x3e06a10d	0.13147373
6	0x3dca4f33	0.09878387
7	0xbc9443fb	-0.018098822
8	0x3e92549f	0.28580186
9	0x3dfcff17	0.12353342
10	0x3dc75793	0.097335
11	0x3e4207bd	0.18948264
12	0x3d006ac6	0.031351827
13	0x3dccfe66	0.1000946
14	0x3d6f80f2	0.05847258
15	0x3d3bf28e	0.045885615
16	0x3e56137d	0.20905872
17	0xbd469e6e	-0.048490934
18	0x3e69c111	0.22827555
19	0x3df45350	0.11929953
20	0xbe550114	-0.20801193
21	0x3e2a2c99	0.16618575
22	0x3caf1474	0.021372057
23	0xbd1952b6	-0.037432395
24	0x3e5314b3	0.20613365
25	0x3e4da280	0.2008152
26	0x3d9636fc	0.07334706
27	0x3dc4c8e3	0.096086286
28	0x3d12794a	0.0357602
29	0x3a57791e	0.0008219647
30	0x3d10c60c	0.035345122
31	0x3dcd2d8a	0.100184515
32	0x3c5224c6	0.01282615
33	0x3e3c2792	0.1837447
34	0x3d982d01	0.07430459
35	0xbca77647	-0.020442141
36	0x3d866bb9	0.06563515
37	0xbc0f20a4	-0.0087358095
38	0x3ebd7296	0.37001485
39	0x3df3bccc	0.119012445
40	0xbe206a5b	-0.15665571
41	0xbc5849c4	-0.013201181
42	0x3e1b058b	0.15138833
43	0xb8e17658	-0.00010750879
44	0x3d9a006d	0.075196125
45	0x3e376570	0.17909789
46	0x3d48677a	0.048926808
47	0x3dfc5536	0.1232094
48	0xbd1bbe6d	-0.0380234
49	0xbd780ba6	-0.060557984
50	0xbddb7f41	-0.10717631
51	0xbba9c579	-0.0051810113
52	0xbb94e1d6	-0.0045435233
53	0x3e4fb7d5	0.2028497
54	0x3dec8274	0.115483195
55	0x3d631cc5	0.05544736
56	0x3e601536	0.21883091
57	0x3d3f93a6	0.046771668
58	0x3d83482a	0.064102486
59	0xbd1d14c6	-0.03834989
60	0x3dcd9cb7	0.100396566
61	0xbc80d164	-0.015724845
62	0xbc2dfeb9	-0.010619813
63	0x3e47c757	0.19509636
64	0xbd11ba0d	-0.035577822
65	0x3e238235	0.15967639
66	0x3c97d280	0.018532991
67	0xbd1e4b86	-0.038646244
68	0xbdc3eec0	-0.09567022
69	0x3e237071	0.15960862
70	0x3e465104	0.19366843
71	0x3dbb0ca7	0.091332726

bneck.1.bn1.running_mean f4 [72]
0	0x3c405486	0.011738902
1	0xbc8cf20d	-0.017205263
2	0x3cc6a1e5	0.02424712
3	0x3d2080cf	0.03918534
4	0x3d2fe306	0.042941116
5	0xbc83575f	-0.016032873
6	0x3cd218f4	0.025646664
7	0xbbc8461f	-0.0061118747
8	0x3cdcba69	0.026944356
9	0xbab12a33	-0.0013516605
10	0x3c54adf2	0.012980925
11	0x3d4216f7	0.047385182
12	0xbc2155f4	-0.009847153
13	0x3d41432b	0.047183197
14	0x3c9bf1c4	0.019036181
15	0xbd856241	-0.06512881
16	0xbc9118b9	-0.017711984
17	0x3c595ae9	0.013266304
18	0xbc0afc4a	-0.008483002
19	0xbc28ba87	-0.010298378
20	0xbd316cf1	-0.043316785
21	0x398a4492	0.000263725
22	0xbccfc611	-0.025363
23	0x3d181fad	0.037139583
24	0x3c025491	0.0079547325
25	0x3abe3568	0.0014511766
26	0x3bd40d4c	0.0064713117
27	0x3c3ffdf6	0.011718264
28	0x3cf9378d	0.030421996
29	0x3c160014	0.009155292
30	0x3d460258	0.04834208
31	0x3c98310f	0.01857808
32	0x3cbb8451	0.022890242
33	0x3ce1b590	0.027552396
34	0x3d055cbf	0.032559153
35	0xbcc10f73	-0.023566937
36	0x3c5ecaea	0.013598183
37	0xbc89258c	-0.016741537
38	0x3c88c5e8	0.016695932
39	0x3c6bd476	0.014393916
40	0x3d3b3a8b	0.045710128
41	0x3d51515f	0.051102992
42	0xbd2ea1c8	-0.042634755
43	0xbc2fa294	-0.010719914
44	0x3d743b8b	0.059627097
45	0x3b0b1852	0.0021224213
46	0xbd006e2d	-0.03135507
47	0x3c06e209	0.008232602
48	0x3c8cc852	0.017185364
49	0xbd059a5b	-0.032617908
50	0xbc821663	-0.015879815
51	0xbd044841	-0.03229547
52	0x3ce7ad95	0.028281013
53	0x3d0fea7c	0.03513573
54	0x3d6e61c5	0.05819871
55	0x3d0ef206	0.03489878
56	0x3cabb313	0.020959413
57	0x3bca9ad0	0.006183006
58	0x3d820aec	0.063497394
59	0xbbaa6aef	-0.0052007358
60	0x388b87fe	6.653367e-05
61	0xbc96bf05	-0.018401632
62	0x3b81dbff	0.003962993
63	0xbd1a1f82	-0.037627704
64	0xbd0bdfa5	-0.03414883
65	0x3c3b2821	0.011423142
66	0xbc0449ab	-0.008074204
67	0x3c688eaf	0.014194175
68	0xbc04f7a6	-0.008115685
69	0x3cccc7ac	0.024997555
70	0x3cf3e846	0.029773843
71	0xbc8f3b01	-0.01748419

bneck.1.bn1.running_var f4 [72]
0	0x3d3e2010	0.046417296
1	0x3dba8bc2	0.09108688
2	0x3df6e664	0.12055662
3	0x3da34c82	0.07973577
4	0x3da9e001	0.082946785
5	0x3e158882	0.14602855
6	0x3dfb8f92	0.12283243
7	0x3e2066c5	0.15664203
8	0x3d9730c8	0.07382351
9	0x3df9f9bc	0.12205836
10	0x3db500f8	0.088380754
11	0x3e33ce76	0.17559227
12	0x3d3e3440	0.04643655
13	0x3e03cbf9	0.12870778
14	0x3dd3543c	0.10318801
15	0x3dbeaf64	0.09310797
16	0x3d833dd9	0.06408281
17	0x3dd74efd	0.10513113
18	0x3daea373	0.08527269
19	0x3d8849ea	0.06654723
20	0x3cb2cf36	0.021827321
21	0x3e3d0774	0.18459874
22	0x3d273375	0.040820558
23	0x3d490529	0.049077187
24	0x3dc34271	0.09534157
25	0x3dc4f819	0.096176334
26	0x3d318f8a	0.04334978
27	0x3d86fed2	0.06591572
28	0x3e842fec	0.2581781
29	0x3da96e8b	0.082730375
30	0x3e080714	0.1328395
31	0x3db87bc8	0.090079844
32	0x3dd6d500	0.10489845
33	0x3e36ed26	0.17863902
34	0x3d134a9f	0.035959836
35	0x3d6e2d1c	0.05814849
36	0x3dbd6a07	0.09248739
37	0x3e0a1a0f	0.13486503
38	0x3d8caaa1	0.068684824
39	0x3d2d1bcd	0.04226284
40	0x3d30e7dc	0.04318987
41	0x3da0c2fb	0.078496896
42	0x3d8d95e6	0.069133565
43	0x3e322aa2	0.17399076
44	0x3e2481ed	0.16065188
45	0x3db64f3a	0.0890183
46	0x3de60935	0.11232225
47	0x3e015a00	0.12631989
48	0x3d0cbd90	0.03436047
49	0x3d91136b	0.07083782
50	0x3dfb00d7	0.122560196
51	0x3d27af2d	0.040938545
52	0x3e18cc7b	0.14921753
53	0x3d97b347	0.07407241
54	0x3d9244df	0.07142042
55	0x3e4eee1f	0.20208023
56	0x3d5d468b	0.054022353
57	0x3e049f70	0.12951446
58	0x3df641dd	0.12024281
59	0x3d97aa28	0.074055016
60	0x3e543c15	0.20726044
61	0x3cf62fb8	0.030052051
62	0x3d1b4e7d	0.03791665
63	0x3d8d075b	0.068861686
64	0x3d6591a8	0.05604711
65	0x3dbdc1c9	0.09265477
66	0x3da10be4	0.07863596
67	0x3d93571d	0.0719435
68	0x3d9d492b	0.07679971
69	0x3dc06f31	0.09396208
70	0x3dae0fe2	0.08499123
71	0x3e30729a	0.17231217
